Lab7_ALTEGRAD_learning_on_sets_and_graph_generative_models/code/part1/model_deepsets.pth.tar (torch, 123362 bytes, 12 tensors)

embedding.weight f4 [11, 128]
000000 90 1a af 3d 6c f4 b8 3e f2 49 9d bf 38 05 1e 40
       0.08549988 0.3612398 -1.2288191 2.4690685
000010 d3 ba 9c 3f ed 53 fd be 28 fb 0e 3f f6 80 3b 3f
       1.2244514 -0.49478093 0.55851984 0.73243654
000020 57 62 a1 bf 0b b2 21 3f a6 b1 a0 be 37 96 04 c0
       -1.2608136 0.63162297 -0.31385535 -2.0716684
000030 21 ad 59 3e 53 1a 0a 3f 8d f8 ee bd c2 f7 eb 3f
       0.2125745 0.5394642 -0.11668501 1.8434985
000040 f6 99 19 3f 4b 19 1c 3e 1b f2 33 3f b2 f4 a3 3f
       0.6000055 0.15244024 0.702913 1.280905
000050 83 e2 29 3d c7 fa 8c bd 84 26 1a c0 da e3 e2 3e
       0.041475784 -0.068837695 -2.4086008 0.44314462
000060 65 5e 1d 3f 3c ab dd bd dc 9e e1 bd 8a 50 81 3f
       0.6147216 -0.10823676 -0.11016628 1.0102704
000070 8f 20 42 3e 49 11 bb bf 58 7b 4d bf a9 ea e2 bf
       0.18957733 -1.461465 -0.8026633 -1.7727863
000080 65 10 51 3f 5a 5a 88 3f 91 b1 fe bf e3 e5 a0 bf
       0.8166564 1.0652573 -1.9897939 -1.2570156
000090 b3 67 06 bf 20 37 cc be 5d 41 ee bd cc 99 e0 3f
       -0.5250198 -0.39885807 -0.11633561 1.7546935
0000a0 92 06 d9 be 85 e7 c8 be 4a ce 03 40 e9 a4 e2 3f
       -0.42387825 -0.39239135 2.059466 1.7706577
0000b0 93 40 3b 3f 2a 14 74 3e ef 09 06 3f 5f 11 99 3e
       0.7314541 0.23835817 0.5235891 0.29896066
0000c0 60 7d 97 3f 29 42 65 bf 89 a5 61 bf f8 92 76 3f
       1.1835136 -0.8955408 -0.8814321 0.96318007
0000d0 9f 4d 38 be f2 d0 eb be 90 3f 99 bf 1b f2 53 bf
       -0.1799836 -0.4605785 -1.1972523 -0.827913
0000e0 95 c5 aa bf 2d c6 68 3f 57 86 54 40 54 35 24 bf
       -1.3341547 0.9092739 3.3206995 -0.6414387
0000f0 fa da 99 3e 5e 72 13 3f 5a f6 93 3f 14 6b 10 c0
       0.30049878 0.57596385 1.1559556 -2.2565355
000100 40 93 97 3f 5a eb c9 be 57 30 30 3f 53 af 9a 3f
       1.1841812 -0.39437371 0.6882376 1.2084755
000110 f6 2b a3 bf 64 aa a9 3f fc 56 3b 3f 39 b9 29 40
       -1.2747791 1.3255124 0.731796 2.65193
000120 bb 0e 66 be 24 df 76 be 63 b2 1f bf 9b a8 0b c0
       -0.22466557 -0.24108559 -0.6238157 -2.1821659
000130 ae bf bc be 7c 40 b8 bf 09 dc db bf c0 49 29 bf
       -0.3686499 -1.4394679 -1.7176524 -0.6612816
000140 86 59 07 3f a4 46 6d bf 47 6f 98 3f 68 ec 07 40
       0.52870977 -0.92685914 1.1908959 2.123804
000150 c7 69 51 3f 6b c6 63 be 41 bf 49 3d b4 b6 3c 3f
       0.8180203 -0.22243659 0.04925466 0.7371628
000160 ef ba 94 3f 70 7a b2 be fc de 7e be 96 a5 36 3e
       1.1619548 -0.34859037 -0.2488975 0.17836604
000170 91 cc 4a 3e e1 db c1 bf 71 40 ae be 26 ca e4 3f
       0.19804598 -1.5145227 -0.3403354 1.7874191
000180 33 97 b7 3e 01 dc 12 c0 65 60 9e bf db 42 1f 40
       0.35857543 -2.294678 -1.2373167 2.4884555
000190 fc 1a e7 3e 63 f1 8e be a6 a1 6f bf 49 c8 68 3f
       0.45137775 -0.27918538 -0.9360603 0.9093061
0001a0 be f5 aa bf 9c 8b 6c 3f 0c 80 7d be cb 63 2a 3f
       -1.3356245 0.92400527 -0.24755877 0.6655852
0001b0 c7 5e 0c 3f eb fc 56 bf 92 11 52 3f f0 06 12 c0
       0.5483212 -0.8397967 0.8205806 -2.2816734
0001c0 59 d1 69 bf 9a ad da bf ac 4e de bf 7a 71 23 bf
       -0.91335064 -1.7084229 -1.7367759 -0.63845026
0001d0 c0 56 b1 bf 57 e9 a5 3e 42 27 99 bc e5 e7 42 3f
       -1.3854599 0.32404587 -0.018695477 0.7613509
0001e0 af 1c d6 3e 8a cb 1a 3f f1 73 00 3f 73 36 58 3e
       0.4181876 0.60466826 0.5017691 0.2111452
0001f0 51 c7 7d bf f0 3a 14 bf 61 80 29 40 db f2 2a 3e
       -0.9913226 -0.5790243 2.6484606 0.16694205
000200 b6 42 1e c0 49 b4 2e 3f 39 a4 0b 3f 98 c2 40 bf
       -2.4728217 0.68243843 0.5454746 -0.75296926
000210 25 dd 12 3f 37 87 a3 bf f0 30 4d 3e d1 40 ac be
       0.5736869 -1.2775639 0.200382 -0.336432
000220 a4 3b ce 3f 1c 6e 7b 3f f2 cc d5 3f 58 7c 40 bf
       1.6111951 0.9821489 1.6703169 -0.75189734
000230 b9 b3 14 3f 59 fd c5 bf 55 ab 06 bf 09 34 34 40
       0.58086735 -1.546794 -0.5260518 2.815676
000240 38 df 83 3e 09 4d 18 3e 94 f3 c0 3e 89 47 16 bf
       0.2575624 0.14873137 0.37685835 -0.58702904
000250 b0 d1 ba 3d 26 c8 a5 bf f1 83 2e bf 47 b0 3e 3f
       0.09122026 -1.2951705 -0.68170077 0.7448773
000260 3e 31 e4 be a8 ac 1c be c0 ac 21 3f f1 e8 4e 3e
       -0.4456882 -0.15300238 0.6315422 0.20206048
000270 f3 5c 96 3e e5 13 70 3f 65 28 8b bf 71 e1 4f 3f
       0.2936779 0.93780357 -1.0871702 0.8120337
000280 0b eb 81 3c 54 c6 c8 3f c3 cc 7a bf ac bf ca 3f
       0.015859148 1.5685525 -0.9796869 1.5839744
000290 e0 ec 10 c0 22 55 72 bf bd ab fc 3e 99 a9 1a bf
       -2.2644577 -0.9466115 0.49349776 -0.60415035
0002a0 a0 bb ea 3f b3 59 66 bd af 0f 59 bf db e0 c9 3f
       1.8338509 -0.056237888 -0.84789556 1.5771745
0002b0 be 5f bf be 7e 12 c9 bf 15 11 f3 3e fd dc 36 3f
       -0.37377733 -1.5708768 0.4747397 0.7143095
0002c0 2c 4f 4a 3f 5a d3 02 3f db 0a c8 bf 21 cd 27 3e
       0.79027057 0.51103747 -1.5628313 0.16386844
0002d0 5e 10 6c bf 1e ba 74 bf 99 7b 02 bf 8d da 8d bf
       -0.92212474 -0.9559649 -0.50969845 -1.1082321
0002e0 2c 00 a3 3d 16 c8 77 bf c7 a4 35 3f ed a0 41 bf
       0.07959017 -0.9678968 0.70954555 -0.7563618
0002f0 c0 e6 3f 3f c2 c2 ed 3f 01 af db bf cc 30 c5 be
       0.7496147 1.857506 -1.7162782 -0.38513792
000300 01 d2 0e 3e 56 2e 05 c0 a8 9d 40 3c f7 7c 80 be
       0.13947298 -2.0809531 0.011756338 -0.2509534
000310 93 58 25 bf f4 3c 06 3e ca 89 c6 bf a8 cd 53 3f
       -0.6458828 0.1310919 -1.55108 0.8273568
000320 f5 8b 9d 3e 20 6d 5f bf 68 30 54 bf db c6 ab 3e
       0.3077084 -0.87275887 -0.8288636 0.33550152
000330 07 44 7e bf 1b 12 ed bb 6a 3d e7 3f 51 fe 56 bf
       -0.9932255 -0.0072348244 1.8065617 -0.83981806
000340 b9 60 43 bf 0e cb 9a 3f 0e 68 91 3f 8c 86 8c be
       -0.7631946 1.2093217 1.135988 -0.274464
000350 75 40 27 40 a7 d3 13 40 46 b7 6b bf 20 96 17 bf
       2.6133091 2.3097932 -0.9207653 -0.5921345
000360 d0 a4 5e 3f 26 a4 90 ba c5 02 f9 3d 85 58 84 bf
       0.86970234 -0.0011035248 0.12158731 -1.0339514
000370 1b 76 0e bf 4f ca 39 3f 7c 42 50 bf 2d 72 c3 3d
       -0.55648965 0.72574323 -0.8135145 0.09543262
000380 4e ac 27 3d fd 1a b8 3d 27 f9 22 c0 c5 f2 0e 3f
       0.040935807 0.089895226 -2.546457 0.55839187
000390 bb 92 1b 3f 6f b0 09 c0 c3 23 0c 3e ab 46 07 3f
       0.6077077 -2.1513937 0.13685517 0.52842206
0003a0 7b 18 ce be 4f a8 53 3f 91 a5 41 bf c3 54 14 40
       -0.40253052 0.82678694 -0.7564326 2.3176734
0003b0 5c af f0 bf 77 25 d5 bf 02 15 1a 3d ee 73 0f 3f
       -1.8803515 -1.6652058 0.03761769 0.5603627
0003c0 a9 e7 b8 bf 7f 1e 2e 3f 13 9d e2 3e a5 40 a0 be
       -1.4445697 0.68015283 0.44260463 -0.3129932
0003d0 cf 42 05 c0 03 36 d8 3e a5 06 5c 3f e7 73 12 bf
       -2.0822027 0.42228708 0.8594764 -0.572081
0003e0 20 62 4e 3f 04 df 28 40 fa ef 0b bf c6 89 95 be
       0.80618477 2.6386118 -0.5466305 -0.29206675
0003f0 ed 4f 01 40 0d 3d 4b bf f3 66 0b 40 46 3a 03 3f
       2.0205033 -0.7939003 2.1781585 0.51260793

fc1.weight f4 [64, 128]
000000 8c 57 58 3d 18 45 9b 3d 0f 26 41 be 49 85 0f 3e
       0.052817866 0.07581538 -0.18862174 0.14015688
000010 62 25 a6 3d 72 4b 96 3d 2b 76 a5 bd f9 24 e7 bd
       0.08112599 0.07338609 -0.080791794 -0.11286349
000020 bd bb 5a be 4b 9c d0 bd 70 4c 1e be 50 28 8a bd
       -0.21360679 -0.101860605 -0.15458846 -0.0674597
000030 c8 d9 bd bd 71 02 cf 3c 66 ea 33 be e9 f8 95 3d
       -0.09270054 0.025269719 -0.17569885 0.073228665
000040 ff d5 0c bd 2b 7f 04 be 3d ad 6b bd d3 d9 b2 3c
       -0.03438377 -0.12939136 -0.05753826 0.021832382
000050 da 05 cb bd 41 e7 0d 3e 49 6c 9a 3d 9a 14 db 3c
       -0.099132255 0.13857748 0.07540185 0.026743222
000060 e5 e8 6d bd 86 66 b7 bd 7c 69 fe bd ce 8a 1a 3e
       -0.058083434 -0.08955102 -0.12422463 0.15092012
000070 a6 03 63 3d 6d d3 c1 bb 3c 7a 13 be 4b e8 51 3c
       0.0554234 -0.0059150965 -0.14402097 0.012811731
000080 b1 f7 53 3d 84 ba cb bd d7 8f aa 3d ce a5 ed bc
       0.05174989 -0.099476844 0.083282165 -0.029009726
000090 e1 0d ee 3d 9f 9c fd 3d 6e 6a d2 3d 04 ba 48 3c
       0.11623741 0.12383389 0.10274206 0.012251381
0000a0 f1 5d 95 bd d0 0e 0d bd 71 dd ff 3d 71 50 07 3e
       -0.072933085 -0.034437954 0.124934085 0.1321428
0000b0 e9 77 4a 3d c7 33 17 bd a1 99 2d 3e a6 41 0f be
       0.04943076 -0.036914613 0.16953136 -0.13989887
0000c0 1b 8a af bd ad 82 c4 bc 5f 3e 80 bd af 10 2a 3e
       -0.085712634 -0.023988092 -0.06261896 0.16607927
0000d0 de e7 83 3c e8 a7 42 3d 28 d0 bc 3d 38 5e e1 3d
       0.016101774 0.04752341 0.0921939 0.11004299
0000e0 5c e9 59 bd 2f 8e 00 3e 15 54 83 bc c1 5e 33 bc
       -0.053201064 0.12554239 -0.016031304 -0.010947884
0000f0 7c 49 9e 3b 79 d3 51 bd 00 40 5b 3d af 5f 06 be
       0.0048305374 -0.051227067 0.053527832 -0.13122438
000100 17 f0 b2 3d ba 1b fd 3c 22 61 2b bc 59 72 13 3d
       0.087372 0.03089701 -0.01046017 0.035997722
000110 ac 75 ba bd 91 fe ec bb e5 44 1a 3e 64 5f d3 3d
       -0.091044754 -0.007232495 0.15065344 0.10320929
000120 8d 05 e1 3d de 5a c0 bd 1d 12 19 bd 5a c8 82 bd
       0.10987387 -0.093923315 -0.03737079 -0.0638587
000130 b2 0a f6 bd 24 22 1b 3d 67 c0 52 be 3a be 73 3d
       -0.12013759 0.037874356 -0.20581208 0.059507586
000140 c2 51 1b 3d d6 0f 6e 3d cb 8e 36 b9 90 9d 10 bd
       0.037919767 0.05812057 -0.00017410067 -0.035306513
000150 ac 98 5c 3d 5f ac 14 be 43 03 8b bd 5e e5 2b 3c
       0.053856537 -0.1451888 -0.067877315 0.010491697
000160 f7 2e 19 3e b8 c9 17 be 72 7f 88 bd 53 49 98 3c
       0.14959322 -0.14823043 -0.06664933 0.018589651
000170 a6 82 ee 3d bc fb 28 be 45 5e 01 3e d7 80 5a 3c
       0.11646013 -0.16502279 0.12633617 0.013336382
000180 91 8e 13 3e 6d f2 ce bd 47 48 45 3c 6f de 20 3e
       0.14409854 -0.10104833 0.012041158 0.15709852
000190 03 0a 9f bd 50 a5 b1 3d 8f 79 c9 bd 0f 28 0f bd
       -0.077655815 0.08674109 -0.098376386 -0.034950312
0001a0 45 41 2e be bc da 9b bd 4a 49 01 bd 8f 38 c5 bd
       -0.17017086 -0.0761008 -0.031564035 -0.09629928
0001b0 02 63 08 3e 98 c7 d9 bd 8f 40 45 3d 29 94 13 bc
       0.13319018 -0.106337726 0.04815727 -0.009007492
0001c0 87 0f d7 3d bf 08 12 be 20 a9 9a bd 49 5c 1a be
       0.105010085 -0.14261149 -0.07551789 -0.15074266
0001d0 26 45 6e bd 71 02 c4 3d 26 b2 34 bd d3 3e e0 bd
       -0.058171414 0.09570778 -0.044115208 -0.10949483
0001e0 aa 2b 63 bc 93 b5 00 3c 66 6a d6 bc ef 1e b0 bd
       -0.013865391 0.007855791 -0.026173782 -0.0859965
0001f0 e9 24 75 be 42 04 4f be 8a 7e fc b8 00 92 35 bc
       -0.23939861 -0.20216468 -0.00012039866 -0.011082172
000200 d6 c7 b6 3c 22 22 8f bc 16 80 04 3c 2b dc 9e 3d
       0.022312086 -0.01747233 0.008087179 0.077568375
000210 98 25 ba bd f7 8c 16 3e 8f 9d 93 bd bc df 88 bd
       -0.09089202 0.14702211 -0.07207786 -0.06683299
000220 c6 f0 2e 3d 58 77 4a be 31 5b b4 bd 40 95 13 3e
       0.04271009 -0.19772089 -0.08806456 0.14412403
000230 4b 63 44 be 44 ad 36 3d 54 c5 2e be 48 1b 62 bd
       -0.19178502 0.044598833 -0.17067462 -0.0552018
000240 ac 61 16 be e1 53 80 bd f0 2a ec bd 1f 4a 58 bd
       -0.14685696 -0.06265999 -0.11531627 -0.052805062
000250 2f db 36 be 1e ae c0 bb 80 4c 29 3e 39 82 61 be
       -0.1785705 -0.0058801314 0.16533089 -0.22022332
000260 1d 3e 85 bd 52 30 7d 3d ef 5a db 3c d3 85 e0 3c
       -0.06505988 0.06181366 0.026776759 0.027407562
000270 d1 0a a3 3d 65 ed 60 3d d8 ad bb bd 7f 46 24 bd
       0.079610474 0.054913897 -0.091640174 -0.040106293
000280 48 8c 93 3b 8a 39 e5 3d 40 59 8c 3d f5 3a a9 bc
       0.004502807 0.11192615 0.068529606 -0.020657996
000290 2e 5b be 3d 33 75 26 3e 0b ac 2b 3d 2e 18 0d be
       0.09294735 0.16255645 0.04191212 -0.13778755
0002a0 29 b3 92 bc 6c 1b 85 3c 08 2f 8a bb 7e bb 39 bd
       -0.017907696 0.016248427 -0.0042170323 -0.045344822
0002b0 a0 a2 76 bd b8 4b 01 be 21 d0 04 bc 91 92 c5 bd
       -0.060213685 -0.1262654 -0.008106262 -0.09647096
0002c0 a0 87 c5 bd 35 20 0f 3e 25 13 9e 3c 77 47 90 3d
       -0.09645009 0.1397713 0.019296238 0.07044881
0002d0 6e cd d5 3c 8f 16 51 be 82 1d 25 3e 78 7b e0 3d
       0.026098933 -0.20418762 0.16124538 0.1096105
0002e0 63 ac 21 bd 1a 6d 13 3d 11 b2 7e 3d 10 78 fa 3c
       -0.03947104 0.03599272 0.062181536 0.030574828
0002f0 a1 82 78 bc eb 2e 4b bc c3 89 9f bd 1f 18 d2 bd
       -0.015167863 -0.012401323 -0.07789948 -0.10258507
000300 43 46 34 bd d7 8e d9 3d 36 89 05 be 16 d6 31 be
       -0.04401232 0.10622948 -0.13040623 -0.17366824
000310 20 36 c9 3c 54 3b c0 bd 6b f5 2b bd e5 40 90 bd
       0.024561942 -0.09386316 -0.041982096 -0.07043628
000320 6a 5d 91 3c 92 92 48 bd 29 f1 d7 3d a5 77 cd 3d
       0.017744739 -0.048967905 0.105440445 0.10032586
000330 de d8 72 bd c9 91 b6 3c a0 b3 e4 bc e4 c2 94 3d
       -0.059288852 0.022286313 -0.027917683 0.07263735
000340 40 48 f2 3d 01 71 c5 3d 5d e3 fd bd 53 37 35 bd
       0.11830187 0.096406944 -0.12396882 -0.044242214
000350 8e 05 f3 3a 59 b8 94 bd 6f 16 0d bb 29 a7 24 3e
       0.0018541084 -0.07261724 -0.0021528264 0.16079392
000360 3a 3c 08 be 53 50 6b bd c1 f4 80 bd 6b e2 0d 3c
       -0.13304225 -0.05744965 -0.06296683 0.008659939
000370 77 3d 3e 3d c8 13 9d bd 3b f3 2f 3e 84 f0 02 be
       0.046445336 -0.076697886 0.17182629 -0.12787062
000380 67 b1 4c 3c ec 29 c5 3b c5 60 4e 3c a2 ba 37 bc
       0.012493468 0.0060169604 0.012596314 -0.01121393
000390 07 33 cc bd 92 13 49 3d 95 ff 4b 39 e8 81 ea bc
       -0.0997067 0.04909093 0.000194548 -0.028626397
0003a0 4d c8 c3 bd 3a 72 85 bd e7 41 7f bd 29 d4 03 be
       -0.09559689 -0.065159276 -0.06231871 -0.12873901
0003b0 36 3e 88 3d f2 c1 93 3d 81 8a 6b 3d 92 35 c4 3d
       0.06652491 0.072147265 0.057505134 0.0958053
0003c0 32 4f 03 3e 93 53 e3 3d 1b 27 aa bd e7 bf 13 be
       0.1282318 0.11099925 -0.0830824 -0.14428674
0003d0 d5 7c bd 3d e9 9a 43 3c 7a 12 1b be 3a 00 21 be
       0.092523254 0.011938789 -0.15143767 -0.15722743
0003e0 0f c0 73 be dc a0 cc 3c 92 67 a3 3c f8 49 35 be
       -0.23803733 0.024979047 0.019946847 -0.17703998
0003f0 5e 30 9a 3d 84 37 08 be 9f fc 05 be 48 04 ad 3d
       0.075287566 -0.13302428 -0.13084649 0.08448082

fc1.bias f4 [64]
000000 7a 9b 29 be f8 f9 d9 bc 00 29 98 bd bf ff 0c be
       -0.16563216 -0.026608452 -0.07429695 -0.13769434
000010 1e 26 c9 bd c5 1c c5 bb 49 56 1d bd c3 50 d6 3d
       -0.098217234 -0.0060153925 -0.038412366 0.10464623
000020 74 a1 e5 3d 16 5f a8 3c 35 92 50 3d c2 16 f1 bd
       0.11212435 0.020553153 0.050920684 -0.11771919
000030 15 8b 33 be 82 b4 11 3e ff 9f 39 3e 6d d9 2c 3e
       -0.17533524 0.14229015 0.1812744 0.16879816
000040 fd d1 4f 3e 4c 19 ad bb 23 9a dd 3d 28 54 3e 3b
       0.20294948 -0.0052825566 0.10820415 0.002904186
000050 e0 9b 0a be b2 17 ee 3c ee 8b c4 3a 03 b0 e3 bd
       -0.13536024 0.029064033 0.0014995316 -0.11117556
000060 b5 e0 05 3e 4f 06 bf bc 48 70 1b 3e c5 8c 7d 3d
       0.13074 -0.023318438 0.1517955 0.061901826
000070 c0 39 b0 bb 20 42 52 3d 87 00 4b 3d c3 f2 d4 3d
       -0.005377978 0.051332593 0.04956105 0.103978656
000080 99 e2 03 3e e1 f6 54 bc f1 fe c4 bd 4f 61 24 bd
       0.12879409 -0.012998314 -0.09618939 -0.040131863
000090 00 2d f0 bc e2 39 fd bb e3 63 e3 3d fb d6 c8 bd
       -0.029318333 -0.0077278474 0.11103036 -0.09806629
0000a0 54 8f 23 3e d7 d5 32 bd f0 f0 91 bd 83 a1 d6 3d
       0.15972644 -0.043660965 -0.07126033 0.10480025
0000b0 8a 8a b5 bd fd a7 22 be 08 67 78 3d e9 13 2c bb
       -0.08864315 -0.15884395 0.060645133 -0.0026256985
0000c0 12 99 2e 3e 1f 08 1e bd 95 b0 a3 bd c0 3e 19 be
       0.17050579 -0.038581964 -0.07992665 -0.14965343
0000d0 f9 10 db bd 1c ed 12 be b8 c0 27 be a1 5e c1 bd
       -0.10696597 -0.14348263 -0.1638211 -0.09441877
0000e0 c6 88 0e bd af 4f 05 be 89 da 3a be 3a a1 22 bb
       -0.034798406 -0.13018678 -0.18247427 -0.0024815337
0000f0 ff d0 a3 bd 06 83 cd 3d 8b e6 dd 3b f5 e6 b7 3d
       -0.07998847 0.10034756 0.0067718676 0.089795984

fc2.weight f4 [1, 64]
000000 87 e8 0e be a9 62 3d be c4 d3 35 be ef ba d8 bd
       -0.1395589 -0.18494667 -0.17756563 -0.1058253
000010 a8 e3 09 be 0f 06 3e 3e e2 17 0a be e8 ee 4a 3e
       -0.1346575 0.18556999 -0.13485673 0.19817698
000020 9f 9b 58 3e 5b de 27 3e 2d 60 d6 3d 43 2c 32 be
       0.21153115 0.16393416 0.10467563 -0.17399697
000030 09 24 06 be 6e 8f 0b 3e b3 e0 9e 3d aa b8 34 3e
       -0.13099684 0.13628933 0.07757702 0.17648569
000040 63 3c 35 3e 78 6e 0f 3e 6d 33 fd 3d 20 12 39 be
       0.17698817 0.14006984 0.12363324 -0.1807332
000050 7e 1c 24 be a4 eb 2b 3e 5a 95 1f be 05 b9 cd bd
       -0.16026494 0.16789109 -0.15584317 -0.10045055
000060 47 a1 01 3e f1 f5 d8 bd 60 e1 13 3e 55 a1 f2 3d
       0.12659179 -0.105937846 0.14441442 0.11847178
000070 4a 04 1a 3e 43 3d eb 3d 68 aa 43 be 0d b6 67 3e
       0.15040699 0.11486294 -0.19107974 0.2262804
000080 da 53 6a 3e a0 9d 5c 3e ca 1b 55 be 55 43 00 be
       0.2288355 0.21544504 -0.20811382 -0.12525685
000090 d0 a9 dd 3d 58 1b 4e 3e 49 ab 0d 3e cb 29 43 be
       0.10823405 0.20127618 0.13834871 -0.19058912
0000a0 75 f2 41 3e 8b 22 18 be ed 19 07 be d9 18 44 3e
       0.18940146 -0.14856927 -0.13193484 0.19150104
0000b0 e6 19 67 be cc 04 0b be 32 e7 1e 3e 32 f5 30 be
       -0.22568473 -0.13576049 0.15517882 -0.17281035
0000c0 7d 44 cf 3d 06 1b 4e be 6c 87 2e be dd 12 e2 bd
       0.10120485 -0.20127496 -0.17043847 -0.11038754
0000d0 c2 2f 37 be 23 db 46 be 53 87 09 be f3 22 22 be
       -0.17889312 -0.19419532 -0.13430528 -0.15833645
0000e0 60 4d 30 3e 95 31 d7 bd 46 6c f9 bd 3e dd 11 3e
       0.17217016 -0.10507504 -0.12178855 0.14244553
0000f0 da 7b 09 be 12 fa 02 3e e3 38 1e 3e 53 42 50 3e
       -0.13426152 0.12790707 0.15451388 0.203378

exp_avg f4 [11, 128]
000000 34 7f f2 37 24 c0 d6 37 cc 80 88 b7 cf 01 08 b6
       2.8907882e-05 2.560026e-05 -1.627244e-05 -2.0266632e-06
000010 6d 2a 41 b7 99 4d 42 38 f3 5e cc b7 e5 5d c6 b7
       -1.15135745e-05 4.6325473e-05 -2.436291e-05 -2.3647162e-05
000020 44 db 00 37 e0 ca 1f b3 cc cd 1b b8 77 cd b2 37
       7.680446e-06 -3.7204586e-08 -3.7146543e-05 2.131493e-05
000030 2f b0 4c b8 36 ea ed b7 e8 d5 e5 b7 ec 64 06 36
       -4.8801474e-05 -2.8361665e-05 -2.7398535e-05 2.00263e-06
000040 c4 53 66 b7 fb 2c 3e b8 d3 b0 3a b7 a8 db 36 b7
       -1.37285715e-05 -4.534142e-05 -1.1127634e-05 -1.0899188e-05
000050 9c 3c 51 b8 ab 06 3b 38 fc 08 fa 37 f5 63 df b6
       -4.988593e-05 4.4590484e-05 2.9806506e-05 -6.6575544e-06
000060 58 38 2f b8 78 39 79 36 84 04 85 34 54 bc b0 b6
       -4.1775726e-05 3.7137343e-06 2.4776466e-07 -5.267133e-06
000070 07 65 0e 38 33 2e e9 36 f4 fe 5f b8 7a 3e 71 37
       3.3949527e-05 6.9493194e-06 -5.3404787e-05 1.4379266e-05
000080 5d 20 ed b6 e0 ce c3 b2 9f 12 17 38 ae c5 6a 36
       -7.066918e-06 -2.2795064e-08 3.6018548e-05 3.4983782e-06
000090 ec 58 0a 38 21 99 d2 37 de 2f 42 38 73 00 96 b7
       3.298458e-05 2.5105257e-05 4.6297784e-05 -1.7881603e-05
0000a0 75 4b a1 36 84 da 62 b7 98 bd 8a b6 d0 f1 29 b7
       4.8069583e-06 -1.3521527e-05 -4.134792e-06 -1.0129486e-05
0000b0 6a e4 2f b8 bb 94 27 b8 7e c3 fd 37 5c bc 2b b8
       -4.193598e-05 -3.995442e-05 3.0250983e-05 -4.0945e-05
0000c0 69 d2 0a b8 97 47 2f 38 74 30 46 b5 ab 17 07 37
       -3.3097724e-05 4.1789925e-05 -7.3831256e-07 8.052138e-06
0000d0 61 65 23 b7 81 c1 cc b7 ce f1 aa 37 85 69 0a 38
       -9.739161e-06 -2.4408802e-05 2.0378178e-05 3.3000037e-05
0000e0 ff ca 24 37 c1 56 dd b6 3a 70 18 b7 fc f6 a2 37
       9.822425e-06 -6.5964127e-06 -9.086036e-06 1.9426916e-05
0000f0 fe 53 14 35 de 0f d5 b7 da de 6d 36 b6 63 8a b7
       5.525652e-07 -2.5398967e-05 3.5445469e-06 -1.6497313e-05
000100 3c f1 4a b7 42 fa db 36 c6 c6 14 b7 5d 0a 29 b8
       -1.2096305e-05 6.5558424e-06 -8.867768e-06 -4.030239e-05
000110 db 88 09 37 40 c4 35 b6 4c 71 09 b5 63 5f 8f b6
       8.1977005e-06 -2.7085334e-06 -5.1201346e-07 -4.2728366e-06
000120 51 0d ac 37 7c 9b 95 b7 25 b5 b3 37 05 41 dd 37
       2.0510199e-05 -1.7834587e-05 2.1422815e-05 2.637553e-05
000130 63 fe c7 b7 98 8c 79 37 12 03 0e b8 c2 a6 26 38
       -2.3841107e-05 1.4874291e-05 -3.3858298e-05 3.973279e-05
000140 be 99 82 b6 0d db 07 38 ed 7a 3d b8 65 17 11 b8
       -3.8922e-06 3.2390515e-05 -4.5175595e-05 -3.4592482e-05
000150 b7 1b 84 b6 f2 a8 1f b8 18 6b af b7 72 a5 78 37
       -3.937133e-06 -3.8065897e-05 -2.0911495e-05 1.4820473e-05
000160 90 81 69 b7 b6 25 57 b8 e1 3d 08 b8 88 f4 df 35
       -1.3918048e-05 -5.1295116e-05 -3.2482556e-05 1.6685963e-06
000170 be 90 68 38 9e b5 0f b8 ea 16 0f 38 31 c3 98 b6
       5.5447912e-05 -3.4263e-05 3.4115197e-05 -4.5526763e-06
000180 b8 35 df 37 19 40 97 36 c7 1b 81 37 be be db 37
       2.6608686e-05 4.5076126e-06 1.5390933e-05 2.6195656e-05
000190 e6 a1 0e b8 1f fc a3 37 d7 03 9a 37 62 ce cf b7
       -3.4006218e-05 1.9548517e-05 1.8360019e-05 -2.4772427e-05
0001a0 30 63 f1 b7 73 3b 0a b8 0c f1 49 b7 a7 8a 87 b6
       -2.8775627e-05 -3.295713e-05 -1.2036657e-05 -4.039455e-06
0001b0 f3 a1 47 b7 4b 60 af b7 0a b7 25 38 73 7e a6 36
       -1.1899031e-05 -2.0906466e-05 3.9509534e-05 4.961906e-06
0001c0 3c ce c5 37 2f c6 4e 37 1b ed 99 36 cc 14 1f b8
       2.3580265e-05 1.23247e-05 4.587358e-06 -3.7927923e-05
0001d0 28 36 2a b7 64 10 7a 37 36 26 db b7 f7 a2 2f b8
       -1.0145399e-05 1.4904977e-05 -2.6124628e-05 -4.1875024e-05
0001e0 56 d4 21 b8 d7 ca d2 37 9e 5f 11 36 b2 a7 1d b8
       -3.8583144e-05 2.5128405e-05 2.166234e-06 -3.7587895e-05
0001f0 cd 64 a1 36 be a6 41 b8 93 ae 6f b5 f7 c0 2c b6
       4.8099087e-06 -4.6170077e-05 -8.9288477e-07 -2.5742318e-06
000200 e8 f9 2d 38 31 1b 07 38 62 eb da b7 6e 84 a4 36
       4.1479158e-05 3.2211832e-05 -2.6097234e-05 4.9029977e-06
000210 5b 29 20 b7 62 a6 5d 38 ac 20 c2 b7 8c 89 c1 b7
       -9.546372e-06 5.2845462e-05 -2.3141816e-05 -2.3071443e-05
000220 32 48 45 b7 53 4f a2 b5 22 6f 6f b8 d0 ca be 37
       -1.1758924e-05 -1.2093027e-06 -5.708554e-05 2.2744207e-05
000230 e6 0b 63 b8 da d0 c6 b7 d2 f8 02 b8 7a 5a 4e 36
       -5.41321e-05 -2.3700693e-05 -3.1226147e-05 3.0749056e-06
000240 db ba 84 b7 be ec 59 b8 47 d9 83 b7 9f 07 15 b7
       -1.5822638e-05 -5.1957315e-05 -1.5717595e-05 -8.8828665e-06
000250 b6 2c 7d b8 26 a8 72 38 d3 cb 0a 38 90 b9 d7 b5
       -6.036154e-05 5.7853897e-05 3.309159e-05 -1.6072754e-06
000260 46 22 32 b8 2a 4c 37 36 2a ed 23 b7 08 da 9d b3
       -4.2470427e-05 2.7313458e-06 -9.770776e-06 -7.350542e-08
000270 3a 8a 2d 38 18 6d 8d b6 c4 44 82 b8 c4 2d 31 37
       4.1375148e-05 -4.2148276e-06 -6.211692e-05 1.0560678e-05
000280 a9 b0 99 b6 47 b3 53 b6 9a 58 1f 38 07 84 9f b6
       -4.5803213e-06 -3.1545803e-06 3.799107e-05 -4.7539393e-06
000290 d8 5c 3a 38 ee a3 e6 37 14 f0 5f 38 b4 ea 55 b7
       4.4432323e-05 2.7494472e-05 5.3390933e-05 -1.2750435e-05
0002a0 b9 00 00 b7 3e bf d1 b7 1e 64 09 b5 04 34 bf b6
       -7.629563e-06 -2.5003796e-05 -5.1182167e-07 -5.698299e-06
0002b0 f4 b1 45 b8 66 68 25 b8 bc 09 44 38 b2 7d 4f b8
       -4.7134192e-05 -3.9436294e-05 4.6739107e-05 -4.946971e-05
0002c0 54 9d 32 b8 ae 92 38 38 48 e8 ca 35 ef e9 99 37
       -4.258503e-05 4.4005625e-05 1.5117776e-06 1.8347955e-05
0002d0 a6 39 45 b7 40 f2 eb b7 02 09 bd 37 5c ae 2c 38
       -1.1755537e-05 -2.812699e-05 2.253475e-05 4.117038e-05
0002e0 02 f2 d3 36 9b 93 04 36 1e 2f 1a b6 93 6a 96 37
       6.3164634e-06 1.975545e-06 -2.2975214e-06 1.7931021e-05
0002f0 69 57 b3 b6 81 a3 19 b8 70 13 c4 37 1a c0 fa b7
       -5.3447916e-06 -3.6630317e-05 2.3374072e-05 -2.9891777e-05
000300 ac 98 99 b6 43 f7 86 37 37 03 83 b6 12 60 2f b8
       -4.5775287e-06 1.6089185e-05 -3.9044785e-06 -4.1812724e-05
000310 7a cb d9 36 0f ae 96 35 5a 94 46 37 c8 3b dd 36
       6.4907917e-06 1.1226529e-06 1.18362605e-05 6.5932727e-06
000320 96 4e ae 37 4a 20 96 b7 8e bf dd 37 54 5a d7 37
       2.077901e-05 -1.789643e-05 2.6434453e-05 2.567206e-05
000330 0a e0 f6 b7 b4 84 49 37 9e 21 6b b8 9a e9 54 38
       -2.9429812e-05 1.2011431e-05 -5.6059675e-05 5.0762297e-05
000340 85 fa 0f b7 b6 34 f1 37 cc 28 4c b8 3e 31 08 b8
       -8.581793e-06 2.8753984e-05 -4.8675385e-05 -3.2470787e-05
000350 92 5c e6 b6 b2 83 4c b8 d4 13 c0 b7 9c a3 e5 37
       -6.8653108e-06 -4.876004e-05 -2.2897417e-05 2.7375114e-05
000360 f4 8e e7 b5 7f 58 82 b8 e8 59 22 b8 31 2b 13 37
       -1.7252446e-06 -6.215367e-05 -3.870754e-05 8.771939e-06
000370 05 1a 93 38 92 fb 5c b8 50 95 25 38 7c 8c 8b 35
       7.014353e-05 -5.268638e-05 3.9478124e-05 1.0397193e-06
000380 3f 0b 1b 38 f9 38 21 36 fa 78 b6 37 be e9 17 38
       3.6965354e-05 2.4024032e-06 2.1752425e-05 3.6218895e-05
000390 b8 ea 21 b8 d8 ae d4 37 4c cf 7b 37 4a 4e fb b7
       -3.860399e-05 2.5353787e-05 1.5009031e-05 -2.9957988e-05
0003a0 85 3b 06 b8 26 97 1d b8 9f 62 10 b7 18 1b 10 b7
       -3.200352e-05 -3.7572485e-05 -8.606031e-06 -8.589377e-06
0003b0 d9 c2 09 b7 96 f7 e5 b7 a8 e9 3d 38 a0 5f 6c 32
       -8.211203e-06 -2.7414218e-05 4.527872e-05 1.3758751e-08
0003c0 6e a5 d6 37 d2 70 3a b6 de 96 76 35 62 76 51 b8
       2.5587822e-05 -2.778183e-06 9.186168e-07 -4.9939736e-05
0003d0 dc db 83 b7 02 36 e6 37 7b 01 0f b8 44 eb 4a b8
       -1.5718797e-05 2.7443286e-05 -3.4095236e-05 -4.837966e-05
0003e0 86 a5 2e b8 d0 fe ab 37 4c e3 5b 36 5a 9d 4c b8
       -4.163899e-05 2.0503445e-05 3.2765847e-06 -4.8783935e-05
0003f0 41 96 8b b7 22 ee 61 b8 46 52 47 b6 c7 34 b2 b6
       -1.6640059e-05 -5.386596e-05 -2.97012e-06 -5.3109575e-06

exp_avg_sq f4 [11, 128]
000000 cc 47 d0 34 fc 9f a5 34 32 93 03 34 19 f1 95 30
       3.8795258e-07 3.085005e-07 1.2253875e-07 1.0909701e-09
000010 25 89 8b 33 55 96 84 35 b5 49 98 34 ff 04 85 34
       6.497638e-08 9.878519e-07 2.8365835e-07 2.4776816e-07
000020 88 35 f6 32 ed c3 26 31 93 f5 39 35 0f 98 4c 34
       2.8662512e-08 2.426755e-09 6.927523e-07 1.9054299e-07
000030 82 75 94 35 5d db d1 34 11 e2 c6 34 e6 ec 00 31
       1.1061059e-06 3.908889e-07 3.704486e-07 1.8761113e-09
000040 65 e0 8c 33 ed bd 7f 35 0d d0 82 33 55 14 4d 33
       6.560075e-08 9.527128e-07 6.091441e-08 4.7748774e-08
000050 48 ad a1 35 e8 64 83 35 2f f1 cc 34 de 31 97 32
       1.2045866e-06 9.789628e-07 3.8173445e-07 1.760139e-08
000060 38 62 5b 35 90 90 91 32 cc a8 56 2f 6d 91 87 32
       8.1726785e-07 1.6945961e-08 1.9523155e-10 1.57822e-08
000070 b0 41 0c 35 23 55 4c 32 ff c4 b8 35 6e ed c0 33
       5.224965e-07 1.1893721e-08 1.3766402e-06 8.983885e-08
000080 36 ce 95 32 93 44 27 30 71 cc 1e 35 bc 9b 8b 31
       1.7439657e-08 6.0851696e-10 5.915709e-07 4.0631374e-09
000090 93 36 06 35 c9 66 a9 34 c0 dd 87 35 d7 b3 17 34
       4.9998306e-07 3.155349e-07 1.0122822e-06 1.4128396e-07
0000a0 05 a6 0b 32 03 6a 99 33 0f 85 cd 31 f8 d9 37 33
       8.128613e-09 7.143901e-08 5.9814123e-09 4.280625e-08
0000b0 c7 cc 58 35 39 aa 4d 35 bf 66 e7 34 6e 22 54 35
       8.076426e-07 7.661616e-07 4.310186e-07 7.9026256e-07
0000c0 c5 b4 00 35 91 79 5e 35 81 2b 30 30 8c 5c dd 32
       4.794677e-07 8.2878347e-07 6.409025e-10 2.5769872e-08
0000d0 89 de 5a 33 e8 98 a7 34 4f d8 37 34 d0 04 06 35
       5.0959475e-08 3.1217428e-07 1.7121896e-07 4.9925893e-07
0000e0 ee dc 27 33 b2 36 a4 32 28 2d 00 33 40 c0 1f 34
       3.9083652e-08 1.9116985e-08 2.984339e-08 1.4877969e-07
0000f0 45 df 08 2f ae 15 9e 34 1d 4a 99 32 29 80 0f 34
       1.2448449e-10 2.9445567e-07 1.7845247e-08 1.3364537e-07
000100 67 02 97 33 f3 8a a8 32 8e 66 3f 33 74 d8 40 35
       7.0319224e-08 1.962096e-08 4.4563926e-08 7.1840554e-07
000110 c3 c7 14 33 2e fd 7f 30 c7 30 83 30 b8 5a 81 31
       3.4640617e-08 9.312825e-10 9.545368e-10 3.7647077e-09
000120 b2 71 46 34 3d da 11 34 94 03 58 34 45 dc a9 34
       1.8481549e-07 1.3583572e-07 2.011787e-07 3.163897e-07
000130 e5 f1 a0 34 20 6a ef 33 5e 9a 14 35 4e 3d 40 35
       2.9978324e-07 1.1148609e-07 5.535893e-07 7.1614784e-07
000140 5c 26 f7 31 23 08 fd 34 21 13 7d 35 06 dc 0f 35
       7.193007e-09 4.7130843e-07 9.427768e-07 5.359183e-07
000150 62 f6 8e 31 50 32 32 35 37 af 62 34 5a dd c1 33
       4.1607544e-09 6.638338e-07 2.1111633e-07 9.0275265e-08
000160 f3 2a cb 33 d7 bb af 35 e1 d2 06 35 f6 0c 79 30
       9.4607365e-08 1.3093185e-06 5.022576e-07 9.060409e-10
000170 31 bd cb 35 ad 0e 13 35 83 ae 0e 35 46 e6 c1 31
       1.517974e-06 5.4783123e-07 5.315307e-07 5.6432183e-09
000180 53 7a aa 34 8a e5 ae 31 96 d8 ec 33 68 aa ad 34
       3.175397e-07 5.090162e-09 1.1029003e-07 3.2347748e-07
000190 c7 e9 09 35 a1 a2 2c 34 51 0f 21 34 21 e9 a9 34
       5.137667e-07 1.6077912e-07 1.4999866e-07 3.1648327e-07
0001a0 01 65 c8 34 12 12 fa 34 28 bb db 33 09 b2 83 31
       3.7326393e-07 4.6579277e-07 1.0232026e-07 3.832842e-09
0001b0 10 b3 a6 33 d7 73 80 34 3f 3a 45 35 ba ef 1f 32
       7.762549e-08 2.3926142e-07 7.347298e-07 9.309526e-09
0001c0 9b 5e 85 34 9b 80 66 33 5c da 94 32 32 71 39 35
       2.4842015e-07 5.3668014e-08 1.7328766e-08 6.908259e-07
0001d0 43 8b 5d 33 6b c6 d9 33 9f 55 a1 34 19 63 5b 35
       5.158223e-08 1.0140942e-07 3.0050884e-07 8.1728064e-07
0001e0 a3 a1 36 35 41 5d a2 34 35 70 e8 30 d9 39 2e 35
       6.8035496e-07 3.0242703e-07 1.6912113e-09 6.490423e-07
0001f0 ab 88 da 31 3e 05 88 35 61 05 63 2e ab 88 c5 31
       6.3601724e-09 1.0134315e-06 5.1618602e-11 5.748992e-09
000200 ee 8c 21 35 b7 8e c9 34 b2 6e 7b 34 7d 3f 14 32
       6.0182253e-07 3.7543006e-07 2.3416467e-07 8.629169e-09
000210 ab 62 16 33 ee cb 83 35 73 cc 5c 34 5f 23 4c 34
       3.5014335e-08 9.819612e-07 2.0563475e-07 1.9011848e-07
000220 06 83 1b 33 fc 08 0d 31 78 95 9d 35 5d 13 38 34
       3.6207915e-08 2.0523307e-09 1.1740913e-06 1.714338e-07
000230 39 fb 8c 35 e7 f6 7d 34 3e e7 cc 34 05 fd 6e 31
       1.0503928e-06 2.3652284e-07 3.8166212e-07 3.4777383e-09
000240 d8 2e 93 33 73 da 80 35 42 6d c6 33 b4 ad ea 32
       6.853742e-08 9.60032e-07 9.2399674e-08 2.7320176e-08
000250 6f a8 b5 35 37 69 a7 35 f4 a6 c4 34 be 20 3e 30
       1.3534572e-06 1.2473091e-06 3.662932e-07 6.9168127e-10
000260 d1 b4 30 35 24 a9 48 32 e4 5f de 32 8f 12 19 30
       6.582823e-07 1.167999e-08 2.5887807e-08 5.568745e-10
000270 82 88 1e 35 3a 2a 87 32 4d c1 bf 35 8a ec 30 33
       5.905823e-07 1.573527e-08 1.4286867e-06 4.1193324e-08
000280 9e 68 c3 31 d8 66 cb 30 58 97 07 35 95 b5 fb 31
       5.6871405e-09 1.4799424e-09 5.0511653e-07 7.325705e-09
000290 1c 50 37 35 16 33 9d 34 96 0b 8b 35 ff 1d 75 33
       6.8289387e-07 2.92807e-07 1.0359679e-06 5.707079e-08
0002a0 52 22 a0 32 49 db 50 34 ed ce db 2f 32 f6 17 32
       1.8642059e-08 1.9451285e-07 3.9982898e-10 8.845335e-09
0002b0 05 33 53 35 72 9a 22 35 2f f1 4c 35 06 37 6c 35
       7.867787e-07 6.057445e-07 7.634689e-07 8.799692e-07
0002c0 8d 88 21 35 84 14 44 35 1f 76 c4 2f 61 a2 e2 33
       6.017588e-07 7.3045544e-07 3.5736122e-10 1.05534816e-07
0002d0 20 1c 75 33 cd 9b af 34 4f 99 2e 34 fe 2e 20 35
       5.7069087e-08 3.270965e-07 1.6260786e-07 5.967303e-07
0002e0 f9 03 5f 32 59 7d 1c 30 ac 3c 8c 30 9a 12 c4 33
       1.2981212e-08 5.69306e-10 1.0203585e-09 9.130345e-08
0002f0 7e 10 06 32 c8 71 ee 34 5c 07 63 34 f0 c4 a7 34
       7.8035765e-09 4.441374e-07 2.11437e-07 3.1249465e-07
000300 e6 ee 41 32 d5 e9 9c 33 4d 93 45 32 08 57 21 35
       1.1288398e-08 7.30685e-08 1.15004015e-08 6.010382e-07
000310 16 fe 85 32 c8 e1 55 31 20 fa 70 33 d8 6a d1 32
       1.5598783e-08 3.1123921e-09 5.6106842e-08 2.437939e-08
000320 21 a3 1a 34 93 43 f2 33 f5 d9 78 34 61 f7 7e 34
       1.4401714e-07 1.1281295e-07 2.3176092e-07 2.374559e-07
000330 b5 99 be 34 c7 df 81 33 89 f2 94 35 d5 44 6e 35
       3.5502094e-07 6.0477355e-08 1.1097446e-06 8.8762073e-07
000340 b8 97 ea 32 55 5c 9e 34 4a f4 61 35 c4 1c cb 34
       2.7310179e-08 2.9496974e-07 8.417452e-07 3.7832626e-07
000350 5e 2e 29 32 b3 4d 5b 35 a4 74 56 34 fb 52 7d 34
       9.847637e-09 8.1696925e-07 1.9972737e-07 2.3592649e-07
000360 e7 75 4f 31 ff 17 c7 35 61 73 17 35 3a 1c a0 32
       3.0189484e-09 1.4833639e-06 5.641978e-07 1.8639287e-08
000370 ac f9 f6 35 38 20 81 35 f5 d4 11 35 8a 65 3b 31
       1.8401092e-06 9.620626e-07 5.43266e-07 2.72698e-09
000380 13 7b fd 34 26 87 97 30 15 ee 21 34 e9 9a f6 34
       4.721447e-07 1.1025107e-09 1.5080907e-07 4.5933783e-07
000390 8c 45 07 35 87 94 56 34 ff c8 9e 33 59 21 bc 34
       5.0392623e-07 1.9984337e-07 7.394009e-08 3.5041992e-07
0003a0 ea 9e bb 34 2b d3 f9 34 bc c3 64 33 81 51 82 32
       3.494709e-07 4.653351e-07 5.3263406e-08 1.5171056e-08
0003b0 28 19 1b 33 ca 49 a9 34 f4 c5 48 35 0f 0c 2f 2f
       3.611163e-08 3.1532392e-07 7.4793866e-07 1.5920441e-10
0003c0 96 83 6d 34 0f 55 55 31 97 27 a2 31 d5 ea 75 35
       2.2120216e-07 3.104393e-09 4.7193214e-09 9.161134e-07
0003d0 b0 c1 cc 33 ce 11 8b 34 c6 58 d1 34 d4 0e 61 35
       9.534722e-08 2.5903722e-07 3.8993875e-07 8.384061e-07
0003e0 a6 09 23 35 4a 72 3e 34 dd 45 f1 30 35 31 5f 35
       6.073627e-07 1.7736707e-07 1.7554914e-09 8.314558e-07
0003f0 c5 a3 c5 33 d4 d3 8d 35 01 9d b5 30 ae fb 85 32
       9.203317e-08 1.0566969e-06 1.3214106e-09 1.5597688e-08

exp_avg f4 [64, 128]
000000 88 f9 7f 38 80 38 09 b6 69 a1 c2 38 40 82 7a 37
       6.102913e-05 -2.0447478e-06 9.280706e-05 1.4931487e-05
000010 3f fe bd 38 60 34 c6 b7 64 22 ae b8 48 ae b3 b7
       9.059579e-05 -2.3627828e-05 -8.303372e-05 -2.1419619e-05
000020 2e c4 79 38 68 96 c1 38 70 35 4a 38 60 96 08 b7
       5.9548933e-05 9.2309725e-05 4.821032e-05 -8.141244e-06
000030 f4 08 9e 38 08 98 bd b7 ac 91 21 38 c6 49 1f 38
       7.535695e-05 -2.260135e-05 3.852106e-05 3.797726e-05
000040 80 08 41 39 76 fd aa 38 86 65 51 38 5e 88 21 38
       0.00018409081 8.1534425e-05 4.9924034e-05 3.8512393e-05
000050 60 36 9b b6 4a f3 45 b8 18 25 61 b8 34 80 70 37
       -4.62569e-06 -4.719504e-05 -5.3678727e-05 1.4334964e-05
000060 08 68 df b7 4c 27 cf 38 f8 63 a3 b6 ee eb b1 b8
       -2.6632115e-05 9.877849e-05 -4.8694164e-06 -8.483963e-05
000070 60 98 fd 37 b0 02 24 37 00 75 86 b6 d4 75 96 b7
       3.0230905e-05 9.7757875e-06 -4.007132e-06 -1.7936261e-05
000080 92 3b 2c 38 51 03 95 38 60 77 ff 38 ba fc 16 b8
       4.1063475e-05 7.1054914e-05 0.00012181583 -3.5998157e-05
000090 38 fc b1 b8 d3 6f d5 38 10 a0 22 38 5c 54 4c 37
       -8.486997e-05 0.0001017746 3.877288e-05 1.2178989e-05
0000a0 32 25 e6 37 c3 cd 5d 38 09 1e 17 b9 0a 9a 32 38
       2.7435457e-05 5.2882137e-05 -0.00014411671 4.2581967e-05
0000b0 00 ad 44 37 fa 98 2e b8 d4 99 81 b8 70 66 a2 b7
       1.172279e-05 -4.1627303e-05 -6.179852e-05 -1.9359606e-05
0000c0 10 82 fc 37 c4 54 89 38 4b ba 74 38 6f 74 3f b8
       3.0101306e-05 6.548458e-05 5.8347632e-05 -4.5646386e-05
0000d0 42 70 66 38 a0 fa 68 38 43 41 26 b9 9c a8 56 38
       5.494082e-05 5.5546523e-05 -0.00015855306 5.1178606e-05
0000e0 3e ba 91 b8 48 f3 ef b7 87 2e ea 37 e0 f3 2d 37
       -6.948829e-05 -2.8604307e-05 2.791664e-05 1.0368385e-05
0000f0 ae 8b 89 b8 60 35 6d 38 60 bb 30 b6 cc 16 0a b8
       -6.5586864e-05 5.6554913e-05 -2.633511e-06 -3.2922995e-05
000100 ca ce 86 36 88 cc 3d b6 40 d6 92 36 f2 88 e9 38
       4.0175846e-06 -2.8282248e-06 4.376081e-06 0.00011135814
000110 9c c6 b0 b7 a8 0c 13 39 00 4f a3 38 90 6e b3 b6
       -2.107332e-05 0.00014023727 7.7871606e-05 -5.347487e-06
000120 e8 94 af 38 00 85 11 35 a0 d6 fc b7 24 17 db b6
       8.372386e-05 5.421025e-07 -3.0140684e-05 -6.5294025e-06
000130 02 40 dc b8 d4 85 0b b8 c0 56 73 b8 30 71 28 b8
       -0.0001050234 -3.326482e-05 -5.8016507e-05 -4.0159735e-05
000140 64 8d 17 38 e0 86 4b 38 b8 be 03 b8 8e cf a9 38
       3.6132886e-05 4.8524584e-05 -3.1410455e-05 8.097208e-05
000150 8d b8 57 38 c0 ff a0 b7 b4 87 ec b8 c7 3a e8 b8
       5.143187e-05 -1.919258e-05 -0.000112786336 -0.0001107357
000160 3e 04 ab b7 b4 75 91 37 10 91 37 38 e0 21 5c 37
       -2.0386764e-05 1.7340157e-05 4.37657e-05 1.3120909e-05
000170 22 d1 13 b8 f0 7d fd 37 c0 9c a4 b7 20 81 07 b8
       -3.52423e-05 3.0218594e-05 -1.9623316e-05 -3.2306765e-05
000180 98 83 5f b8 b6 03 fb b8 92 bf 90 b8 f0 43 0e 38
       -5.32899e-05 -0.00011969304 -6.902138e-05 3.391871e-05
000190 f4 27 32 39 70 79 f0 37 e0 dc 73 38 50 53 ba 37
       0.00016990287 2.8666778e-05 5.814142e-05 2.2211723e-05
0001a0 0e 43 01 39 0e b8 f5 38 22 48 a8 b8 64 38 d4 38
       0.00012327378 0.00011716793 -8.0243e-05 0.00010119451
0001b0 d2 c5 b4 38 16 87 ff 37 a8 89 08 b8 52 b6 3c 38
       8.619916e-05 3.0461273e-05 -3.255313e-05 4.4992492e-05
0001c0 60 2d e4 b6 9e d8 d1 b7 60 e2 54 b7 82 bb 8b 38
       -6.800212e-06 -2.5015612e-05 -1.2688892e-05 6.6629626e-05
0001d0 bc 74 db b8 31 19 aa b8 e0 2b 10 38 d0 81 98 37
       -0.00010464477 -8.110924e-05 3.4373137e-05 1.818026e-05
0001e0 50 84 50 b8 a8 2b e1 38 50 43 dc b7 d0 f5 dd 38
       -4.971429e-05 0.00010736968 -2.6257389e-05 0.00010583887
0001f0 50 30 a3 b5 f0 ee fa 37 e8 ec 55 39 00 8e ee b6
       -1.2158507e-06 2.9913586e-05 0.00020401517 -7.1094837e-06
000200 b8 c6 1a 39 80 98 18 b7 a4 42 5e 39 b0 0e 7c 38
       0.00014760613 -9.095413e-06 0.00021196395 6.009516e-05
000210 2c 12 5e 39 80 59 50 b8 b2 10 4b b9 20 02 28 b8
       0.0002117834 -4.9674418e-05 -0.00019365808 -4.00563e-05
000220 aa 9c 07 39 42 d9 6d 39 2a a0 dc 38 a0 f2 fb b7
       0.00012932965 0.00022683016 0.0001052025 -3.0034513e-05
000230 ac 3f 3c 39 96 b6 30 b8 06 2b c8 38 b4 1d b8 38
       0.00017952797 -4.2131716e-05 9.544757e-05 8.779336e-05
000240 82 31 e9 39 64 7f 4c 39 18 1b 04 39 66 15 ec 38
       0.0004447811 0.00019502413 0.00012598594 0.00011257343
000250 a0 2d da b6 50 ca db b8 cc bb 1a b9 88 4e f6 37
       -6.5022177e-06 -0.000104804174 -0.00014756544 2.9362054e-05
000260 50 7c 65 b8 4c aa 78 39 60 0d 1a b7 8e 6c 4c b9
       -5.471363e-05 0.00023714564 -9.182229e-06 -0.00019495396
000270 c0 fd 89 38 80 7b 7f 36 80 de 15 b7 4a 01 8c b8
       6.579934e-05 3.8069848e-06 -8.932897e-06 -6.67596e-05
000280 a9 d1 d7 38 7a aa 34 39 28 8d 8e 39 7e ca e0 b8
       0.00010291051 0.00017229645 0.0002718952 -0.000107188695
000290 62 ef 4a b9 6a 0a 7a 39 90 51 b4 38 28 73 31 38
       -0.00019353398 0.00023845737 8.598261e-05 4.2307336e-05
0002a0 52 8a 57 38 6e c3 08 39 dd 19 a8 b9 aa b4 d7 38
       5.1388815e-05 0.00013042774 -0.00032062727 0.0001028565
0002b0 40 23 17 38 2a 2f ab b8 d0 f8 16 b9 50 c2 30 b8
       3.6034035e-05 -8.1627004e-05 -0.00014397805 -4.2142638e-05
0002c0 24 33 af 38 4c ff 0f 39 b4 61 15 39 00 88 e1 b8
       8.354176e-05 0.00013732648 0.00014246145 -0.00010754168
0002d0 6c 86 0c 39 d0 3b 0e 39 f6 aa c8 b9 a4 a4 f3 38
       0.00013401516 0.00013564457 -0.00038274348 0.0001161781
0002e0 5c de 3d b9 ca 33 68 b8 10 22 be 38 f0 d6 b0 37
       -0.0001810728 -5.5361343e-05 9.066251e-05 2.1080923e-05
0002f0 e4 52 20 b9 9d ba 02 39 80 fa 43 37 c4 ea c5 b8
       -0.00015289668 0.00012467285 1.168123e-05 -9.4374205e-05
000300 dd f3 8d 37 e0 76 e5 35 70 76 6e 37 d8 88 8e 39
       1.6922068e-05 1.7096427e-06 1.4213481e-05 0.00027186307
000310 a2 83 4e b8 c8 53 b2 39 f1 d0 4d 39 20 7b c0 36
       -4.923682e-05 0.00034013228 0.0001962816 5.7363795e-06
000320 a0 c5 4a 39 00 b3 18 36 78 0b 9e b8 12 10 18 b8
       0.00019337842 2.2753957e-06 -7.536163e-05 -3.625459e-05
000330 33 1c 7e b9 54 0c bf b8 98 4c 21 b9 b0 e0 e1 b8
       -0.00024233833 -9.109886e-05 -0.0001538269 -0.000107706874
000340 22 7e d5 38 40 63 c5 38 e0 c3 96 b8 b6 9a 58 39
       0.000101801255 9.412179e-05 -7.189042e-05 0.00020657
000350 99 26 f3 38 a0 35 64 b8 dd 37 89 b9 66 69 85 b9
       0.00011594332 -5.440938e-05 -0.00026172298 -0.00025446265
000360 32 a6 35 b8 68 31 03 38 88 ee d9 38 b4 38 0c 38
       -4.3308544e-05 3.1278847e-05 0.00010391796 3.343141e-05
000370 6a c2 a5 b8 40 5a 6b 38 50 b8 3c b8 60 c6 82 b8
       -7.9040256e-05 5.6112418e-05 -4.4994347e-05 -6.235833e-05
000380 5c 46 0a b9 ee 02 9d b9 49 5e 1f b9 a0 0b cb 38
       -0.00013186916 -0.00029947556 -0.00015198546 9.68196e-05
000390 32 bf d2 39 e0 8b 91 38 62 cc 0d 39 a8 dc 82 38
       0.00040196773 6.9401925e-05 0.00013522946 6.2399835e-05
0003a0 d0 29 94 39 eb 68 96 39 18 63 4f b9 fc b8 77 39
       0.00028259913 0.000286884 -0.00019777974 0.00023624668
0003b0 1a aa 61 39 a4 55 8b 38 d0 6c 9e b8 aa db bc 38
       0.0002152104 6.643988e-05 -7.554295e-05 9.005454e-05
0003c0 80 49 69 b7 4f 7c 9f b8 a0 87 23 b8 86 4d 1f 39
       -1.3904995e-05 -7.604865e-05 -3.898854e-05 0.00015192301
0003d0 92 20 7f b9 09 aa 4c b9 c0 03 b0 38 70 45 5a 38
       -0.00024330828 -0.00019518299 8.3930325e-05 5.203992e-05
0003e0 00 d1 f5 b8 38 70 7d 39 d0 a6 56 b8 0c a2 87 39
       -0.0001172144 0.00024169765 -5.1176932e-05 0.0002586994
0003f0 b8 62 27 b7 a0 c5 9b 38 0b 27 00 3a b0 22 a3 b7
       -9.97696e-06 7.4277865e-05 0.00048886304 -1.9447267e-05

exp_avg_sq f4 [64, 128]
000000 74 43 8a 37 01 cf e3 36 a0 e2 ba 35 96 df 78 35
       1.6482292e-05 6.7892256e-06 1.3924036e-06 9.271256e-07
000010 22 5c fa 35 6a fd 18 37 0a 94 6b 36 2f 55 6b 36
       1.8653266e-06 9.118909e-06 3.51039e-06 3.5067312e-06
000020 c0 7e b9 34 66 8f ab 34 b0 32 04 35 7b 31 5d 36
       3.4551158e-07 3.1955568e-07 4.924759e-07 3.2960368e-06
000030 c1 25 5e 36 69 73 0a 35 7f 58 4a 35 77 12 90 35
       3.3102554e-06 5.157695e-07 7.537964e-07 1.073421e-06
000040 4e e6 b1 35 fc 28 1f 36 19 f7 98 34 f2 3a 91 34
       1.3254555e-06 2.3716702e-06 2.8491993e-07 2.7051243e-07
000050 c1 65 6b 35 55 24 9a 34 2b 05 0e 37 2a c5 97 35
       8.7692393e-07 2.871117e-07 8.465063e-06 1.1307759e-06
000060 1c 82 c0 36 c3 62 a3 34 bc de 76 34 6f 46 b1 34
       5.7371926e-06 3.0432975e-07 2.2991566e-07 3.3020066e-07
000070 02 a4 d3 36 8b b9 3a 36 81 aa 8e 37 e4 40 7b 34
       6.307383e-06 2.782416e-06 1.7007116e-05 2.3399804e-07
000080 da 46 83 33 0a 9e ab 34 58 0f c6 37 80 05 79 35
       6.113051e-08 3.196622e-07 2.3610584e-05 9.276773e-07
000090 cf e9 31 35 3d 3d a3 35 78 db 59 37 e3 5c f0 34
       6.6277875e-07 1.2162269e-06 1.2985307e-05 4.4771068e-07
0000a0 6c 66 25 35 10 0a d4 34 f9 47 41 36 bf 5e 4b 34
       6.1616333e-07 3.94954e-07 2.8801135e-06 1.8940317e-07
0000b0 3d 54 d7 36 8f b8 69 35 97 a2 dc 36 d4 68 9a 36
       6.417306e-06 8.706783e-07 6.575439e-06 4.6017612e-06
0000c0 44 93 64 36 07 33 51 36 0c d5 da 34 d2 4d 78 34
       3.4060367e-06 3.1173129e-06 4.0760676e-07 2.3125111e-07
0000d0 db a1 19 36 c2 7a d3 35 a5 a4 f1 35 c0 78 dd 35
       2.289299e-06 1.5756452e-06 1.8003817e-06 1.6500926e-06
0000e0 8a 5d 99 34 d6 d4 ab 33 90 6f 7d 34 8e 05 16 36
       2.856653e-07 8.0015226e-08 2.3603047e-07 2.2354975e-06
0000f0 d5 60 aa 34 53 88 a8 34 7f da a9 35 2d ea 45 36
       3.1735422e-07 3.1391627e-07 1.2655072e-06 2.9491596e-06
000100 cb f5 1d 34 18 3a 7f 33 fb f2 bc 35 5e 3e 57 36
       1.4711183e-07 5.942465e-08 1.4077808e-06 3.20738e-06
000110 bd 3e 94 34 5a 47 35 35 ef 92 97 35 07 52 b6 35
       2.7612796e-07 6.7531585e-07 1.129314e-06 1.358393e-06
000120 27 5e 60 37 11 b9 23 36 00 11 1c 37 2e 91 f2 34
       1.3373362e-05 2.4396616e-06 9.302283e-06 4.5181645e-07
000130 0b 0d a1 35 86 b8 32 36 4a 0e 2a 38 3e 3e 42 38
       1.1999231e-06 2.6631474e-06 4.0544466e-05 4.6311172e-05
000140 f1 71 85 35 98 d8 6b 37 bb 7b 1c 37 44 56 a6 34
       9.942434e-07 1.4057521e-05 9.327133e-06 3.0982676e-07
000150 1d ab 10 35 1b 2f e0 37 8e d2 80 36 4d fa ef 34
       5.3893183e-07 2.6724816e-05 3.839209e-06 4.4699337e-07
000160 26 93 14 34 be b6 b8 35 8c 00 ee 36 64 13 85 35
       1.3837106e-07 1.3762253e-06 7.0930164e-06 9.914916e-07
000170 6c 3e 89 34 fc b7 da 36 cb 88 b7 36 bb e0 55 35
       2.5563656e-07 6.518325e-06 5.46975e-06 7.967571e-07
000180 aa ac 31 37 86 06 83 35 a4 bb 55 34 00 e6 cb 37
       1.0590224e-05 9.762159e-07 1.9905434e-07 2.4306588e-05
000190 78 af 5a 36 52 4e 3c 37 bf 45 d9 35 6e 72 c1 35
       3.2586668e-06 1.1223909e-05 1.6188059e-06 1.4412924e-06
0001a0 7c 6c 1c 37 c3 5f 1d 36 b8 c2 cb 35 e0 1f 8b 34
       9.323583e-06 2.3450564e-06 1.5181349e-06 2.591396e-07
0001b0 90 3a 8a 36 91 d3 18 35 73 f4 04 37 e0 55 cf 34
       4.119538e-06 5.693228e-07 7.924728e-06 3.8619237e-07
0001c0 0a cf ca 35 dd 96 cd 33 bf 79 b8 36 db 21 9d 36
       1.5110429e-06 9.573498e-08 5.4978004e-06 4.682906e-06
0001d0 7d 83 8b 36 36 8b b5 35 7c 2d d6 37 50 88 41 37
       4.15783e-06 1.3526067e-06 2.5531968e-05 1.1535434e-05
0001e0 df 7d 00 37 57 2e db 36 02 9a ff 36 d8 1b bd 36
       7.658701e-06 6.5321033e-06 7.617521e-06 5.6358804e-06
0001f0 ef fb 91 34 62 0a b4 37 c3 31 37 36 d1 b2 0e 36
       2.719166e-07 2.1462507e-05 2.729809e-06 2.1263734e-06
000200 bc 83 aa 38 39 b5 1d 38 1a 66 ff 36 24 47 ac 36
       8.130769e-05 3.7600494e-05 7.6114784e-06 5.1342813e-06
000210 42 6c 2a 37 f4 71 50 38 dd 3a a2 37 0a 4f ab 37
       1.0157995e-05 4.969719e-05 1.9339315e-05 2.0421594e-05
000220 9e f6 d4 35 01 cc dc 35 a1 88 2b 36 35 fc 9f 37
       1.5867006e-06 1.645065e-06 2.5560514e-06 1.907172e-05
000230 bc 1b 9c 37 3e ad 48 36 89 94 85 36 a9 7b be 36
       1.8609564e-05 2.9903163e-06 3.9810006e-06 5.676837e-06
000240 7d 13 0f 37 91 ac 71 37 bd 55 b8 35 d2 2d cf 35
       8.528002e-06 1.4404898e-05 1.3734021e-06 1.5436037e-06
000250 96 b8 aa 36 02 08 c4 35 d1 c3 46 38 b8 f0 ed 36
       5.0878834e-06 1.4605469e-06 4.7389247e-05 7.0911738e-06
000260 03 0c 09 38 c0 8d d9 35 c5 06 8b 35 98 27 f6 35
       3.2674532e-05 1.6209015e-06 1.0358277e-06 1.8339952e-06
000270 5a ed 0d 38 2b a5 86 37 fc 23 bf 38 47 f2 d9 35
       3.383807e-05 1.6050957e-05 9.114292e-05 1.6238272e-06
000280 39 82 d5 34 84 50 07 36 13 f3 05 39 94 53 9d 36
       3.976909e-07 2.0163434e-06 0.0001277442 4.6886944e-06
000290 4d 79 5d 36 59 6e d4 36 5c 90 8e 38 6c 01 3d 36
       3.3002173e-06 6.3309385e-06 6.797977e-05 2.8164022e-06
0002a0 46 f2 6a 36 76 a5 1d 36 3e 3a 85 37 1c fa 9e 35
       3.500974e-06 2.3491134e-06 1.5881957e-05 1.1844709e-06
0002b0 5f 71 13 38 cd 6a b4 36 7d 23 13 38 b1 9e cc 37
       3.5153116e-05 5.3768513e-06 3.5080582e-05 2.4392592e-05
0002c0 14 ed 8d 37 3a db 94 37 4b c0 08 36 c1 a3 b4 35
       1.6918908e-05 1.774506e-05 2.0377508e-06 1.3458704e-06
0002d0 20 4e 5a 37 01 40 e7 36 ba 60 33 37 c6 2c 10 37
       1.30120025e-05 6.8917875e-06 1.0691752e-05 8.5934935e-06
0002e0 a6 d6 d7 35 f2 fd f8 34 a8 34 fc 35 32 a8 37 37
       1.6081219e-06 4.637837e-07 1.8790788e-06 1.0946811e-05
0002f0 85 21 b3 35 54 bd df 35 7a af 0f 37 4b 54 76 37
       1.3346295e-06 1.6669896e-06 8.5643205e-06 1.4682369e-05
000300 fc 73 7d 35 15 25 af 34 71 96 f2 36 49 ae a8 37
       9.4418624e-07 3.262327e-07 7.2296757e-06 2.0108318e-05
000310 64 4c e4 35 1b ae 80 36 fb 4e cd 36 c9 1b 13 37
       1.7009556e-06 3.834966e-06 6.1186706e-06 8.768352e-06
000320 59 19 90 38 c9 02 5e 37 61 90 50 38 71 d6 41 36
       6.8711764e-05 1.323288e-05 4.9725528e-05 2.8884062e-06
000330 67 83 cf 36 40 72 6e 37 89 6a 51 39 51 a8 86 39
       6.184378e-06 1.4212506e-05 0.0001997148 0.00025683877
000340 a8 62 af 36 99 ad 9f 38 e3 5b 53 38 c1 14 fb 35
       5.2268915e-06 7.614046e-05 5.0391896e-05 1.8706997e-06
000350 85 45 41 36 08 39 0d 39 07 f2 9e 37 08 7d 25 36
       2.8799707e-06 0.00013468054 1.894777e-05 2.4659694e-06
000360 1e 25 58 35 c4 91 f0 36 93 ab 27 38 ea fd b4 36
       8.0520283e-07 7.1695267e-06 3.9975694e-05 5.3939775e-06
000370 9c 39 aa 35 33 a0 09 38 e6 83 f7 37 b6 10 a5 36
       1.2682754e-06 3.2812542e-05 2.9506115e-05 4.9193286e-06
000380 25 e1 6a 38 85 29 bb 36 d6 e0 91 35 38 e4 01 39
       5.599963e-05 5.577868e-06 1.0868778e-06 0.00012387417
000390 77 07 a6 37 e2 69 6f 38 90 34 0c 37 b1 f2 0e 37
       1.9792218e-05 5.708065e-05 8.356888e-06 8.520366e-06
0003a0 b2 04 4f 38 cf 3b 71 37 e7 8a 0a 37 b1 b3 b7 35
       4.935702e-05 1.4378645e-05 8.257782e-06 1.368686e-06
0003b0 41 f5 ae 37 df 3e 60 36 b2 9f 2f 38 21 aa 2b 36
       2.0856622e-05 3.3415197e-06 4.187198e-05 2.5580014e-06
0003c0 dc 20 fc 36 a4 f7 06 35 46 ef ef 37 63 23 e3 37
       7.5140106e-06 5.0279255e-07 2.860244e-05 2.7076987e-05
0003d0 82 ca b1 37 63 0d f2 36 39 ae 0c 39 6d 81 86 38
       2.1194344e-05 7.2137204e-06 0.00013416343 6.413725e-05
0003e0 18 0a 32 38 e5 77 1c 38 7e 5c 2b 38 13 be 03 38
       4.2447908e-05 3.730496e-05 4.0855717e-05 3.1409854e-05
0003f0 76 d1 0b 36 8d 4f f5 38 60 71 6a 37 ea 4e 4e 37
       2.0834536e-06 0.00011697328 1.3973884e-05 1.229693e-05

exp_avg f4 [64]
000000 30 b4 53 38 c0 e1 08 39 40 44 2f 37 30 0b 41 38
       5.0474133e-05 0.00013054069 1.04467035e-05 4.6025205e-05
000010 a8 f1 8a 36 50 73 c1 b6 c0 63 b1 38 f0 f5 f4 b7
       4.140853e-06 -5.7652724e-06 8.4585976e-05 -2.920159e-05
000020 a0 0b 39 b8 e0 b0 f8 b5 b0 61 8f b8 10 9c bb 38
       -4.4118264e-05 -1.8528917e-06 -6.836967e-05 8.945924e-05
000030 58 c8 36 39 40 75 42 b8 40 2e c4 b7 48 df 85 b8
       0.00017431506 -4.6362402e-05 -2.3386558e-05 -6.3835236e-05
000040 b8 e4 0f b8 50 b6 38 b8 a0 9f 6f b8 68 ec 2c 38
       -3.4306868e-05 -4.403881e-05 -5.7130703e-05 4.1228166e-05
000050 c0 cd 45 38 f0 41 35 b8 f8 ea 3f 39 c0 a2 c0 37
       4.716008e-05 -4.3215172e-05 0.00018302712 2.296397e-05
000060 b8 8a 45 b7 d0 25 9d 37 40 5a 4d b9 b8 a3 08 b8
       -1.1774413e-05 1.8733466e-05 -0.00019583944 -3.25774e-05
000070 70 89 23 b6 88 d6 9c b8 a0 26 4f 37 60 cf 8f b6
       -2.4368892e-06 -7.478619e-05 1.2347155e-05 -4.2858737e-06
000080 c0 f1 fe b6 60 1f 57 b6 10 19 4e 38 40 e7 0c 38
       -7.5979333e-06 -3.205576e-06 4.913757e-05 3.359397e-05
000090 60 72 60 b7 00 6a aa b6 f4 8d 3f b9 00 13 e5 37
       -1.337807e-05 -5.078735e-06 -0.00018268061 2.7307775e-05
0000a0 80 ce 4f b8 20 32 23 37 f0 7b 0f 37 d0 c5 ed b8
       -4.9544964e-05 9.727228e-06 8.552321e-06 -0.00011337886
0000b0 50 6e 9e 36 60 32 e8 37 20 e4 d6 b7 f0 a6 1a 38
       4.721609e-06 2.7680013e-05 -2.5617017e-05 3.6871934e-05
0000c0 f0 f1 34 b8 30 cb e8 37 66 e2 82 39 10 20 a6 38
       -4.3140666e-05 2.7751172e-05 0.00024964212 7.921469e-05
0000d0 28 db 11 38 90 c3 4f 38 00 2a 56 38 b0 43 1d 37
       3.47748e-05 4.9534778e-05 5.106069e-05 9.373689e-06
0000e0 d0 1c fb b7 50 dc d0 37 60 e8 e6 37 20 11 82 b6
       -2.9934949e-05 2.4898123e-05 2.7526345e-05 -3.8762955e-06
0000f0 60 62 72 37 c0 ef ee b6 f8 39 96 b7 30 06 1b b8
       1.4447229e-05 -7.1208633e-06 -1.7908387e-05 -3.6960642e-05
