Lab7_ALTEGRAD_learning_on_sets_and_graph_generative_models/code/part1/model_lstm.pth.tar (torch, 622178 bytes, 18 tensors)

embedding.weight f4 [11, 128]
00000000: 5d2e 503d 13df bd3f 0f6f 17be 4c6f 93bf
00000010: ac94 ca3d 318c 18bf ec5a bebf fc92 8d3f
00000020: eecb 8f3f ea40 09c0 1b48 b83e 25f0 61be
00000030: 035c c5bd a848 b43f d2e7 2bbf 3807 c2be
00000040: 3bd8 8e3f cd95 02bf 00f4 6fbf e931 5bbe
00000050: 4406 803f f232 aebe d961 983f c14c 5f3f
00000060: ca9e 0140 eaad 983f c149 eb3c 29ba 8e3e
00000070: 05eb 243f f0d8 063e f554 733f 593e 2cbe
00000080: cc01 a93f 637f 0c40 9e15 59bf 11b8 e3be
00000090: 1530 fa3f ecf3 60bd 014f ce3f 71ac b53e
000000a0: d671 023f 9961 8ebf 8902 f2bf 0d6c 97bf
000000b0: d4e9 b43f 4c30 4bbf 1b7c 5b3f 6a19 eabe
000000c0: 90f0 b83c 30f5 5bbf 58ae 8e3f e71d eebe
000000d0: 88b4 8c3f 1121 d03e 6715 743e 63d9 a8bf
000000e0: 6f7d 82bf 9d48 0e3f 6737 853f 95d4 9b3f
000000f0: f46d 0cbf 7af0 8b3f bc08 fc3f add6 ed3e
00000100: 1835 d33f ecc4 b9bf 0913 b3bf 9077 40be
00000110: f0c6 833f 40fa cd3f 0a0b 06be a139 343f
00000120: 49d9 603f bac9 c23c 8fb0 82bf f132 f53f
00000130: 4942 7d3f c138 883f b935 b83e 6d00 2f3f
00000140: 14e4 8cbf 3d6e 86bc b322 17bf 4018 4c3f
00000150: a298 fd3e f6cc 623e 4483 64bf b7ff 86bf
00000160: bf00 323e 9c8d 85be 1606 143f ac4c bbbf
00000170: a727 16bf 032e 8fbe d1f9 a83e 5df1 063f
00000180: e646 6fbf 491e f8bf 8892 7dbf 568d 013f
00000190: 54dd a4bf 09b5 c0bf d19b 453f 8b24 833e
000001a0: 74a8 8cbf 283f 98bf 023d 92be de50 3d3f
000001b0: d7a7 093f ac11 12bf 23e1 76bf 0654 9fbe
000001c0: 56e6 c13e 216f 753f 60e1 b0be 203a d5bc
000001d0: 598b 69bf 9c87 1b3f ca4e 1bbe 4dbb aabf
000001e0: 36e0 f13e a5ce 053e 00c3 ea3f 9b4d 513e
000001f0: 3691 aabf c7ac 553f db41 da3f afb7 ec3c
00000200: a035 7e3e 2c64 243e fb7f aebd 4e07 a8bc
00000210: bab3 0c40 5f1e 15bf adb9 153f 20ac 22bf
00000220: b3e6 dabf 68eb d63e 8578 d0bf 953b eabd
00000230: dfec 363f 425a 8fbf 05be ad3e 856a 64be
00000240: 85c6 95be af5b 86bf 9d30 c5bd dc69 b7bc
00000250: 5343 26bf fc81 013f b29d 79be ee56 ecbd
00000260: 6531 093e ee98 c2bd d42d a0bf 52ae a5bf
00000270: a75d 963e e844 55bf 30e6 0840 33f9 70bf
00000280: d787 1e3f 9181 a2be 1fce 05c0 051a babe
00000290: 5143 0440 f97c 2dbf cb32 743e 4d0f 143e
000002a0: bea0 1bbf a70e d3bf 5cfd 78bd f95c 5e3f
000002b0: f2ca e1bf 1823 953f 8b94 a63f c41d 113f
000002c0: 97c5 64bf 9cf2 583e c5d3 bb3f 1f10 e8be
000002d0: 5051 95bf 668a 643f 5322 b93d 0851 9dbe
000002e0: 0b5e 6ebf 68e4 29bf 6106 18bd 664e bfbd
000002f0: fb1b 4ebe ade8 ea3e 9a8d 2e3f 0d50 59bf
00000300: c9e8 2a3f 320a 8f3e af80 09bf e2a8 823e
00000310: 0db2 a93e 81d7 e83e b264 3bbf 3ac1 f13e
00000320: 6832 c4be 2d43 f63d f7e2 203f 5519 a9bd
00000330: 0d69 483f f889 123e a12d 81bf 5bef 513e
00000340: 38f8 cdbf c82a 6e3e 6ca5 d6bf 35c0 553f
00000350: 970c 22c0 c519 a63f 583a 7abd bceb 0a3f
00000360: 732f 7abd d4ba 333f b2a5 27bf ede1 4ebf
00000370: a15f dbbe 52d0 ad3c 12fe 97bf 73d7 b4be
00000380: 6ae6 313e 6d15 933d 4308 1cbf ec08 af3e
00000390: 5657 f33d d21a 26ba 7a18 58bf a9be 6c3f
000003a0: ed34 233e a972 c1be 28cb 88bf c35e 263f
000003b0: 4eb8 e7be aec3 95bf da8f 933f 379b 0dbf
000003c0: 4f19 70be 2ee6 6bbe d24d e33d c6c8 9dbe
000003d0: 62ff 8ebe cf43 90bf 9078 f7bf caf4 fdbf
000003e0: 90a0 d23f de1a 7dbe 4ad3 b4bf e1a0 033f
000003f0: 343e 8bbe cdb3 fd3e 924f 113f 1076 a5bf
0.050825465 1.4833702 -0.14788459 -1.151834 0.09891638 -0.59588915 -1.4871497 1.1060481
1.1234109 -2.144587 0.35992512 -0.22064264 -0.096366905 1.4084673 -0.67150605 -0.37896132
1.1159738 -0.5100983 -0.9373169 -0.21405758 1.0001912 -0.34023243 1.1904861 0.8722649
2.0253167 1.1928074 0.028721692 0.27876404 0.6442111 0.13168693 0.9505151 -0.16820659
1.3203673 2.195275 -0.8479861 -0.4447637 1.9545923 -0.054920122 1.611786 0.35483125
0.5095495 -1.1123534 -1.8907024 -1.182985 1.4133859 -0.7937057 0.85736245 -0.45722514
0.022575647 -0.85921 1.1146955 -0.4650719 1.0992594 0.40650228 0.2383629 -1.3191341
-1.0194529 0.5557955 1.0407532 1.217425 -0.54855275 1.0932763 1.9690166 0.46452847
1.6500578 -1.4513221 -1.3990184 -0.1879561 1.0295086 1.6091995 -0.13090149 0.70400435
0.8783155 0.023777831 -1.0210131 1.9156171 0.9892927 1.064232 0.35978487 0.68360025
-1.1007104 -0.016409988 -0.5903732 0.797245 0.49530512 0.22148499 -0.89262795 -1.0546788
0.17383097 -0.26084602 0.57821786 -1.4632773 -0.58654255 -0.27964792 0.33003095 0.5271204
-0.9346756 -1.9384242 -0.99051714 0.50606287 -1.2880044 -1.5055248 0.7719088 0.25613818
-1.0988908 -1.1894274 -0.2856217 0.7395152 0.5377173 -0.57058215 -0.9643728 -0.31118792
0.37871045 0.95872694 -0.34546947 -0.026028693 -0.9122825 0.607538 -0.15166774 -1.333841
0.47241372 0.1306711 1.8340759 0.2043976 -1.3325565 0.8346676 1.7051347 0.02889618
0.24825144 0.16053838 -0.08520504 -0.020511296 2.1984696 -0.5824947 0.58486444 -0.6354389
-1.7101654 0.41976476 -1.628678 -0.114371456 0.71455187 -1.119942 0.33934036 -0.22306259
-0.2925302 -1.049673 -0.09628413 -0.022389345 -0.6494648 0.50588965 -0.24376562 -0.11540018
0.13397749 -0.09501825 -1.2513986 -1.2943823 0.29368326 -0.8330827 2.1390495 -0.9413025
0.61926025 -0.31739476 -2.0907056 -0.36347976 2.0666087 -0.6776882 0.23847501 0.14458962
-0.6079215 -1.6488847 -0.060788497 0.86860615 -1.7640059 1.1651335 1.3014082 0.56686044
-0.89364 0.21186298 1.4674002 -0.453248 -1.166544 0.8927368 0.0903975 -0.30725884
-0.9311225 -0.66364145 -0.03711546 -0.09341125 -0.20127861 0.45880643 0.68184817 -0.8488777
0.6676145 0.27937466 -0.5371198 0.25519472 0.33143654 0.45476916 -0.73200524 0.47217733
-0.38319707 0.120245315 0.6284632 -0.08256785 0.78285295 0.14310443 -1.009205 0.20501463
-1.6091375 0.23258507 -1.6769233 0.8349641 -2.5320184 1.2976614 -0.061090797 0.5426595
-0.061080407 0.7020695 -0.65487206 -0.80813485 -0.42846397 0.021217499 -1.1874411 -0.35320625
0.17373052 0.07181821 -0.60950106 0.34186494 0.118818924 -0.0006336394 -0.8441235 0.92478424
0.15938158 -0.3778279 -1.0686998 0.64988345 -0.452578 -1.1700342 1.1528275 -0.55314964
-0.23447154 -0.23037025 0.110988274 -0.3081724 -0.27929217 -1.1270694 -1.9333668 -1.9840329
1.645525 -0.2471728 -1.412698 0.51417357 -0.27195895 0.4955124 0.5676204 -1.2926655

lstm.weight_ih_l0 f4 [256, 128]
00000000: 2e2e 66bd 960b 7b3c 0381 cc3d c76f 87be
00000010: 46ac fd3c 93a4 0fbe a3ca 963d 30f1 8b3b
00000020: 10e9 c33d 08b0 913e 8079 7e3b fe6f 393e
00000030: 2bc6 ef3d fd8c 883d f3eb d9bb 464a 4cbb
00000040: 8cec a93d a480 a3bd 2c76 f5bd 35de 9e3d
00000050: e8e7 073d 2761 a63d ac50 2c3e ab5e 133e
00000060: 77cf 1dbd 95ff 31bd 78a3 32be ea09 bc3d
00000070: b85c 403e ff51 c73d 3257 903d 42db 4cbe
00000080: 6dc6 a83d a926 a1be 4051 1ebe 376a cbbd
00000090: f517 623e 7dd9 e4bd fef8 8d3e 54e5 363e
000000a0: caef 2a3c 876a 31be f578 ba3d 8c91 92bd
000000b0: 1032 19be c37e 61bd 8d6c 60bc fab0 853d
000000c0: e4d1 fbbd 766a bc3d dbe5 763d 0698 32be
000000d0: e654 98bd 8b58 223e 81d2 3d3e d052 61bd
000000e0: 46a9 333c b751 08be c592 07be dcc3 c33c
000000f0: cb9b d93d 1982 29bd 7870 8c3d c5c6 c53c
00000100: 202a 293e c680 f2bd f8e2 24be d302 2cbe
00000110: df71 c53d 1396 e2bd 78ac 65be e307 95bb
00000120: 45bf 363d d803 433e 3251 61be a8c8 493d
00000130: b47d 403e 01bd a83e 9e69 0e3e 1579 ad3d
00000140: 8c54 9dbd 6e86 a83d 078a 8bbd 68e6 e03d
00000150: cc31 4ebe d9f2 bb3d b429 d03d aa55 893d
00000160: 7036 273c b590 27be 8bb3 253d d8cd 3bbe
00000170: 195f c3bd fed0 88be 2762 87bd 961e 1e3e
00000180: 0317 febd 5e76 e03d 69bb 3ebe 25d6 39be
00000190: 9c7c 283e db5d 15bc 4a4e e3bd 58a9 adbd
000001a0: 6f46 11be 4419 4fbe 034b 49bd 68b3 163d
000001b0: a137 58be 6c21 68bd ae7b 493d 87fb c23d
000001c0: e552 953c ae2c e7bd ad19 f13d 4ec7 e33c
000001d0: 052c 073e 165d 78be fad3 08bd 8d00 65bc
000001e0: 464c aa3d 09a2 5f3e dc38 6cbd 2e83 4ebd
000001f0: dd1b d63d 8fb4 ca3d 7d79 313e 2840 14be
00000200: 5047 ff3d c968 e6bd 8a93 273e 4f6f c33c
00000210: f452 e1bd 4146 953d 0c18 343e fd96 923d
00000220: 77a1 003e a691 853d 6042 3b3c f844 213d
00000230: bbba dfbd d16c 353d 4a50 c93d 40b1 e83c
00000240: 5e3d 843d f3c6 96bc a937 e83d ca7c 2abc
00000250: a177 19be aa67 643d 17ca 14bd 42c8 263e
00000260: 38f8 6b3d 9438 59bd 5b1e 7a3c 7f47 e53d
00000270: a867 d23d f104 6abd 6f0b e03c 7c44 4c3d
00000280: 5a33 f23d 9798 07be d361 5f3d 3ad4 d73a
00000290: 80f5 51bd f45a 283e 5b54 2dbd 4096 ec3d
000002a0: 8340 40be 5597 113e 8680 0d3e 66ee 03be
000002b0: f0d0 803d 9f06 023e a277 50be 3079 a6bd
000002c0: 0519 f5bd 5c01 4ebc 6990 443d ec1a 99bd
000002d0: e781 21be 22dc c2bd d3ce a6bd 66c5 76bc
000002e0: add3 293e 0169 e23c 178f 8bbc 453f b93d
000002f0: df5d 133e 104e 773d 3845 dfbd 6082 963a
00000300: 89dd 00bc 724d 8f3d 1275 ba3d 2843 d93c
00000310: 4819 4a3d 88fe f3bd 6ae7 8cbd 4d22 97bd
00000320: 5a96 d13d eb48 173e 47da 27be 8ae4 ec3d
00000330: 9404 1cbd 0b75 fa3d dfc8 913d 35a8 943d
00000340: c5cb abbd e280 47bb e4bc c43d 8db8 9abd
00000350: abe5 43bd 07e3 3ebd 84fe 413e 3013 85bd
00000360: b9dd bdbd ab9c 36bc 1433 c7bd 79de 033e
00000370: 059d 463d fb12 86bd 01e6 d9bd a628 22bd
00000380: 71fb a8bd c3dc 033d 1e70 ec3d d096 8cbd
00000390: d868 0d3e 6bc7 5e3d a056 b6bd ac47 653d
000003a0: 394c ffbd 0f32 9fbd dc1a c7bd f09e b6bd
000003b0: 27e0 783d 731e 473c 4f0f 453d 62c9 e539
000003c0: 76bf 06bd ca87 3ebd 499c 1a3e e95d 1cbe
000003d0: e025 4e3d e398 1ebe 94a2 f83c b3fb 003e
000003e0: 9c99 71be 22ac 883d a3d8 01bd ce88 b7bd
000003f0: 8293 bd3d 315c ccbd e4a3 cf3d 06de 1f3d
-0.056196384 0.0153225865 0.099855445 -0.26452467 0.030965935 -0.14027624 0.07362869 0.004270695
0.095659375 0.28454614 0.0038829744 0.18109128 0.117077194 0.066675164 -0.006650442 -0.00311722
0.08297071 -0.079835206 -0.1198543 0.077572264 0.033180147 0.08123999 0.16827649 0.14391582
-0.038527932 -0.043456633 -0.17445171 0.091815785 0.1878537 0.097324364 0.07047881 -0.20005515
0.08240972 -0.31474808 -0.15460682 -0.09932368 0.22079451 -0.11174295 0.27729028 0.17860919
0.010433147 -0.17325793 0.09105102 -0.07156667 -0.14960504 -0.05505253 -0.0136977555 0.06527896
-0.12295893 0.09199993 0.0602778 -0.17440805 -0.07438068 0.15854089 0.18537332 -0.055010617
0.010965651 -0.13312422 -0.13239582 0.023897104 0.10625418 -0.041383836 0.06857389 0.024142632
0.16519976 -0.11840968 -0.16102207 -0.16797952 0.0964086 -0.11063781 -0.22429073 -0.0045480593
0.044616003 0.19044435 -0.2200363 0.049263626 0.18797952 0.329567 0.13907477 0.0847036
-0.07682142 0.082287654 -0.06813436 0.109814465 -0.20136184 0.09177179 0.10164204 0.06705792
0.01020585 -0.16363795 0.04045443 -0.18340242 -0.09539623 -0.26721948 -0.06610518 0.15441355
-0.12406733 0.10960077 -0.18626179 -0.18148096 0.16453785 -0.009116615 -0.11098917 -0.084795654
-0.14187025 -0.20224482 -0.049143802 0.03679219 -0.2111497 -0.0566725 0.049190216 0.09520631
0.018228004 -0.11287819 0.117724754 0.027804997 0.13200386 -0.2425426 -0.03340528 -0.013977182
0.08315329 0.21839155 -0.057671413 -0.05041807 0.10454533 0.0989772 0.173315 -0.14477599
0.12464774 -0.11250455 0.16364875 0.023856787 -0.1100215 0.072887905 0.17587298 0.07157705
0.12561594 0.06521921 0.011429399 0.039372414 -0.10924288 0.04429323 0.09829767 0.028404832
0.06457017 -0.018405413 0.11338741 -0.010405729 -0.14987041 0.055762924 -0.03632554 0.1628733
0.057609767 -0.053032473 0.015266026 0.111952774 0.10273677 -0.05713362 0.027349202 0.04987
0.11826201 -0.13241802 0.05453665 0.0016466447 -0.051259518 0.16440946 -0.042316776 0.115520954
-0.1877461 0.14217885 0.13818559 -0.1288391 0.06289852 0.12697838 -0.20358136 -0.081285834
-0.11967663 -0.012573566 0.047989283 -0.07475838 -0.1577221 -0.09514643 -0.08144917 -0.015061712
0.16584654 0.02763796 -0.017036004 0.09045271 0.14391278 0.06037718 -0.10901874 0.0011482947
-0.007865318 0.069971934 0.09104361 0.02652128 0.049340516 -0.11913782 -0.06880076 -0.07379589
0.102337554 0.1477391 -0.1639186 0.11567028 -0.038090304 0.122293554 0.07118391 0.072586454
-0.08388475 -0.003044181 0.096063405 -0.075547315 -0.04782645 -0.04660323 0.18944746 -0.064978
-0.09270806 -0.011145751 -0.09726539 0.12877835 0.04848959 -0.06546589 -0.10639573 -0.039589547
-0.08251084 0.032192957 0.11544822 -0.06864703 0.13809526 0.0543894 -0.08903241 0.055976555
-0.1246571 -0.0777322 -0.0972192 -0.08917034 0.060760643 0.012153256 0.048110303 0.00043828326
-0.032897435 -0.046516217 0.1509868 -0.15270199 0.05032909 -0.15488009 0.03035096 0.12596016
-0.23593754 0.06673457 -0.03170074 -0.0896164 0.092566505 -0.099785216 0.101386815 0.039030097

lstm.weight_hh_l0 f4 [256, 64]
00000000: d71b 483e 7c60 e6bd fe7c dd3e f862 d4be
00000010: dc47 d33e 1816 dbbe 522c 653e 1eb5 843e
00000020: 8614 373d e89a 633d 2d92 07bf ced8 7cbe
00000030: cf6d e7bd e73f 9d3e c526 09bf 798c e83d
00000040: 3f3d 193e 5424 053e afd7 aebe 22db 03be
00000050: b509 0dbd 2918 eb3e b015 c13d 31d4 473d
00000060: b7d4 babd e3d6 de3e 1963 93bd 0df4 033e
00000070: a6bb 003e 980c 76be 076c 4fbe 0a06 413e
00000080: 1140 813e c077 f7be 654b 513e 78c2 2dbd
00000090: b273 c1be 0a52 d83e f199 9ebd 3c69 5b3d
000000a0: 2bc9 bb3e d938 91be bfa8 77be 33dd 0b3e
000000b0: f310 e83d 9906 a5be 4c6e 9c3e b5d2 c83e
000000c0: 7477 033d 0fa5 513e 3e1c 723e 330f 173f
000000d0: 395a bd3e 1aa8 383e b72e 1dbd 9e6d 043e
000000e0: 3e61 1dbf 52f2 623e 76af e9bc d475 1dbe
000000f0: 9fa5 d5be 355f 013e 6ef8 d53e c9ed f23e
00000100: 14df 9e3c a75b 64bd 1775 2bbe 6252 2f3e
00000110: f9f9 4cbd 5e38 0a3f 7150 1cbf a1b0 02bd
00000120: 7534 35bd 5509 743d 8f81 74bb 1270 183e
00000130: 4f2c 8e3c 6835 1f3e 4b15 9e3d 07d3 9bbd
00000140: ae92 d13d e0fb f3bd b523 933d 0575 86bc
00000150: 62d3 debd 9c88 5abd c599 453c 284d a53d
00000160: c301 0cbd fb6c cb3d 03f3 6e3e 876f 743e
00000170: fae2 9a3d 9291 c63e e994 1abe 2062 c93c
00000180: 215a b63e b803 983d 5a12 d43c 28d9 3fbd
00000190: 900f aebb 62a7 473e 084b 4f3d e38f 86bd
000001a0: 1e54 0ebe 1920 c3bd 7086 9fbe 645d 50bd
000001b0: a565 e3bd 8d55 eb3e 3ba8 1cbe c82f f7bd
000001c0: 1e55 82bd 57de eebd 04cc efbd 814d 2ebe
000001d0: 807f d1be 5e8d e03d 2275 be3d 9a49 e1bd
000001e0: f5e4 1a3d 9a22 ffbd a53c bcbd 8b20 0d3a
000001f0: 0cf8 603d a71c d43d bc12 6cbe 38d3 03be
00000200: 00ec 9b3c e7fb e5bd 8c77 81bd 2bd4 393d
00000210: a9c0 b7bd 6fe7 aa3e 278a aebe a318 513d
00000220: dbab 243d dacd 41bd d31f 9c3d 8923 88bd
00000230: 68b7 1a3e 60bb 60be 6f9a 8f3d 062f cd3e
00000240: b6b7 88bd b166 1d3e f638 8f3d 2095 0a3e
00000250: fcf3 4fbd eef2 b5bd 898b cf3e 9c20 6ebb
00000260: 210d 8c3e 4197 acbd 33c3 0fbe efe3 d63d
00000270: 1b0a 0d3e dabc 083f 058d 493e 42c5 393d
00000280: f12c 28be 9b53 243d 22e6 6abd 2df3 2dbd
00000290: 9365 dfbd 1674 90be 1660 05bf 335e 2abc
000002a0: ccd9 a73d 7fb6 383b 9fb3 c2bc 9c12 8f3d
000002b0: c79d b3bc 193f ce3e 2eaf 64bd 32b9 25bd
000002c0: f122 13bd 7a27 183c a7c6 9f3d 2730 ec3b
000002d0: 255c 28be 43aa 9ebd 12c1 9a3d 8944 6fbe
000002e0: 38f4 5b3d 0442 543d 2e21 8bbd 31b1 cfbd
000002f0: 88a0 9a3d 529d 473d b057 12bd 1ee6 a1bc
00000300: 7f2f 4b3e 5347 83be 91b5 c73c efae d3bc
00000310: 0835 413e 2240 36bc 2d01 d53d 9315 9bbb
00000320: 348d 4b3d 2cc4 16be cfaa 03be 962b 953c
00000330: acd5 7c3e ea2b 9f3e bfcf 58be a274 ee3d
00000340: 88e0 54bc 0be2 693c a284 ebbd 950b 46bd
00000350: 45d2 46be 93d2 543e 53e7 b03c 0592 84bd
00000360: b2e3 04bd d395 fd3d 6fbc 733d c58e 5ebb
00000370: 9f2a f7bc 8659 39be a7ee 0ebd fb8f d1bd
00000380: 33e4 83bd a362 5abe 598d 55bc a661 16be
00000390: e405 50be 8106 05bc e33b 863d b01a 033d
000003a0: 4f0e b03d 6826 6abc 55d1 4ebd e75b ebbd
000003b0: b3e1 2a3e 2cae f13d 02d2 093c 0080 e33d
000003c0: d1d3 d4bc 9e6d 14bd 283c 623d ecfe 113e
000003d0: e025 4b3e 7e48 513d a8b7 153a 5e6e c23d
000003e0: c629 463c 3437 683e 3bc2 e33d 276e a6bd
000003f0: 01ab 06be f989 193d 582e f73d 8b29 e83d
0.1954187 -0.11248872 0.43259424 -0.41481757 0.41265762 -0.42790294 0.22380188 0.2591943
0.044697307 0.055567652 -0.5295742 -0.2469208 -0.11300241 0.30712816 -0.5357478 0.11354918
0.1496477 0.1300214 -0.3414893 -0.12876561 -0.034433085 0.4591687 0.09427965 0.048786346
-0.091226034 0.4352332 -0.07196636 0.12886067 0.12571582 -0.24028242 -0.20256053 0.1884996
0.2524419 -0.4833355 0.20438917 -0.042421788 -0.3778358 0.4225009 -0.07744206 0.053567156
0.36676916 -0.28363684 -0.24185465 0.136586 0.11331358 -0.32231596 0.305529 0.39223257
0.03209634 0.20473121 0.23643586 0.5900757 0.36982897 0.18032876 -0.03837463 0.1293244
-0.61476505 0.2216275 -0.02852605 -0.15376979 -0.4172792 0.12633975 0.417911 0.4744704
0.019393481 -0.05575147 -0.16743885 0.1712127 -0.05004308 0.5399226 -0.61060244 -0.031906728
-0.04423948 0.059579212 -0.0037308668 0.14886501 0.017355112 0.15547717 0.07718905 -0.0760861
0.10233055 -0.11913276 0.07184545 -0.016413221 -0.10880162 -0.053352937 0.012060587 0.08071357
-0.034181368 0.09932896 0.23334889 0.2387067 0.075628236 0.38782936 -0.15095867 0.024582922
0.35615638 0.07422584 0.025887657 -0.046837956 -0.005311914 0.19497445 0.050608665 -0.06570413
-0.13899276 -0.095276065 -0.31157255 -0.050870314 -0.111033715 0.45963708 -0.1529855 -0.120696604
-0.06363891 -0.11663502 -0.11708835 -0.17021753 -0.40917587 0.10964464 0.09299685 -0.110003665
0.037816007 -0.124577716 -0.091912545 0.00053835724 0.054924056 0.103570275 -0.23054022 -0.12873542
0.019033432 -0.11229687 -0.0632163 0.045368355 -0.08972294 0.33379695 -0.34089777 0.051048886
0.040202957 -0.047315456 0.076232575 -0.06647403 0.15109026 -0.21946478 0.07011878 0.4007494
-0.06675665 0.15371205 0.06993286 0.13533449 -0.05076979 -0.08884226 0.40536144 -0.0036335355
0.27353767 -0.08427287 -0.14039306 0.10492694 0.13773386 0.53413165 0.19682701 0.045354135
-0.16423394 0.040118795 -0.057348378 -0.04246824 -0.109080456 -0.28213567 -0.5209974 -0.010398435
0.08195838 0.0028184948 -0.02376729 0.06985971 -0.02192582 0.40282515 -0.055831127 -0.04045982
-0.035921995 0.009286756 0.07801562 0.0072078886 -0.164414 -0.077473186 0.075563565 -0.23365988
0.053699702 0.05182077 -0.06793438 -0.101412185 0.0755015 0.048734017 -0.035728157 -0.019763049
0.19842337 -0.25640354 0.02437857 -0.02584025 0.18867886 -0.011123689 0.10400615 -0.0047327965
0.04969521 -0.14723271 -0.12858127 0.01820926 0.24690884 0.3108819 -0.21172999 0.1164334
-0.012992986 0.014275084 -0.11499907 -0.04835089 -0.19416149 0.20783453 0.021594679 -0.064731635
-0.03244371 0.12382092 0.059505876 -0.003395961 -0.03017169 -0.18100557 -0.034895565 -0.1023254
-0.0644001 -0.2132669 -0.013034188 -0.14685687 -0.20314747 -0.008119226 0.06554391 0.032007873
0.08596479 -0.014291383 -0.050492603 -0.11492138 0.1668766 0.11800799 0.008411886 0.111083984
-0.025979908 -0.03623735 0.05523315 0.14257401 0.19838667 0.051094525 0.0005711266 0.09493707
0.0120949205 0.22677308 0.11121031 -0.08126479 -0.1315117 0.037485097 0.12069386 0.11336049

lstm.bias_ih_l0 f4 [256]
00000000: 2fda 123e c1f6 6e3d d718 47be ee98 9e3c
00000010: 0a37 5d3e c723 7ebe 60e4 3dbe ea4f a0bd
00000020: 7014 1c3e bc59 163e 729c e33d 6c0f 39bc
00000030: 04e1 94be d424 8abe 1743 d6bc a228 75bd
00000040: d5a8 8f3e ab81 dbbd 858d 04bd d725 0a3e
00000050: f967 30bd c6bc bebc 9051 e9bd e958 b83e
00000060: 3f2c 01bc f168 1dbe 442b dfbd 062a febd
00000070: 2c52 b9bd ddd5 dbbe 9da5 afbd 48fe 143e
00000080: a5c5 8cbe ae1a 4dbd dccd c43e 5f75 3e3e
00000090: 0392 0e3e 5fa0 fcbb ff00 503d 8eca c23e
000000a0: 94fc 72be b616 5fbd a7b4 97be db3d 31be
000000b0: 32af 173e 52c6 15be 84d3 a23e 4a04 a33b
000000c0: 9b4f 12be f1a9 cb3d b4a0 f0bd 8d6d 193d
000000d0: b4d6 abbc b452 a23e 1636 ba3d 8f3e 83bd
000000e0: 1e1d 943b 77ee c43b 24de 243d 2b80 943d
000000f0: 254a 7c3b 0df3 233d b0d0 2437 c8a4 66be
00000100: b9f1 a23c 0db2 003e f792 abbc 7ddf 203d
00000110: e9ac 023d 7b34 07bd c206 1e3e 423f 6a3d
00000120: c7fc 553e eb09 703e 8846 363e 0f71 363e
00000130: cba4 5a3e 58a2 d93c 2adb 193e 33d8 523e
00000140: 558a 443e caf6 033e 8199 493e 0c45 863e
00000150: b063 c63d 9b37 373e e5d8 a33e 09a6 e33d
00000160: eccb 663e 2147 523e 26cf 173e c652 4e3e
00000170: ac59 e03d 5e29 37be 1b85 293e ced9 7f3e
00000180: 4f18 d73c a1c6 5b3e 17f8 0d3e 46da b33e
00000190: a1be 143d 1bf0 25bd 1cb7 633d 3b6f 013e
000001a0: 9ca3 683e 4702 c33d 94d9 953d c5a8 4a3e
000001b0: e777 363e a019 063e d419 a53e 8345 b53d
000001c0: 34c6 8d3e ccec 223e c0b0 743e 136d c93d
000001d0: 96a1 683e efa7 5a3e 19a0 a63d 1a6e 513e
000001e0: a538 ea3d 8dd3 0f3e 89df 583e 7741 313e
000001f0: f27a de3d 194e 4a3e de26 d33b 0fd7 a83d
00000200: b8c7 913e 0583 7fbd d7ef 85bd 686b 82be
00000210: 6599 013e 00ab d0bd a250 a53d d2df 8f3d
00000220: fb29 933e 14de 03be 7d3d 97be 23b7 fdbd
00000230: 206b 64bd 5100 20be e705 09be 7a73 9d3c
00000240: 8a46 f43e 7a21 0f3e 3fb2 a0be 84a0 a2be
00000250: 6082 82be 71ff 283d f588 dabd a7ae a3be
00000260: f976 373e 14f2 83bb 3325 65bd b2ad 823e
00000270: 1c0d 0e3c fd4e 77be 7acc ac3d 1e5f d53e
00000280: bedd 403e 9281 32bd 7c59 fb3e 07fe c7be
00000290: 737e 1b3d a0b9 d1bd 6c6a 13bb 77bb c1be
000002a0: 06c2 1cba 7662 14be adb0 903d 08f0 e83d
000002b0: b96e f73d 9a18 dbbd 0457 983e 828b 933e
000002c0: ef57 9b3d c14e 1a3e 32b2 263e a500 5b3e
000002d0: 3d20 c93d ec04 993e 900a 5e3e 7c94 a33d
000002e0: ac7c e0bd f80a 173d d485 0f3c 06e4 babe
000002f0: 887e 15be 7567 f63c a660 733c 16c0 683d
00000300: 7d4d 3bbc dd88 32bd 69cb 253c a734 89bd
00000310: 2db5 0b3e 8a84 eb3e 9b4e c3bd 46ac d1bd
00000320: 8ba6 a53e 6303 803e ee87 9abd 3b9a 1cbd
00000330: 7819 563e 5052 25be c634 21bc f0c6 833e
00000340: cb98 0e3f b266 073e c0f3 9fbc 0102 b73e
00000350: 58b2 7c3e 419d 89bc c575 8c3e de13 503e
00000360: 7a43 9e3e 1b0f 9dbd 6327 bf3c a60a cf3d
00000370: bde6 a93d 4791 373d 6b3b f53b 6729 f03e
00000380: b13b 643e 2134 903d c2c1 c13e a795 7bbc
00000390: 6ff4 3c3e 14d0 5ebe a947 c83e 5c1b 8d3d
000003a0: 4fc6 003e 3c03 7c3b c470 11be 7311 4d3e
000003b0: 42b9 dabd 2584 203c cfb8 3b3d 76eb 19be
000003c0: 1321 bbbd ba5b 653e 920e ed3c f139 10be
000003d0: 41ea b6bd 98d6 da3e 3df4 d63e e4d3 c33e
000003e0: 77d8 6bbd 484e 89bc cf5e 833e b4a3 bb3d
000003f0: 9cbe 2b3d 86ee c63e eb7e 1d3d b4dd d3bd
0.14341043 0.05834079 -0.1944307 0.019360032 0.21603027 -0.24818335 -0.1854415 -0.078277424
0.15242171 0.14682668 0.11113824 -0.011295181 -0.29077923 -0.26981223 -0.026155038 -0.059853204
0.28058496 -0.107180916 -0.032361526 0.13490997 -0.043067906 -0.023283374 -0.1139251 0.36005333
-0.007884084 -0.15372063 -0.10896924 -0.12410359 -0.09048876 -0.42936602 -0.0857651 0.14550126
-0.2749454 -0.05007427 0.38438308 0.18599461 0.13922887 -0.0077095474 0.0507822 0.38045162
-0.23729163 -0.05446502 -0.29630014 -0.17308752 0.14812925 -0.14626434 0.31802 0.0049748765
-0.1428818 0.09944523 -0.11749402 0.03745799 -0.020976402 0.31703722 0.09092347 -0.064084165
0.0045200726 0.0060098725 0.040250912 0.072510086 0.0038496342 0.040026713 9.823751e-06 -0.22523797
0.019890653 0.12567921 -0.020944102 0.039275635 0.03190318 -0.033009034 0.15432265 0.057189234
0.20897208 0.23441283 0.17800343 0.17816566 0.21351926 0.02656667 0.1502501 0.20590286
0.19193394 0.12887111 0.19687463 0.26224554 0.09686983 0.17892306 0.32001415 0.11115653
0.22538728 0.20534946 0.14825115 0.20148763 0.109546036 -0.17886874 0.16554682 0.2498543
0.026256708 0.2146249 0.1386417 0.35127467 0.03631461 -0.040512186 0.05559455 0.12640087
0.22718662 0.09521919 0.0731689 0.19790943 0.17819177 0.13095713 0.32246268 0.08851149
0.2769028 0.15910643 0.2389555 0.098352574 0.2271789 0.21353124 0.08136005 0.20452157
0.11436585 0.14045544 0.21179022 0.17310129 0.10863294 0.19756354 0.0064438423 0.08244144
0.28472686 -0.06238081 -0.065398864 -0.2547257 0.12656172 -0.10188866 0.0807202 0.07025112
0.28742966 -0.12877685 -0.295391 -0.12388446 -0.055766225 -0.1562512 -0.13381158 0.019220103
0.47710067 0.13977614 -0.3138599 -0.3176309 -0.25490093 0.041259233 -0.10670654 -0.31969187
0.17916478 -0.0040266607 -0.05594368 0.25523144 0.008670118 -0.24151225 0.08437438 0.4167413
0.18834588 -0.0435806 0.4909171 -0.39060995 0.03796239 -0.10240483 -0.0022493852 -0.37838337
-0.00059798395 -0.14490685 0.07064948 0.11373907 0.120816655 -0.10698052 0.29753888 0.28817374
0.075851314 0.15069105 0.16278914 0.21386965 0.09820602 0.29886568 0.21683717 0.079873055
-0.10961279 0.036875695 0.008759934 -0.36502093 -0.14599049 0.030078629 0.014854586 0.056823812
-0.011432049 -0.043587554 0.010119298 -0.06699496 0.13643332 0.45999557 -0.09536477 -0.10237937
0.32353625 0.25002584 -0.07545458 -0.038233023 0.20908153 -0.16144681 -0.009839242 0.25737715
0.55701894 0.13222769 -0.019525409 0.35743716 0.24677408 -0.016798617 0.274336 0.20320079
0.30910856 -0.07668897 0.02333421 0.10109453 0.08295963 0.04481628 0.00748389 0.46906587
0.22288395 0.07041193 0.37843138 -0.015355504 0.18452619 -0.21759063 0.39117172 0.06889984
0.12575649 0.0038454076 -0.14203173 0.20026188 -0.106798664 0.009797131 0.045830544 -0.15031227
-0.09137168 0.22398272 0.028937612 -0.14084603 -0.08931399 0.42741847 0.41983214 0.38247597
-0.057579484 -0.01676096 0.2565827 0.09162083 0.041929826 0.38853854 0.038451117 -0.10345021

lstm.bias_hh_l0 f4 [256]
00000000: 730c 0c3e 4895 1b3c e1e7 95bd 39f6 0d3c
00000010: 5c56 583e 209f 76be 9b03 7ebe 059c 4b3d
00000020: cc01 a03e 1286 ae3d 0f13 743d 9693 53bd
00000030: d8af 35be 7894 b9be 2ca2 e1bd 0e62 8e3d
00000040: ba02 f33d 7518 94bc e55b fcbd 270b 0d3e
00000050: ebcb 9fbd 8297 abbc 2538 8d3c 7332 fd3e
00000060: 73cc 6dbd 500e cbbd 986c c1bd 99ab edbc
00000070: 70b8 9cbd 1390 97be 6360 8d3d fd93 323e
00000080: 4712 e5bd 5a1c 803c bc8d 893e 357d 483e
00000090: b13b 703d ada8 4abe 99d0 e2bd 52ad e63e
000000a0: 52ee 04be c2ff 57be 0cd7 76be e194 cabc
000000b0: 4fd2 b5bc e2fb 3fbe 9513 803e 10e6 163e
000000c0: 6736 63be 1aba 893e 5e3a fdbd f290 31be
000000d0: 1106 3fbe 6c4e 563e 35e9 363e f8c9 1039
000000e0: 989a 853c 004e 84bd a5d9 9dbd 1626 053d
000000f0: b776 b7bd f129 61bd 6d3e f6bd 705d 61be
00000100: d584 e7bc ec76 893d d8f9 cdbd 92cd 8bbd
00000110: fba6 013d 4de8 3dbd b991 ab3d 84fc cc3d
00000120: c923 293e 471a 333e ec33 5b3e 3f70 aa3d
00000130: e7ab 463e 29f3 28be dbca 983e 4fa4 463e
00000140: 5c38 9c3d 9d1c 38bd 671f 743e 4f07 3e3e
00000150: caff ab3b a692 7c3e 2997 a53e 5105 f73d
00000160: 4a74 533e df99 333d d773 813e d739 bd3d
00000170: 4a03 223e ef60 b3bd 7343 3a3d 8ec1 0f3e
00000180: 8978 d8bc 1f34 943d dfe5 333e c91c 923e
00000190: c5e5 1d3d ea98 0bbe eeec 6f3e 3453 643e
000001a0: 516d c63e e7d1 2a3e eaf6 1bbd eed9 b839
000001b0: 4617 d13d 7298 0a3e 2cb1 963d 5da8 2b3e
000001c0: d259 a13e 76a3 af3d 2af3 6e3e 646c 863e
000001d0: b45c 3d3e dfbb 733e 7474 543b 38a2 af3e
000001e0: 5b44 db3d de3a cd3d 41fe 483e d19e e43d
000001f0: 8b19 313d 5e05 d53e 1f03 9e3d 6747 c83d
00000200: 6e84 153e 1f68 a3bd b0cc 0dba 1a7d 84be
00000210: 204f 2a3e 385a d5bd 4f40 58bd d2be 8a3d
00000220: 6f15 9b3e 3cc2 4dbe 0d16 9abe 0f8c 50bd
00000230: 3c7d d33d bd65 303c 1c60 cfbd 1afa 17bc
00000240: fdfc a83e 2234 9ebb 9427 57be b269 33be
00000250: baf4 7cbe 470f a1bb c59e aebc 34f3 ecbe
00000260: 8299 a9bc 9134 353e 2732 febd 2c43 873d
00000270: a77b 203d 6d63 1ebe 6329 543d 96d1 c83e
00000280: 04c4 4e3e 8d56 37be 1ddb e83e d212 80be
00000290: 2750 b5bd 93cc 4abd aab5 de3d 81be acbe
000002a0: f5c4 4c3e a9d7 e53c e5e6 0abd c0de c2bc
000002b0: 74bd 503e 0643 fabc 4e61 943e 8769 a33e
000002c0: d4a3 30bd b54e 0e3e 64ac 373e 61ba aa3d
000002d0: b53b 0a3d 2aec c23e 46a3 6d3d 2e08 123d
000002e0: d256 d9bd 6111 e33b 7542 7b3c 1869 09be
000002f0: 5aa1 213d 44dc ce3d 480a b4bd 47c5 e1bc
00000300: 6049 813d d252 0d3e 9e77 48bd 88cf 9b3c
00000310: 3501 043e f4cd d13e a819 333d 6b93 1ebe
00000320: 596e c73e 16b2 833e 9022 a0bd 99cd ffbd
00000330: 62fe 553e f9e1 e3bd 756b 1c3e 33cb a93e
00000340: 815d d03e 5d21 7a3d 078c 463d 48a4 833e
00000350: c2a3 a03e a3cc 6cbd 9747 ee3e 7743 833e
00000360: d446 8b3e c44c 6fbd ca1f e13d 6093 78bd
00000370: 1e6b 643e 89c9 2dbc e048 223d cf33 973e
00000380: a4fa a13e f37f edbd acf5 0f3f 44aa d2bc
00000390: b9d3 283e 84f1 54be ff83 f13e 93e0 093e
000003a0: 35e4 5dbd 7697 273e aca2 563c 2ecb d63e
000003b0: 9d6a 93bc 7960 1cbd 656b 683d b4e6 143d
000003c0: b17d c53d d7e0 c53e 86e5 6c3c eb67 08be
000003d0: 3973 38be 9d48 993e 1ba9 593e d61d de3e
000003e0: cb95 79bc a8d3 3b3b 406d 8d3e eef0 ea3d
000003f0: a5c4 07ba 8493 cc3e 5f87 493d 4c3e a63c
0.13676624 0.009496041 -0.07319618 0.008664661 0.21126693 -0.24084139 -0.24806063 0.04970934
0.3125137 0.08521666 0.05958849 -0.05165442 -0.1774286 -0.36246085 -0.1101726 0.06952296
0.118657544 -0.018078068 -0.12322215 0.13773786 -0.07802566 -0.020946268 0.017238686 0.49452552
-0.058056306 -0.09914839 -0.09444541 -0.029012488 -0.07652366 -0.29602107 0.0690315 0.17439266
-0.11185127 0.01563852 0.26865947 0.19579013 0.058650676 -0.19790907 -0.11074943 0.45054108
-0.12981537 -0.21093658 -0.24105471 -0.024729194 -0.02219501 -0.1874843 0.2501494 0.147362
-0.22188722 0.26899797 -0.12364648 -0.17340448 -0.18654658 0.20928353 0.17862399 0.0001380815
0.016309068 -0.0646019 -0.07707528 0.032507025 -0.0895819 -0.05497164 -0.120236255 -0.220083
-0.028261581 0.06712136 -0.100574195 -0.06826319 0.031653386 -0.046364117 0.08377404 0.10009101
0.16517557 0.17490493 0.21406525 0.083221905 0.19401513 -0.16499008 0.29842266 0.19398616
0.07627937 -0.044949163 0.23840104 0.18557476 0.0052489983 0.24665317 0.3234189 0.12061561
0.2064983 0.043847915 0.2528369 0.09239548 0.15821567 -0.08758723 0.04547448 0.14038679
-0.026424663 0.07236504 0.17568158 0.28537586 0.038549203 -0.13632551 0.23430225 0.22297364
0.38755277 0.16681634 -0.038077272 0.00035257585 0.10209517 0.13534716 0.073580116 0.16763444
0.3151384 0.085760996 0.23334947 0.2625457 0.18492395 0.23802136 0.0032418044 0.3430345
0.10706397 0.10020994 0.1962824 0.11163104 0.04323725 0.41605657 0.07715439 0.09779244
0.14601299 -0.07978844 -0.0005409224 -0.25876695 0.16631746 -0.104175985 -0.052795704 0.06774677
0.3028979 -0.20093626 -0.30094948 -0.05091482 0.10326621 0.010766444 -0.10125753 -0.009275937
0.33005515 -0.004827992 -0.21011192 -0.17520788 -0.24702731 -0.0049151513 -0.021315942 -0.462793
-0.020703081 0.17695834 -0.124119096 0.06604609 0.039180424 -0.15467615 0.051797282 0.392224
0.20191962 -0.1790411 0.4547967 -0.2501436 -0.088531785 -0.049511503 0.108744934 -0.33739093
0.19997008 0.028056936 -0.033911604 -0.023787856 0.2038477 -0.030549537 0.28980488 0.31916448
-0.04312499 0.13897212 0.17936856 0.0833633 0.033748347 0.38070804 0.058017038 0.035652332
-0.10612263 0.006929562 0.015335669 -0.13418996 0.039460517 0.10100606 -0.087910235 -0.02755989
0.06312823 0.13801125 -0.0489422 0.019019857 0.12891085 0.40977442 0.04372564 -0.15485923
0.38951376 0.25721806 -0.07819092 -0.124903865 0.2089782 -0.11127085 0.15275367 0.3316284
0.40696338 0.061066974 0.048473384 0.25711274 0.31374937 -0.057812344 0.46538994 0.2563741
0.27202475 -0.05842282 0.109923914 -0.060687423 0.22306487 -0.010607132 0.03962028 0.29531714
0.31636536 -0.1159667 0.5623424 -0.025715955 0.16487016 -0.20795256 0.47171018 0.13464575
-0.054172713 0.16366372 0.013100307 0.4195189 -0.017995173 -0.03817794 0.056743044 0.03635283
0.09643114 0.38648102 0.0144590195 -0.13320892 -0.18012704 0.29938212 0.21255915 0.43382138
-0.015233467 0.0028660093 0.27622414 0.11471735 -0.00051791436 0.39956295 0.049201366 0.020293377

fc.weight f4 [1, 64]
00000000: 7b75 763f fa31 97bf 4fe5 a13f cd63 8ebf
00000010: 91f4 7b3f 479d 0540 18da ff3f c3ca 8f3f
00000020: 7298 873f baa4 8dbf 462d 7abf 9b1b 94bf
00000030: 0d27 c5bf 70e1 0a40 6a9b 98bf e427 9e3f
00000040: 668f 853f 6ddd 9d3f c5ed 8cbf 7448 8cbf
00000050: cbb3 87bf 805e 8d3f 883a 9f3f dcde 83bf
00000060: 40ee 9f3f 88d8 c23f 9a2d 9cbf ed85 853f
00000070: e165 9a3f 3a8b 2940 a851 943f 3be6 8a3f
00000080: bb39 ecbf ea6f 8abf f3ab 8e3f f72a 78bf
00000090: f902 8fbf bdfb 3a40 d65b 97bf 5473 7ebf
000000a0: a10a 793f db75 81bf 2cdb 3ec0 e661 903f
000000b0: ac5a 833f a801 b4bf a4ec 7e3f ff7a 973f
000000c0: 3afe 883f ca77 8d3f d283 883f 4c6c 8c3f
000000d0: a83b a93f 9894 8c3f 1fb5 883f f21e 91bf
000000e0: a6ff 8bbf d4d6 8d3f f8ce 9bbf 46bb 80bf
000000f0: ac7f 94bf a597 983f 2256 9f3f 3ced af3f
0.9627301 -1.1812127 1.2648104 -1.1124207 0.98420054 2.0877244 1.9988432 1.1233753
1.0593398 -1.1065896 -0.9772533 -1.1570925 -1.5402542 2.1700096 -1.1922429 1.2355924
1.0434387 1.2333199 -1.1010062 -1.0959611 -1.0601743 1.1044464 1.2439737 -1.0302386
1.2494583 1.522233 -1.2201416 1.0431496 1.2062341 2.6491227 1.158742 1.0851511
-1.8455118 -1.0815403 1.1146225 -0.9694056 -1.1172782 2.921615 -1.1824901 -0.99394727
0.97281843 -1.0114092 -2.9821272 1.1279876 1.0262046 -1.4063005 0.99579835 1.183441
1.0702584 1.1052182 1.0665228 1.097055 1.3221331 1.0982847 1.0680274 -1.1337569
-1.0937393 1.1081185 -1.2172537 -1.0057151 -1.1601462 1.1921278 1.2448161 1.3744273

exp_avg f4 [11, 128]
00000000: af1a 7fba ce97 e5ba 8356 723a a2a0 f33a
00000010: d2ce a13a 9efc cb3a c29d c6b9 6658 d5ba
00000020: f758 4bb9 6fff a4ba 44fa 0839 5d5e d8ba
00000030: 71c3 6b3b be15 833a 643e c3ba 35fa ee39
00000040: c081 1338 68b0 8eba 8176 113a 5587 abba
00000050: 7059 feba e4cf dc3a c8b1 2abb e014 0c3a
00000060: be57 f739 1af1 bcba f717 703a 30c3 d639
00000070: eec7 cdba d4e6 d0b9 a28c d8b9 2ea7 89b9
00000080: 84e9 3b3a 7a82 22ba 8988 ef3a a766 02ba
00000090: 6248 14bb 8f0b 0fbb 4e6b 42bb 48c9 013a
000000a0: ba41 4c3a a5bf 1c3b 80a5 96ba 5583 093b
000000b0: 5a53 4dbb 371c 773a b16e 2d3a b228 db3a
000000c0: 0e3e 3dbb 8605 093b 5347 9b39 b8f9 8d3a
000000d0: f193 e93a a14e e3ba 8c91 893a 96db c8b9
000000e0: 3b4c 98b9 19f4 b8ba 36d0 48ba c62f 8dba
000000f0: efc0 b039 ced3 6f3a 712d b7ba 086e 34bb
00000100: 6857 30b9 8aab cb3a 0f0e 913a 9327 263a
00000110: 4cb5 13bb 08bf ae3a 49cc 993a 8938 caba
00000120: 4559 30ba 54d5 8e3a 8382 bd3a 0dfd 07bb
00000130: 6e95 40ba 4a1f 3dbb c21e 5d3a b44a 11ba
00000140: 285a 5d3a 664d a838 a458 5b3b 4b48 24ba
00000150: ebe7 d4ba 91a9 f2ba 1dd3 a1ba 666a 523a
00000160: 110a 02b9 dffa 833a 3c10 e83a 9121 8c3a
00000170: a855 c0ba 4aed 2d3a 7244 a13a e04d 4238
00000180: 8938 eb3a dd1a cd3a af9d 8aba 58ce 11ba
00000190: 1460 bbb9 a650 813a 58c2 b03a 56a5 c539
000001a0: 0c46 763a 9beb d7ba 555b af3a 2ee0 b43a
000001b0: c2ff 45b9 18b4 923a a9ef c93a c70c 66b9
000001c0: 4702 c7ba f02e 293a 2665 e4ba 3242 473b
000001d0: b3af 8b3a 9cd9 323a 1924 18bb 7464 adb9
000001e0: c4f1 223b 34d5 6abb a0c2 04bb b7b9 203b
000001f0: 960a 1cbb 6cb4 ceba f9f2 7cba 915a 3e3a
00000200: ae2b 1ebc 3f33 cdbb adf0 e83a 2bdc 683a
00000210: 66a9 4dbb fa0a 333b 59c5 71bb d97f 4fba
00000220: 60bc b33b e09b 1c39 a15f 0abc 6855 61bb
00000230: 3df9 c93b 6ee2 ee3a 0390 5eba dff4 a23b
00000240: 08c9 0b3b c1ef c43a bc19 363a 1e5a b5bb
00000250: 8314 deba a019 123b f9b3 2cbb 0c96 b138
00000260: ff98 54bb e69e dabb 42ac 28bb cf3c be3b
00000270: 92cb c03a d338 1a3c 37db c7bb 1d27 883b
00000280: 69b0 8ebb da1f 85bb 70b8 afba e4dc 12bb
00000290: 12c8 0b3b d15b b6bb 4465 9ab8 c27b 5dba
000002a0: 925c 7f3a fac9 103b a887 dcb8 b2f5 183a
000002b0: 49be 4fbb e0e7 96bb f6b1 3c3b 1860 fa3b
000002c0: d38a 7cbb ca0e 1c3c 1719 f5ba bcd1 44bb
000002d0: 332c b4b8 5c21 c5bb da4d 533c cc5d 953b
000002e0: d093 30bb a26b 07bc 30c9 a3bb 4238 92bb
000002f0: ad0a ad3a 1d8a bbbb e408 67ba 7085 aabb
00000300: 2e6e ae3b 923a 7c3a a411 7bbb 08b6 f238
00000310: e482 57bb 1c5e 133a 2774 13ba e4e2 9ebb
00000320: 96d1 7dbb 5b4a cc3b 3c5c 3a3b 6f39 65bb
00000330: 3cec e6bb eeaa 4fbb 3a27 0c3c b632 4ebb
00000340: 369b e03b 0a80 653b ef37 963b cee2 4abb
00000350: 3483 87bb 5a83 97bb 30e5 503b ca4d ba3b
00000360: 9782 8fba 6a99 bbbb a270 6a3b 693d 1e39
00000370: a30b 193b 6e4c 7a39 f1b2 af3a 08a8 353b
00000380: 3733 edba 1dc4 ab3b 1cc2 cfba 1406 29bc
00000390: 0db9 61bb d0b5 ef3a 87b6 f339 1278 92bb
000003a0: 2c3e 873b a0fd a1bb 365d 773b a74b 9f3b
000003b0: 30e0 94bb bf74 413b eb8e 57ba 8755 69bb
000003c0: 4638 09ba 14ed f639 414a 22bb fcfd 253c
000003d0: 4485 bc3b c436 8bba 76ef f0bb c6e7 8eb9
000003e0: 7c01 dd3b 72a7 5dba d250 edba 371e af39
000003f0: acde c93a 2e3e 0a3a 8fd4 d53a e621 c5bb
-0.0009731454 -0.0017516555 0.00092444586 0.0018587301 0.0012344962 0.0015562957 -0.00037883042 -0.0016276955
-0.0001939273 -0.0012588332 0.00013063202 -0.0016507615 0.0035974646 0.0010000987 -0.0014895913 0.00045581316
3.516837e-05 -0.0010886313 0.00055489695 -0.0013086597 -0.0019405317 0.0016846624 -0.0026045907 0.0005343687
0.00047176884 -0.0014415116 0.00091588445 0.00040962687 -0.0015699842 -0.00039844832 -0.0004130351 -0.00026255235
0.00071682804 -0.0006199252 0.0018274944 -0.0004974403 -0.0022626151 -0.0021826958 -0.002966601 0.0004950953
0.00077917764 0.002391794 -0.0011493415 0.002098282 -0.00313302 0.00094265066 0.00066159206 0.0016720502
-0.0028876099 0.0020907833 0.00029617044 0.0010831868 0.0017820579 -0.0017342159 0.0010495647 -0.00038310577
-0.00029048495 -0.0014110833 -0.00076604204 -0.0010771684 0.00033713083 0.0009148688 -0.0013975335 -0.0027531404
-0.0001681723 0.0015538794 0.0011066812 0.00063382945 -0.0022538481 0.0013332078 0.0011733855 -0.0015428226
-0.00067271694 0.0010897317 0.0014458451 -0.0020750195 -0.00073464855 -0.002885776 0.0008435064 -0.00055424427
0.0008443915 8.025281e-05 0.0033469582 -0.0006266876 -0.0016243433 -0.001851367 -0.0012346242 0.0008026719
-0.00012401516 0.0010069272 0.0017705034 0.0010691156 -0.0014673965 0.0006634785 0.0012303723 4.632573e-05
0.0017945926 0.0015648265 -0.0010575558 -0.00055620586 -0.00035739003 0.0009865954 0.0013485653 0.00037697953
0.0009394593 -0.0016473414 0.001337866 0.0013799721 -0.00018882661 0.0011192588 0.0015406507 -0.00021939269
-0.0015183174 0.00064538326 -0.0017425164 0.0030404446 0.0010657221 0.00068225875 -0.0023214875 -0.00033071975
0.0024863342 -0.0035832645 -0.0020257607 0.0024524757 -0.002381002 -0.0015770323 -0.0009649243 0.000726142
-0.009653969 -0.0062622125 0.0017771922 0.0008882905 -0.0031381487 0.0027319775 -0.003689131 -0.0007915474
0.0054851025 0.00014935387 -0.008445651 -0.0034383181 0.0061637447 0.001822544 -0.00084900873 0.0049730386
0.002132954 0.0015025066 0.0006946584 -0.0055344244 -0.0016943369 0.0022293106 -0.002635239 8.467966e-05
-0.0032439826 -0.006671774 -0.002573744 0.005805589 0.0014709106 0.009412962 -0.0060991305 0.0041550533
-0.004354526 -0.004062635 -0.0013406407 -0.0022409493 0.0021328968 -0.0055651446 -7.3621544e-05 -0.00084489223
0.0009741272 0.0022093044 -0.000105156854 0.00058349513 -0.0031699112 -0.0046052784 0.0028792596 0.00764085
-0.0038534894 0.00952501 -0.0018699494 -0.0030032238 -8.5913016e-05 -0.0060159396 0.012896979 0.0045583006
-0.0026943572 -0.008265408 -0.0049983487 -0.004462273 0.0013202034 -0.0057232515 -0.00088132755 -0.0052038953
0.005323193 0.0009621765 -0.0038310075 0.00011573365 -0.0032884413 0.00056216284 -0.0005624913 -0.004848825
-0.003872966 0.00623445 0.0028436324 -0.003497686 -0.0070472043 -0.0031687575 0.008554274 -0.0031463332
0.00685444 0.0035018944 0.0045843045 -0.003095794 -0.0041355137 -0.0046238126 0.0031874888 0.0056855427
-0.0010948953 -0.0057250755 0.00357727 0.00015090931 0.0023352883 0.0002387033 0.0013404769 0.0027718563
-0.0018096928 0.0052418844 -0.0015850696 -0.010316391 -0.0034442574 0.0018288437 0.00046484565 -0.00446988
0.0041272845 -0.0049435645 0.0037744767 0.0048613134 -0.004543327 0.002951905 -0.00082228956 -0.0035603957
-0.00052345206 0.00047097413 -0.0024763497 0.010131355 0.005753191 -0.001062118 -0.0073527647 -0.00027257035
0.0067445617 -0.0008455432 -0.0018105751 0.00033401113 0.0015401444 0.0005273548 0.0016313958 -0.006016004

exp_avg_sq f4 [11, 128]
00000000: a642 3b39 bb0b 7439 796a a837 a18c 3439
00000010: 8062 ad38 f682 f137 864a ff36 75ef 5a38
00000020: a906 a938 8f7f dd37 56af 8737 356b 9439
00000030: 7a7d 223a 7c6d 1c37 adb1 f537 2612 1c37
00000040: 34d5 1f39 c2dd 4737 61f1 e437 c132 8038
00000050: 9c63 b237 b9ee 1739 3c85 b539 a97f 8936
00000060: 3d27 0e38 7cb3 8e37 f370 6737 5166 8036
00000070: 0491 a237 9e24 7a37 08f6 ef37 62c9 0a37
00000080: dbd2 4a37 0fe5 9038 7535 9038 74fe 4737
00000090: d59f 2539 1ac4 4538 c387 6e39 d349 2837
000000a0: bbef 9a37 cd63 9438 92a2 3837 78a4 1f3a
000000b0: 58bf 9339 49e1 c837 b93a e137 09a1 0b38
000000c0: b7c5 0b39 9d73 2d38 de9e 3a37 383a 4d39
000000d0: bd00 2438 6afc 5838 f9f4 9d38 b3ee 3937
000000e0: 918d 6738 8c93 7539 3bb1 3537 7619 d638
000000f0: c151 0238 7de3 e536 bf00 da37 c836 8239
00000100: b7dd e537 4e66 6138 45d5 cf38 dfee 4738
00000110: 8f73 3339 303d 0939 7f65 3b39 cbe8 ad38
00000120: 58d0 a136 24d6 8137 a3f5 8d39 8c9d 0139
00000130: 98c1 d337 5cd6 ef39 7f09 2338 0fd6 d137
00000140: 40fb 7737 2b28 c236 e87a 6739 d43a b037
00000150: 897a 8238 8e59 a438 57ad 3c38 cbe7 1f38
00000160: d21a 0c37 d622 3437 51be 0c38 5452 a838
00000170: a8c9 b438 45aa 1138 9833 3638 26f6 3f38
00000180: a089 3b39 5789 0138 530a b137 1268 6d37
00000190: 7a07 2238 d421 9437 d726 8637 2be9 1138
000001a0: 1125 0e38 11af 6138 8d09 3438 92ce 1538
000001b0: 11ff 4038 d00a 7338 8300 6d39 4623 ec36
000001c0: f8dd a137 bc81 7737 ed65 1939 cd53 cf38
000001d0: 5b2d 0038 8286 8837 ab3f 7039 0a23 8b37
000001e0: 3491 1739 c3ac 033a 4c3a 2639 328a 1e39
000001f0: 9ba3 4539 7c31 6838 b3b6 b938 0530 e536
00000200: 9579 1a3a ef95 d639 bf64 8638 5195 2538
00000210: 0848 e838 758e 8738 e7b3 5a38 43f9 9f38
00000220: 885c 5b39 9af4 7738 9a58 c439 8ba3 2f39
00000230: afbf 063a c4ae 1238 7b9e 7437 21c3 d638
00000240: 5957 3f38 0e48 3438 0991 9037 c056 9239
00000250: 7f94 c337 f4b1 1d39 44a9 8238 b6e8 6038
00000260: 23ef 0939 eb9b 3d39 e26d 3938 14f2 0e39
00000270: e012 6737 7397 073a 6c66 6339 f08e e038
00000280: c7c7 d338 7110 0639 a508 c138 7b65 2e38
00000290: 20bb b138 5ab7 4e39 95ce 8a38 8b1d 2b38
000002a0: 3197 bb37 7199 e138 6f22 b337 b8ea e238
000002b0: e601 2439 12cf a938 69dd a538 99a5 aa39
000002c0: 3e82 5839 c5e4 0d3a b2fc d738 d84c 8338
000002d0: d68e 2538 868d 8d39 e3b3 273a 843e 3a39
000002e0: 3c1d 2a38 36b6 083a bdcf c938 8f03 2f39
000002f0: 020e 4c38 4db7 a439 0bf3 6d38 5983 4e39
00000300: 449b a438 9342 dc37 a367 5638 4bd2 1338
00000310: 99a9 5139 d302 b438 222b 0b38 f5b8 6e39
00000320: 95d9 f038 6596 6739 60df b338 96d2 1d39
00000330: 789a cc39 c11d 3339 1877 d839 b17b ed37
00000340: 48dc dd39 7db9 cd38 d66d d339 876d cb38
00000350: 89e6 0d39 32ae 0839 e41d 0239 5f50 1439
00000360: 7cd0 f637 2774 8739 215f 1c38 23d7 8338
00000370: 5e98 b638 d860 3537 3b9a 4c38 1f29 2638
00000380: 7e79 8d38 83d9 0739 cc45 3638 6c29 0a3a
00000390: 7266 4c39 5452 c337 3709 4c38 3c31 5339
000003a0: 41da 5039 8eec 6939 e05b 7639 7a13 0039
000003b0: 956d 5639 ccaf 4938 2366 7937 bbf9 9238
000003c0: ec8f b737 d41b 2c37 06f6 5438 e589 2a3a
000003d0: f25b 8839 8a7c 2138 d1e6 8e39 b058 5338
000003e0: d9aa d639 ffcb 0c39 c9ed ed37 6d5b 3438
000003f0: 4757 3e38 b9a5 1638 d8b0 9e37 f283 8a39
0.00017858538 0.00023274023 2.007674e-05 0.00017218526 8.26763e-05 2.8790422e-05 7.608268e-06 5.2198262e-05
8.0597885e-05 2.6404652e-05 1.6174901e-05 0.00028308635 0.0006198507 9.323816e-06 2.9289013e-05 9.30255e-06
0.00015242846 1.1912956e-05 2.7292119e-05 6.112969e-05 2.1265638e-05 0.00014489413 0.00034622278 4.0977798e-06
3.389198e-05 1.7011298e-05 1.3794971e-05 3.8266085e-06 1.9379433e-05 1.4909687e-05 2.8605587e-05 8.272329e-06
1.2089232e-05 6.9091206e-05 6.876412e-05 1.1920569e-05 0.00015795168 4.7151094e-05 0.00022748024 1.0030769e-05
1.8469864e-05 7.075779e-05 1.1005106e-05 0.00060898764 0.00028180587 2.3946764e-05 2.6849435e-05 3.3290158e-05
0.00013329728 4.1354087e-05 1.1123453e-05 0.00019572012 3.9101335e-05 5.1733492e-05 7.531973e-05 1.1082436e-05
5.5206536e-05 0.00023419986 1.0829705e-05 0.00010209058 3.1070555e-05 6.851215e-06 2.5987973e-05 0.00024836347
2.7402171e-05 5.373946e-05 9.910254e-05 4.7667763e-05 0.00017113819 0.00013088132 0.0001787152 8.292644e-05
4.8224283e-06 1.5477715e-05 0.0002707663 0.0001236109 2.524331e-05 0.00045745343 3.8871072e-05 2.501442e-05
1.4780846e-05 5.7863267e-06 0.00022075663 2.1008229e-05 6.221707e-05 7.83681e-05 4.4984128e-05 3.8124428e-05
8.350895e-06 1.0736947e-05 3.3555847e-05 8.026199e-05 8.62063e-05 3.472927e-05 4.3440232e-05 4.5767192e-05
0.00017884979 3.0883904e-05 2.1104852e-05 1.4150532e-05 3.8630773e-05 1.7658727e-05 1.5992131e-05 3.478785e-05
3.388996e-05 5.3807224e-05 4.292424e-05 3.5716752e-05 4.6013916e-05 5.7945785e-05 0.00022602272 7.0374545e-06
1.9296058e-05 1.4752553e-05 0.00014629187 9.886138e-05 3.055982e-05 1.6275098e-05 0.00022911902 1.6586408e-05
0.00014454575 0.0005022997 0.00015852711 0.00015119536 0.00018848332 5.5359196e-05 8.855518e-05 6.830322e-06
0.0005892751 0.0004092897 6.408383e-05 3.9478127e-05 0.00011076039 6.463836e-05 5.2142797e-05 7.6281394e-05
0.00020919938 5.9117192e-05 0.00037450047 0.00016750225 0.00051402574 3.4971876e-05 1.4580432e-05 0.00010240661
4.5619297e-05 4.298245e-05 1.7233675e-05 0.00027911924 2.331496e-05 0.0001503898 6.230411e-05 5.362249e-05
0.00013154424 0.00018082529 4.4209773e-05 0.00013632356 1.3773068e-05 0.0005172409 0.00021686562 0.000107077765
0.000100984755 0.00012785361 9.204567e-05 4.1579344e-05 8.4748724e-05 0.00019713995 6.618832e-05 4.079709e-05
2.2362541e-05 0.00010757417 2.1354497e-05 0.000108202395 0.00015640966 8.097118e-05 7.909054e-05 0.00032548307
0.00020647884 0.00054128125 0.00010299067 6.26088e-05 3.9472092e-05 0.0002699906 0.00063973496 0.00017761631
4.0558385e-05 0.000521514 9.623121e-05 0.00016690626 4.8650436e-05 0.00031417087 5.6731555e-05 0.00019694622
7.84905e-05 2.6257045e-05 5.1118095e-05 3.524338e-05 0.00019994973 8.583595e-05 3.3180353e-05 0.0002276635
0.000114846196 0.00022085903 8.576992e-05 0.00015051136 0.00039025 0.00017081854 0.00041287462 2.83102e-05
0.00042316527 9.8097116e-05 0.0004032689 9.7001954e-05 0.00013532689 0.00013034864 0.00012408901 0.0001414432
2.9422568e-05 0.00025835747 3.7281894e-05 6.286639e-05 8.706817e-05 1.0810989e-05 4.878103e-05 3.961578e-05
6.7460336e-05 0.00012955633 4.3457185e-05 0.00052704546 0.0001949312 2.3284148e-05 4.8645972e-05 0.0002014087
0.00019917732 0.00022308735 0.00023494614 0.00012214287 0.00020449453 4.8085858e-05 1.4865337e-05 7.0083384e-05
2.1882319e-05 1.0258478e-05 5.0773866e-05 0.0006505533 0.00026008446 3.8501377e-05 0.00027256322 5.0388917e-05
0.00040944552 0.00013427435 2.8363329e-05 4.300049e-05 4.5380813e-05 3.5917128e-05 1.8917417e-05 0.00026419718
