Lab7_ALTEGRAD_learning_on_sets_and_graph_generative_models/code/part1STE/model_deepsets.pth.tar (torch, 123362 bytes, 12 tensors)

embedding.weight f4 [11, 128]
0.8740477 1.4774418 0.9598804 -0.5241118 -1.0288026 -0.23838307 1.127177 -0.27319583
0.50552946 0.42974296 -0.19683945 1.4737384 -2.4450116 0.53422505 0.19017652 -0.12878083
-1.6095418 0.67434967 0.17207359 -1.0204402 -1.3520896 1.5107797 0.9202494 -0.32398295
0.25282872 0.47706833 0.94761884 -0.90772784 -0.29274407 -1.3920395 -0.29019186 0.72089916
1.6879293 0.13605884 0.08233707 0.95069563 -0.9553871 -0.95711124 -0.101945736 -1.4264183
0.9641069 -2.365454 -0.4306565 -1.2728853 1.2177896 0.98566955 0.8493543 0.00030916434
-0.3444191 -0.5734485 -0.10031783 -0.5353645 0.8163465 -0.25194344 0.80908245 -2.4724226
0.33147267 -0.012442503 -0.32280648 0.14720294 -1.1564273 0.043689955 -2.1249537 1.256014
-0.5196274 1.1789683 0.85959935 -0.9946097 0.26513946 1.772183 -0.79545456 -0.6976389
-0.77816755 0.613199 0.5944188 -0.7445337 -0.8395317 -0.6910925 0.11092749 -0.58393747
0.69416326 0.08051444 -0.9409802 -0.16322935 -0.50654376 -1.957915 1.1804818 -0.43683177
-0.25581643 0.7532023 2.784855 -0.9245917 1.4206028 -1.1615158 0.5176279 -1.3156023
0.46191496 0.62727803 -1.1490284 0.88833493 0.23023286 0.1909124 -1.503779 0.38525084
-0.7921844 -1.1005021 2.832382 1.5337831 -2.8698132 0.41642672 2.816234 -0.6736133
-1.713575 1.3503197 -1.0626919 -1.1216202 -0.36362857 0.7747045 0.27856952 -0.11046144
0.6381615 -1.2123975 0.4410016 2.701472 0.063406326 -0.6313578 -0.6318021 0.12226893
-0.91275835 1.3373408 -0.56185836 -0.23480059 -1.1902518 0.49682125 -0.069086134 -0.12633118
-0.0809772 -0.3480773 -1.3105959 1.3788422 0.2326027 1.5862341 2.512626 -2.0751038
1.0865184 0.8166445 -0.4580324 -0.10038381 -0.022333667 -2.3103907 -0.13507758 -1.4220388
-0.022040091 0.9886058 0.29931495 -0.39420184 1.5672688 -0.50329375 -0.69745374 -1.5693859
-2.127716 0.6959019 -0.3430252 -0.122160845 -2.562289 1.5841938 -0.110825114 -1.669092
-2.1218667 -1.1549367 -1.4190211 -2.5204535 -2.6358716 0.84765697 -0.6724542 -0.7028247
0.45902306 -3.1086504 0.060034323 1.5725006 -0.081184216 -0.38211975 -0.21853712 -2.2121062
-1.2431265 -1.7866344 -0.9625271 0.96447337 -1.1759725 2.4488022 2.4055574 -0.07013075
-1.3225118 0.75614 -0.113617286 -0.89612794 0.39793032 -0.28466251 0.47198972 0.4917557
1.1077873 1.6974059 -0.54529077 -0.34126914 1.8650478 -0.00741672 0.75863224 1.416555
-0.69044936 2.0005782 -1.1255344 0.91953325 0.8830383 3.0649474 -0.7984212 0.897553
-0.5933146 -0.24861825 1.2371377 0.8084038 0.20152743 -1.2410074 -0.18118617 -0.8748895
-1.9610407 -1.3459946 1.9750605 -0.632574 1.9986758 -0.30320424 0.003418115 -0.35982364
1.0903623 -0.18085553 0.21258883 0.847293 -0.04154291 -0.6007803 0.87259716 -0.08164132
0.46525496 1.0007799 -0.1571636 1.4102622 -0.7108307 0.3750995 1.0582583 -0.01482029
0.40568754 -0.45736325 -0.22178623 -0.11787489 1.0390394 -1.096407 -0.48148325 0.09823781
00000000: 97c1 5f3f d01c bd3f b9ba 753f 312c 06bf
00000010: ceaf 83bf b11a 74be 5647 903f 53e0 8bbe
00000020: 616a 013f 4507 dc3e 4890 49be 76a3 bc3f
00000030: 127b 1cc0 f9c2 083f a2bd 423e 1fdf 03be
00000040: 7705 cebf 2ea2 2c3f 0f34 303e c99d 82bf
00000050: 4611 adbf 3b61 c13f 7795 6b3f 18e1 a5be
00000060: c472 813e 4d42 f43e 2697 723f da60 68bf
00000070: 8de2 95be 5a2e b2bf 0794 94be d98c 383f
00000080: 110e d83f 0253 0b3e 56a0 a83d ca60 733f
00000090: 4094 74bf 3e05 75bf edc8 d0bd e094 b6bf
000000a0: b6cf 763f 9963 17c0 027f dcbe e8ed a2bf
000000b0: 88e0 9b3f d754 7c3f 496f 593f 5617 a239
000000c0: b357 b0be 85cd 12bf 6f73 cdbd a60d 09bf
000000d0: 16fc 503f bbfe 80be 0720 4f3f 2c3c 1ec0
000000e0: c9b6 a93e a4db 4bbc e446 a5be 5ebc 163e
000000f0: cf05 94bf 3df4 323d 3eff 07c0 11c5 a03f
00000100: 4d06 05bf 6fe8 963f b40e 5c3f be9e 7ebf
00000110: 5cc0 873e e4d6 e23f e9a2 4bbf 7798 32bf
00000120: fd35 47bf 9cfa 1c3f d52b 183f c399 3ebf
00000130: 8deb 56bf 70eb 30bf f42d e33d ed7c 15bf
00000140: afb4 313f c1e4 a43d 14e4 70bf 9825 27be
00000150: daac 01bf f59c fabf 071a 973f 6aa8 dfbe
00000160: 5ffa 82be ded1 403f 103b 3240 0bb2 6cbf
00000170: 50d6 b53f 8dac 94bf 4383 043f a865 a8bf
00000180: 1e80 ec3e 4b95 203f 5d13 93bf eb69 633f
00000190: 2ac2 6b3e 8a7e 433e d57b c0bf 993f c53e
000001a0: 99cc 4abf 41dd 8cbf bf45 3540 0153 c43f
000001b0: 05ab 37c0 e235 d53e 2e3d 3440 ec71 2cbf
000001c0: 6d56 dbbf 47d7 ac3f 4a06 88bf 4091 8fbf
000001d0: 862d babe 0953 463f aaa0 8e3e 9c39 e2bd
000001e0: 8d5e 233f d72f 9bbf f6ca e13e ebe4 2c40
000001f0: 2ddb 813d aaa0 21bf c8bd 21bf 2268 fa3d
00000200: 88aa 69bf fc2d ab3f f3d5 0fbf 916f 70be
00000210: 2c5a 98bf 5b5f fe3e 087d 8dbd f65c 01be
00000220: 60d7 a5bd 3037 b2be 9bc1 a7bf e77d b03f
00000230: 672f 6e3e b809 cb3f ddce 2040 80ce 04c0
00000240: 0913 8b3f 9d0f 513f 3983 eabe 0796 cdbd
00000250: 18f5 b6bc 71dd 13c0 c751 0abe 5e05 b6bf
00000260: 6c8d b4bc 4515 7d3f cf3f 993e d3d4 c9be
00000270: 449c c83f dcd7 00bf 548c 32bf a3e1 c8bf
00000280: 802c 08c0 a026 323f 00a1 afbe 772f fabd
00000290: 8bfc 23c0 ddc6 ca3f 47f8 e2bd cfa4 d5bf
000002a0: aacc 07c0 f7d4 93bf 7ca2 b5bf 1c4f 21c0
000002b0: 1fb2 28c0 0c00 593f f525 2cbf 52ec 33bf
000002c0: 1205 eb3e 21f4 46c0 8de6 753d b347 c93f
000002d0: e943 a6bd 33a5 c3be 32c8 5fbe 2693 0dc0
000002e0: c51e 9fbf 70b0 e4bf 2d68 76bf bae7 763f
000002f0: 4486 96bf 2db9 1c40 a7f4 1940 b6a0 8fbd
00000300: 1148 a9bf 6492 413f 2eb0 e8bd a468 65bf
00000310: 86bd cb3e 49bf 91be a3a8 f13e 67c7 fb3e
00000320: f9cb 8d3f 9944 d93f 2d98 0bbf d4ba aebe
00000330: e3b9 ee3f f507 f3bb b935 423f ad51 b53f
00000340: 4ac1 30bf 7909 0040 8311 90bf 8866 6b3f
00000350: cc0e 623f 1928 4440 5565 4cbf 09c6 653f
00000360: 77e3 17bf c895 7ebe 875a 9e3f 8df3 4e3f
00000370: 355d 4e3e 55d9 9ebf de88 39be c2f8 5fbf
00000380: 6203 fbbf 8d49 acbf c8ce fc3f 5ff0 21bf
00000390: 9cd4 ff3f 963d 9bbe 7402 603b ce3a b8be
000003a0: fe90 8b3f 3132 39be e3b0 593e 32e8 583f
000003b0: e628 2abd bdcc 19bf 8762 5f3f 9033 a7bd
000003c0: e635 ee3e 8e19 803f 7fef 20be 7983 b43f
000003d0: 00f9 35bf 0b0d c03e 0275 873f cdd0 72bc
000003e0: 47b6 cf3e 842b eabe ee1b 63be 6468 f1bd
000003f0: 3eff 843f 1157 8cbf f984 f6be e830 c93d

fc1.weight f4 [64, 128]
-0.004962476 0.1219265 0.11163664 -0.14797024 0.014442581 -0.1090589 -0.102502145 0.06621467
0.04700129 0.05873721 0.065816276 0.08345911 -0.12761311 0.107044145 -0.10260437 0.07649769
-0.17506889 0.14722861 0.2142045 -0.12175034 0.009511737 -0.06732613 -0.052636247 0.11691281
0.16373177 0.003488876 -4.4195913e-06 -0.09343589 -0.108512394 0.10041127 -0.06411246 0.14126603
-0.014237406 -0.037283346 0.034430295 0.08746724 -0.025324777 -0.14838184 0.049666632 0.08189253
0.000698371 -0.01467224 -0.064021476 0.034643475 0.12347411 0.007588497 0.062319897 0.0051556104
0.10085585 0.018235447 -0.11381797 -0.082664795 -0.024868362 0.09329013 -0.022059388 0.06471352
-0.04154164 -0.09478983 -0.0047893045 -0.082429394 -0.034439556 -0.037766118 -0.02678949 0.00019027347
-0.07839353 -0.030520411 0.14005189 0.045064762 0.080635235 0.058512922 0.03574971 -0.007857368
-0.15330723 0.0946591 -0.00768878 0.007496004 -0.046315547 -0.09121911 0.024707388 -0.14236203
0.011972774 -0.14962329 0.009019082 -0.015931785 -0.12986748 -0.044128288 0.00024310214 -0.04432194
0.259657 -0.010193925 0.019499663 0.06086397 0.23198777 0.004681392 0.17401063 0.122854315
0.21808958 0.029605523 -0.0042899637 0.007281403 0.056466278 -0.046117723 -0.15276954 0.07434273
-0.07982118 0.14717844 0.14421043 -0.107824154 0.034018062 0.053694647 0.08531845 0.09119437
-0.1016204 0.08689937 -0.1446431 -0.17732869 0.09556282 0.03213162 -0.00010561173 -0.00023319264
0.01881406 -0.045554515 -0.008735655 0.05311753 0.12036111 0.049241487 0.00048244756 0.10159705
0.054169916 -0.049566384 0.011737249 -0.075850464 0.008244624 0.021643594 0.23793016 -0.22504376
0.043417927 -0.028558714 0.10668837 0.06510896 -0.03720246 -0.072002776 0.2098292 0.021942517
0.07924701 -0.031792052 0.018606171 -0.056539644 -0.004035204 0.10097585 -0.11668015 -0.09124998
-0.11162522 0.016718859 0.13059747 0.11957536 0.11354196 -0.20662785 -0.0228617 0.03629903
0.028439138 -0.07184844 0.1499169 -0.051349875 0.0008816858 0.16042161 -0.2882104 -0.16135086
0.032875292 0.013269949 0.035765585 -0.21315534 -0.2370112 0.28449628 0.07488954 0.022546982
-0.14269368 -0.19505502 0.05369536 -0.06491065 0.07349551 -0.12868527 0.08391348 -0.07935338
0.19540773 0.054497447 0.011672554 0.18519668 0.0073977974 0.11620483 -0.1849056 0.22416244
-0.1279294 0.034361176 0.19864087 -0.10034157 -0.112962216 -0.006026375 -0.2143098 0.021616776
-0.025278436 -0.06576187 0.08967218 -0.22830229 0.020942524 0.018157786 -0.009171545 0.01141747
0.03568235 0.00563741 -0.11428452 0.13462323 -0.117339864 -0.016073458 -0.040047646 0.17028238
-0.22305231 -0.02029926 0.18653043 0.023878286 -0.003834868 -0.12707101 0.20226152 -0.05201106
-0.16940032 0.10672469 0.12832059 -0.088137165 -0.01093678 0.0052115144 0.13405022 0.10646298
-0.0032664116 -0.039575227 0.1045754 0.15706864 0.004413528 -0.024045253 0.18945442 -0.18839858
-0.16696535 -0.0072750356 -0.0020520478 0.097575724 -0.086797126 0.13465296 0.096285716 -0.10524264
-0.058291025 -0.15182103 -0.03246896 -0.01285802 0.1967399 -0.10650407 -0.041682236 -0.14186043
00000000: 449c a2bb 9ab4 f93d c0a1 e43d 8385 17be
00000010: 93a0 6c3c 465a dfbd a5ec d1bd 8f9b 873d
00000020: 6d84 403d 6e96 703d afca 863d 9cec aa3d
00000030: 03ad 02be f639 db3d 3d22 d2bd d2aa 9c3d
00000040: 4245 33be 19c3 163e 6d58 5b3e 3e58 f9bd
00000050: 1ed7 1b3c 48e2 89bd 1b99 57bd fc6f ef3d
00000060: 4da9 273e a0a5 643b 004c 94b6 515b bfbd
00000070: bf3b debd 6da4 cd3d 654d 83bd 0ba8 103e
00000080: 0244 69bc 6cb6 18bd c806 0d3d 0622 b33d
00000090: e875 cfbc 69f1 17be 3d6f 4b3d 45b7 a73d
000000a0: e212 373a d663 70bc b11d 83bd 51e6 0d3d
000000b0: ffdf fc3d eda8 f83b 2643 7f3d 65f0 a83b
000000c0: 838d ce3d 8162 953c 6519 e9bd 294c a9bd
000000d0: bcb8 cbbc e50e bf3d e4b5 b4bc 8688 843d
000000e0: 9127 2abd 2c21 c2bd 99ef 9cbb bed0 a8bd
000000f0: 7e10 0dbd a5b0 1abd a275 dbbc 2584 4739
00000100: c98c a0bd f105 fabc c369 0f3e d495 383d
00000110: 1624 a53d 3fab 6f3d 4a6e 123d 31bc 00bc
00000120: 92fc 1cbe a1dc c13d 29f2 fbbb 0aa1 f53b
00000130: 5fb5 3dbd 16d1 babd 2667 ca3c 5ac7 11be
00000140: 7429 443c d936 19be c6c4 133c 6083 82bc
00000150: fbfb 04be ddbf 34bd 3ce9 7e39 ec8a 35bd
00000160: c3f1 843e 6c04 27bc c2bd 9f3c 804c 793d
00000170: 348e 6d3e 5d66 993b d82f 323e 0b9b fb3d
00000180: e052 5f3e 4887 f23c d392 8cbb d698 ee3b
00000190: 2f49 673d f0e5 3cbd 9e6f 1cbe 0041 983d
000001a0: 4979 a3bd f2b5 163e e6ab 133e e9d2 dcbd
000001b0: 8656 0b3d ebee 5b3d 71bb ae3d 1dc4 ba3d
000001c0: 5b1e d0bd 4cf8 b13d 521d 14be a795 35be
000001d0: 71b6 c33d 729c 033d de7b ddb8 2c85 74b9
000001e0: f21f 9a3c 5f97 3abd fe1f 0fbc c491 593d
000001f0: e37f f63d 71b1 493d 04f1 fc39 1d12 d03d
00000200: 46e1 5d3d 1f06 4bbd 974d 403c 7d57 9bbd
00000210: 7614 073c e84d b13c f7a3 733e df71 66be
00000220: ffd6 313d f7f3 e9bc 6f7f da3d d957 853d
00000230: 9b61 18bd 3176 93bd 77dd 563e cbc0 b33c
00000240: 424c a23d 6238 02bd f86b 983c 1d96 67bd
00000250: bf39 84bb 6dcc ce3d 01f6 eebd 45e1 babd
00000260: c39b e4bd fdf5 883c 58bb 053e ede3 f43d
00000270: b088 e83d 4096 53be 7648 bbbc 4bae 143d
00000280: 32f9 e83c 4625 93bd d183 193e 3f54 52bd
00000290: ef20 673a 9045 243e 5090 93be 2939 25be
000002a0: 3ea8 063d 336a 593c ef7e 123d 6545 5abe
000002b0: 10b3 72be 7fa9 913e b05f 993d 73b4 b83c
000002c0: 4b1e 12be 81bc 47be aaef 5b3d e0ef 84bd
000002d0: d084 963d 12c6 03be d5da ab3d 0684 a2bd
000002e0: f718 483e b738 5f3d 3d3e 3f3c 33a4 3d3e
000002f0: 3969 f23b ccfc ed3d e557 3dbe d78a 653e
00000300: edff 02be 4ebe 0c3d 8368 4b3e e27f cdbd
00000310: bc58 e7bd e678 c5bb 0774 5bbe aa15 b13c
00000320: b914 cfbc 29ae 86bd 0ca6 b73d 13c8 69be
00000330: a88f ab3c a3bf 943c 3f44 16bc 5710 3b3c
00000340: a827 123d 06ba b83b 010e eabd acda 093e
00000350: e24f f0bd 7cac 83bc 0009 24bd 815e 2e3e
00000360: d367 64be a24a a6bc d501 3f3e 659c c33c
00000370: 6952 7bbb e71e 02be a51d 4f3e 8d09 55bd
00000380: 4777 2dbe 7992 da3d 7966 033e 4281 b4bd
00000390: 2e30 33bc 5ac5 aa3b 7644 093e 4309 da3d
000003a0: 4b11 56bb a219 22bd a12b d63d 9ad6 203e
000003b0: 5b9f 903b 8dfa c4bc 5700 423e 8feb 40be
000003c0: f7f8 2abe 6c63 eebb a67b 06bb c8d5 c73d
000003d0: b1c2 b1bd 77e2 093e 7231 c53d 7489 d7bd
000003e0: 92c2 6ebd f976 1bbe 2cfe 04bd 72aa 52bc
000003f0: 2f76 493e ce1e dabd feba 2abd dc43 11be

fc1.bias f4 [64]
0.10409841 -0.0030375975 0.06618017 0.16059661 0.06456434 0.090145886 -0.15866238 0.08126992
-0.05849192 0.14417176 0.003122057 -0.10151398 -0.07466396 -0.0446042 0.11459359 0.121168844
-0.14196385 -0.14163615 -0.1648125 -0.13084555 0.07910686 0.039392237 -0.040487267 0.07821003
0.006738196 0.22166827 -0.021364203 0.0589575 0.16062462 -0.11857779 -0.06076889 0.11229796
0.047160562 0.09635266 -0.105808385 0.04361065 -0.10173374 -0.05892687 -0.052007142 0.12483512
-0.19023825 0.09746692 0.18921386 0.0932811 -0.009199047 0.018434994 -0.0015327405 -0.060502626
0.074024245 0.09468846 0.062553085 -0.08421997 0.07995288 0.051881578 -0.0068580518 -0.0952333
0.041228756 0.09434528 0.057891235 0.035495747 -0.16424525 0.07381724 0.002993509 0.039321993
00000000: 8c31 d53d 6e12 47bb 7889 873d 7073 243e
00000010: 4f3a 843d 689e b83d 6478 22be d870 a63d
00000020: 3995 6fbd c3a1 133e 6d9b 4c3b 90e6 cfbd
00000030: 6be9 98bd e5b2 36bd 0bb0 ea3d 5f27 f83d
00000040: f95e 11be 1109 11be 9cc4 28be 60fc 05be
00000050: c702 a23d c159 213d fad5 25bd 952c a03d
00000060: 16cc dc3b 02fd 623e fb03 afbc 6b7d 713d
00000070: c87a 243e ead8 f2bd cde8 78bd 79fc e53d
00000080: 6f2b 413d 8b54 c53d 11b2 d8bd 15a1 323d
00000090: c759 d0bd 4d5d 71bd 7105 55bd 8ea9 ff3d
000000a0: d1cd 42be bd9c c73d 47c1 413e 290a bf3d
000000b0: 9ab7 16bc fc04 973c 3de6 c8ba 9ad1 77bd
000000c0: 069a 973d 06ec c13d d51b 803d 857b acbd
000000d0: 56be a33d c781 543d 82b9 e0bb ad09 c3bd
000000e0: 7cdf 283d 1938 c13d 5c1f 6d3d fd63 113d
000000f0: e82f 28be 7e2d 973d bf2e 443b 1910 213d

fc2.weight f4 [1, 64]
0.13449536 -0.1949939 0.13641804 0.10599498 0.13066433 0.13572249 -0.16068195 0.18764836
-0.13566516 0.14678745 0.14091708 -0.18267654 -0.19883469 0.17551564 0.14957719 0.07905951
-0.18934765 -0.07432079 -0.16072814 -0.16627182 0.09940865 0.16719589 -0.23023379 0.17689207
-0.16658427 -0.17920199 -0.15877046 0.18541442 0.18541133 -0.09778505 -0.18280311 0.12430611
0.19047345 0.210538 -0.16587299 0.2142169 -0.14946331 -0.15937695 -0.18812546 0.18972588
-0.19180599 0.18651998 0.13825887 0.16187532 -0.14191423 0.15886663 -0.15089256 -0.12227814
0.13546559 0.14953716 0.14598428 0.15756956 0.18437794 0.13392922 -0.13249788 0.18210949
0.10564557 0.1822283 0.17557532 0.10565153 -0.09502737 0.1416561 0.15143447 0.15789498
00000000: 27b9 093e 7bac 47be 2cb1 0b3e e513 d93d
00000010: dfcc 053e d6fa 0a3e cf89 24be e426 403e
00000020: cfeb 0abe 734f 163e 914c 103e 8f0f 3bbe
00000030: 529b 4bbe 5fba 333e c32a 193e f4e9 a13d
00000040: 5ae4 41be 8035 98bd eb95 24be 2943 2abe
00000050: c396 cb3d 6635 2b3e 68c2 6bbe 3223 353e
00000060: 1195 2abe ba80 37be b994 22be 47dd 3d3e
00000070: 78dc 3d3e 8743 c8bd bd30 3bbe 3494 fe3d
00000080: 790b 433e 4697 573e 9cda 29be ad5b 5b3e
00000090: e90c 19be b633 23be f6a3 40be 8047 423e
000000a0: ca68 44be 18ff 3e3e bc93 0d3e a5c2 253e
000000b0: f751 11be efad 223e 9483 1abe f66c fabd
000000c0: 7eb7 0a3e 4520 193e e77c 153e ea59 213e
000000d0: 92cd 3c3e be24 093e 86ad 07be e97a 3a3e
000000e0: b45c d83d 0e9a 3a3e 04ca 333e d45f d83d
000000f0: b69d c2bd 4c0e 113e a311 1b3e 39af 213e

exp_avg f4 [11, 128]
-1.1280875e-05 1.4775058e-05 1.1652399e-05 4.3912098e-07 -1.7890541e-06 -1.0952413e-05 -8.544815e-06 5.4278403e-06
9.026521e-06 5.5792916e-06 -4.4969815e-06 3.392507e-06 -1.1010929e-05 1.4379915e-05 -1.6476997e-05 -2.0402242e-06
-1.1125625e-05 1.2699353e-05 1.5192974e-05 -6.095449e-06 -2.6506955e-06 -1.1258767e-05 1.0972593e-05 1.8638937e-05
1.6578699e-05 3.9905613e-06 -1.13520855e-05 -1.3955192e-05 -1.7989696e-05 8.652095e-06 -9.8388955e-06 1.6922391e-05
-6.8387717e-06 3.8865574e-06 1.4448951e-05 7.478071e-06 -1.6765094e-05 -1.6379354e-05 2.0143403e-05 -6.067532e-06
-6.432443e-06 -7.1355444e-06 -1.7314449e-05 4.0972313e-06 5.3547706e-07 3.9721717e-06 1.3346373e-06 -7.054362e-06
1.0017868e-05 -2.6100508e-06 -1.2048738e-05 -1.422431e-05 2.4056444e-06 8.7394665e-06 7.4239097e-07 -9.127832e-07
-1.5690719e-05 -1.8164747e-05 1.1259853e-05 2.9258213e-06 -9.621812e-06 -5.810062e-07 -6.918489e-06 2.0799466e-06
1.2468641e-05 1.8421699e-06 1.4649752e-06 -8.070683e-06 1.1385973e-05 1.3602063e-05 3.6348947e-06 -1.4121146e-05
-9.128057e-06 1.2019145e-05 -4.437043e-06 9.192484e-06 -1.1931275e-05 1.0215385e-06 6.19577e-06 -1.0224074e-05
-1.2220693e-05 -5.921418e-06 -1.5304411e-05 1.0212349e-06 4.378679e-06 -6.0905895e-06 1.7021726e-05 1.329977e-05
1.4993617e-05 1.7422632e-05 -1.999378e-06 -3.3726142e-06 5.175968e-06 -2.1439025e-06 4.9411193e-07 -1.7737241e-06
2.7475653e-06 -3.5636083e-06 -5.4685643e-06 1.0282233e-05 1.1750535e-05 -1.423004e-05 -1.3955392e-05 -1.2553566e-05
2.7423982e-07 1.2168675e-05 -7.2326645e-07 -3.5452672e-06 3.1321945e-06 1.4391959e-05 2.1161554e-06 8.620534e-06
-2.9105013e-06 2.7496808e-06 -1.7553075e-05 -8.232822e-06 -3.3207385e-07 -3.1259347e-07 -2.1316384e-05 1.3580364e-05
1.4280435e-05 2.9533496e-06 8.005393e-06 -4.922499e-07 -5.3564713e-06 -2.4615642e-06 -1.993375e-05 1.5472013e-05
2.0347765e-05 -2.1553511e-05 -1.4856962e-05 -5.8561204e-07 1.5364341e-07 1.4969617e-05 1.3996565e-05 -7.4566296e-06
-1.2358207e-05 -6.494978e-06 8.3072855e-06 -3.6415381e-06 1.1073591e-05 -2.1206986e-05 2.224779e-05 3.2349628e-06
1.1730654e-05 -1.8796398e-05 -2.2614608e-05 6.6160865e-06 2.1180008e-06 2.0875992e-05 -1.6700738e-05 -2.8560153e-05
-2.429666e-05 -6.6841712e-06 1.929154e-05 1.7952521e-05 2.4185276e-05 -1.4213516e-05 1.4731237e-05 -2.4680518e-05
1.4987929e-05 -5.5064193e-06 -2.5743622e-05 -8.901579e-06 2.8297924e-05 1.971961e-05 -3.174177e-05 1.0358242e-05
1.3532384e-05 1.1067927e-05 2.9545467e-05 -3.9863835e-06 5.1679845e-06 -6.864914e-06 1.9063322e-06 1.1892396e-05
-1.5306281e-05 4.0522054e-06 1.8662948e-05 1.769362e-05 -9.4405493e-07 -1.3614519e-05 1.1705781e-06 5.7352355e-07
2.969119e-05 3.0661547e-05 -1.8862125e-05 -7.895254e-06 1.5313633e-05 -1.8615626e-06 5.58599e-06 -2.3526013e-06
-1.8361909e-05 5.258096e-08 -2.4113624e-06 1.3050067e-05 -1.6186534e-05 -1.825593e-05 -7.813764e-06 2.2056101e-05
9.383035e-06 -1.9245954e-05 8.568108e-06 -1.0566742e-05 1.34611e-05 -5.462918e-06 -8.26562e-06 1.0038519e-05
2.3043223e-05 5.9340828e-06 2.5792822e-05 -5.320001e-06 -1.0718368e-05 3.9927836e-06 -2.3871577e-05 -2.4019511e-05
-2.251778e-05 -2.6960068e-05 2.855526e-06 2.2272275e-06 -2.311314e-06 8.6396517e-07 -1.3485503e-06 2.1766443e-06
2.2377567e-06 1.1709579e-05 5.2000496e-06 -1.2549261e-05 -1.8600414e-05 2.1522257e-05 1.7571683e-05 2.1466523e-05
-5.424329e-06 -1.9628133e-05 1.9771933e-06 4.9614364e-06 -7.1584245e-06 -2.2194334e-05 4.8810807e-07 -1.3095634e-05
2.2951076e-06 -2.1694304e-06 2.6039648e-05 6.616845e-06 5.1422217e-07 2.1844357e-06 3.2551736e-05 -2.1921209e-05
-2.1175216e-05 -5.735994e-06 -1.2556777e-05 5.8319984e-06 6.184652e-06 5.1687884e-06 3.198759e-05 -2.3900364e-05
00000000: fd42 3db7 64e2 7737 ac7e 4337 54c0 eb34
00000010: 6e1f f0b5 41c0 37b7 b35b 0fb7 cb20 b636
00000020: 9d70 1737 c035 bb36 c7e4 96b6 d4aa 6336
00000030: 94bb 38b7 4441 7137 1538 8ab7 c9ea 08b6
00000040: 32a8 3ab7 4e0f 5537 54e5 7e37 8287 ccb6
00000050: 9ae2 31b6 09e4 3cb7 ee16 3837 d05a 9c37
00000060: 7c12 8b37 a9e6 8536 d674 3eb7 1821 6ab7
00000070: 94e8 96b7 7728 1137 bc11 25b7 8ff4 8d37
00000080: 9a78 e5b6 4669 8236 c669 7237 24ec fa36
00000090: c4a2 8cb7 6566 89b7 a1f9 a837 b497 cbb6
000000a0: 44d6 d7b6 dc6d efb6 7f3e 91b7 f37a 8936
000000b0: b4bd 0f35 b248 8536 ca21 b335 82b4 ecb6
000000c0: 6a12 2837 5528 2fb6 f024 4ab7 f2a4 6eb7
000000d0: a870 2136 b99f 1237 b848 4735 fc05 75b5
000000e0: 909f 83b7 7f60 98b7 b3e8 3c37 3a59 4436
000000f0: 5e6d 21b7 71f6 1bb5 5e25 e8b6 3695 0b36
00000100: 6830 5137 7a40 f735 2aa0 c435 5267 07b7
00000110: 6206 3f37 6a34 6437 04ef 7336 dce9 6cb7
00000120: b524 19b7 d6a5 4937 e9e1 94b6 6b39 1a37
00000130: 702c 48b7 cc1b 8935 42e5 cf36 1088 2bb7
00000140: 7a07 4db7 98b0 c6b6 f961 80b7 5d11 8935
00000150: 91ec 9236 c45d ccb6 e1c9 8e37 1422 5f37
00000160: 188d 7b37 d126 9237 0d2d 06b6 1255 62b6
00000170: 3aad ad36 f7df 0fb6 1da3 0435 b210 eeb5
00000180: d062 3836 5326 6fb6 9c7e b7b6 db81 2c37
00000190: 2a24 4537 8ebd 6eb7 f421 6ab7 289d 52b7
000001a0: 3c3b 9334 1028 4c37 7e26 42b5 3aeb 6db6
000001b0: b132 5236 fe74 7137 4603 0e36 e9a0 1037
000001c0: 0852 43b6 2887 3836 f13e 93b7 b41f 0ab7
000001d0: e247 b2b4 85d2 a7b4 96d0 b2b7 38d7 6337
000001e0: 0096 6f37 2932 4636 e74e 0637 2823 04b5
000001f0: bdbb b3b6 5a31 25b6 6737 a7b7 e5c9 8137
00000200: 7eb0 aa37 d0cd b4b7 2a42 79b7 f432 1db5
00000210: 2ef9 2434 0426 7b37 cad2 6a37 f633 fab6
00000220: 1856 4fb7 70ef d9b6 855f 0b37 2661 74b6
00000230: b6c8 3937 a8e5 b1b7 c4a0 ba37 3d18 5936
00000240: c6ce 4437 f5ac 9db7 80b4 bdb7 c0ff dd36
00000250: fa22 0e36 da1e af37 9018 8cb7 7694 efb7
00000260: aed0 cbb7 9848 e0b6 44d4 a137 bf98 9637
00000270: 7ce1 ca37 9676 6eb7 2e26 7737 0209 cfb7
00000280: aa74 7b37 c8c3 b8b6 02f4 d7b7 fe57 15b7
00000290: 5461 ed37 8a6b a537 7722 05b8 50c8 2d37
000002a0: 2609 6337 62b0 3937 68d8 f737 c6c2 85b6
000002b0: a668 ad36 2a59 e6b6 13dd ff35 7485 4737
000002c0: fd65 80b7 2ef8 8736 608e 9c37 c26c 9437
000002d0: f66a 7db5 ea69 64b7 c21c 9d35 3df4 1935
000002e0: 5811 f937 969a 0038 1b3a 9eb7 dc75 04b7
000002f0: c775 8037 ceda f9b5 4a6f bb36 62e1 1db6
00000300: e607 9ab7 60d5 6133 e4d2 21b6 9cf1 5a37
00000310: 51c8 87b7 5024 99b7 dc17 03b7 1e05 b937
00000320: d46b 1d37 5f72 a1b7 bebf 0f37 d047 31b7
00000330: fcd6 6137 1c4e b7b6 91ac 0ab7 1c6b 2837
00000340: f24c c137 621d c736 aa5d d837 7682 b2b6
00000350: 0ad3 33b7 c0f9 8536 d23f c8b7 827d c9b7
00000360: 90e4 bcb7 4e28 e2b7 90a1 3f36 7a77 1536
00000370: 121c 1bb6 3ceb 6735 d6ff b4b5 7712 1236
00000380: 5e2c 1636 4274 4437 167c ae36 aa8a 52b7
00000390: 1608 9cb7 b28a b437 e766 9337 0213 b437
000003a0: a202 b6b6 18a7 a4b7 ecaf 0436 6a7a a636
000003b0: 6632 f0b6 f82d bab7 8806 0335 52b5 5bb7
000003c0: a605 1a36 8896 11b6 b86f da37 4406 de36
000003d0: 1409 0a35 5298 1236 2988 0838 70e3 b7b7
000003e0: 6ea1 b1b7 d077 c0b6 f2aa 52b7 7cb0 c336
000003f0: c285 cf36 8e6f ad36 6a2a 0638 a47d c8b7

exp_avg_sq f4 [11, 128]
8.245548e-07 1.7419661e-06 1.0108586e-06 7.0205237e-09 3.7981756e-08 8.448053e-07 4.0661794e-07 2.2979872e-07
6.379301e-07 2.5663857e-07 1.5105385e-07 1.4398401e-07 1.0267494e-06 1.586455e-06 1.9231816e-06 3.9374733e-08
9.761817e-07 1.2405393e-06 1.7220092e-06 3.3194922e-07 3.7058996e-08 7.7786325e-07 8.7034357e-07 2.5189413e-06
2.0905418e-06 2.2817686e-07 7.921284e-07 1.6419709e-06 2.3516604e-06 5.3632635e-07 8.023002e-07 2.133194e-06
2.678248e-07 9.9292066e-08 1.767938e-06 5.495657e-07 2.1953936e-06 2.0666077e-06 3.3978893e-06 3.5473352e-07
3.025369e-07 4.2023402e-07 2.3510402e-06 7.89594e-08 2.1595412e-08 1.919754e-07 1.7101087e-08 3.304988e-07
6.582923e-07 6.196993e-08 1.2677547e-06 1.6700398e-06 5.0464596e-08 5.5687894e-07 6.707282e-09 2.65975e-08
2.0136538e-06 2.4059073e-06 9.456782e-07 5.7806325e-08 7.9860007e-07 4.066547e-09 4.359877e-07 6.04082e-08
1.061644e-06 5.4187222e-08 3.5238095e-08 5.7730426e-07 1.0217622e-06 1.6776967e-06 4.9706852e-08 1.3999235e-06
7.5301426e-07 1.1677139e-06 1.3004103e-07 5.542893e-07 1.0408423e-06 4.425125e-09 2.536665e-07 7.6523713e-07
9.624205e-07 2.8202177e-07 1.76111e-06 6.754539e-09 1.0656693e-07 2.559881e-07 2.1247886e-06 1.1739676e-06
1.6713939e-06 2.2829843e-06 7.625701e-09 5.751455e-08 2.3311439e-07 8.1231114e-08 1.8328431e-09 4.2676376e-08
4.5358913e-08 4.330096e-08 2.751275e-07 9.424126e-07 1.0251259e-06 1.5802532e-06 1.5014152e-06 1.0076751e-06
9.423302e-09 9.663529e-07 1.7266141e-09 4.9543853e-08 4.1726867e-08 1.5718038e-06 9.1116625e-08 5.504041e-07
1.0790532e-07 1.0994887e-07 2.313178e-06 6.0483546e-07 3.015874e-09 5.8292354e-10 3.1143893e-06 1.3461275e-06
1.5198109e-06 4.739602e-08 4.8348255e-07 2.94752e-10 1.8530939e-07 7.445975e-08 2.9382036e-06 1.7910435e-06
5.847384e-07 6.457578e-07 3.3003286e-07 8.134582e-09 7.655724e-11 3.2154622e-07 2.8254365e-07 1.0327829e-07
2.6045063e-07 5.6242055e-08 7.22912e-08 1.4996184e-08 1.5693722e-07 6.2241617e-07 7.6054056e-07 1.0838709e-08
1.9393183e-07 4.848703e-07 8.276297e-07 7.0621674e-08 5.375539e-09 5.939033e-07 3.6148074e-07 1.2821571e-06
8.320631e-07 7.458394e-08 5.510233e-07 4.86068e-07 9.561107e-07 3.5005976e-07 3.078479e-07 8.6945073e-07
2.9411294e-07 2.788556e-08 1.0057706e-06 1.2395184e-07 1.1241166e-06 5.9554435e-07 1.6072873e-06 1.491403e-07
2.6663645e-07 1.5892063e-07 1.2699038e-06 3.0552247e-08 2.3217885e-08 7.974055e-08 4.0899084e-09 1.7930758e-07
3.3548903e-07 1.5398241e-08 5.821411e-07 5.6353906e-07 7.973831e-10 2.9435986e-07 5.6817417e-09 1.370408e-09
1.3168732e-06 1.2813671e-06 5.700548e-07 7.316395e-08 3.068985e-07 7.2660505e-10 4.9937313e-08 6.9257977e-09
4.4782198e-07 1.6223291e-10 9.878825e-09 2.5194814e-07 3.8974596e-07 5.687936e-07 8.0326764e-08 6.6304307e-07
1.6718298e-07 5.215374e-07 9.200987e-08 1.6927302e-07 2.9219478e-07 4.991188e-08 6.6112186e-08 1.7917897e-07
7.074738e-07 6.369362e-08 9.116047e-07 2.6500249e-08 1.4486372e-07 2.3012594e-08 8.1854233e-07 8.313596e-07
8.5297444e-07 1.0563855e-06 1.2615357e-08 6.1136e-09 4.21868e-09 2.7220377e-09 1.311151e-09 3.900916e-09
2.931739e-09 1.6889325e-07 4.340569e-08 2.5491155e-07 4.7020745e-07 7.161836e-07 4.494621e-07 6.3485186e-07
4.8414243e-08 5.803066e-07 5.169579e-09 4.0534214e-08 8.454316e-08 6.641717e-07 2.6373093e-10 3.1571102e-07
8.3989615e-09 9.131562e-09 9.616675e-07 7.818646e-08 5.8643366e-09 9.70492e-09 1.5628066e-06 6.919546e-07
6.044445e-07 6.3117284e-08 2.195215e-07 5.2039397e-08 5.223536e-08 3.6816086e-08 1.4429465e-06 8.080185e-07
00000000: f956 5d35 80cd e935 d6ac 8735 2e39 f131
00000010: 6221 2333 94c6 6235 254d da34 97be 7634
00000020: 393e 2b35 23c8 8934 5e31 2234 069a 1a34
00000030: d7ce 8935 2eee d435 0210 0136 fa1c 2933
00000040: 5905 8335 9b80 a635 c91f e735 c136 b234
00000050: cc2a 1f33 5bce 5035 8ea1 6935 150b 2936
00000060: 3c4b 0c36 c700 7534 a6a2 5435 b161 dc35
00000070: 38d1 1d36 11f8 0f35 a65d 5735 fe27 0f36
00000080: 8fc9 8f34 643a d533 e349 ed35 de85 1335
00000090: 9354 1336 0db0 0a36 4b07 6436 3472 be34
000000a0: 5b6c a234 869c e134 90c6 1d36 6490 a933
000000b0: d080 b932 cc21 4e34 b0e5 9232 696f b134
000000c0: 81b5 3035 5414 8533 b827 aa35 2126 e035
000000d0: 69be 5833 6e7c 1535 e075 e631 8578 e432
000000e0: 4f22 0736 2c75 2136 83da 7d35 ba46 7833
000000f0: 615f 5635 bab9 8b31 b111 ea34 c2b9 8133
00000100: cf7d 8e35 7bbb 6833 b258 1733 0cf8 1a35
00000110: 7b23 8935 382d e135 437d 5533 01e5 bb35
00000120: bf22 4a35 58ba 9c35 68a1 0b34 78ca 1435
00000130: 12b3 8b35 d00b 9831 a92f 8834 b26a 4d35
00000140: 842c 8135 c768 9734 475f ec35 8e15 e831
00000150: cad9 e433 bd6e 8934 9797 0e36 3891 9d35
00000160: a854 e035 5f35 1936 3002 0332 eb05 7733
00000170: ff4d 7a34 4771 ae33 6fe7 fb30 2c4b 3733
00000180: a7d0 4233 e9f9 3933 3cb5 9334 1afa 7c35
00000190: 0f97 8935 1619 d435 3c84 c935 743f 8735
000001a0: 1fe4 2132 a2b3 8135 d54d ed30 0bca 5433
000001b0: 2d37 3333 c4f6 d235 e5ab c333 7bbf 1335
000001c0: 94b9 e733 081d ec33 183c 1b36 fa5b 2235
000001d0: d13f 4f31 993b 2030 cd00 5136 97ac b435
000001e0: 4efc cb35 7a90 4b33 abc8 0135 a80a a22f
000001f0: 75f9 4634 aee6 9f33 f42d 4536 c963 f035
00000200: ebf6 1c35 2358 2d35 5f2f b134 45c0 0b32
00000210: e559 a82e faa0 ac34 81b0 9734 d7c9 dd33
00000220: 10d4 8b34 cb8e 7133 823e 9b33 f5d0 8032
00000230: 9382 2834 1d14 2735 f327 4c35 2535 3a32
00000240: 933b 5034 0928 0235 482a 5e35 ada8 9733
00000250: beb3 b831 b96c 1f35 8911 c234 9516 ac35
00000260: f15a 5f35 f42a a033 08ea 1335 577a 0235
00000270: b753 8035 d9ef bb34 4b46 a534 3364 6935
00000280: 93e6 9d34 ff88 ef32 04fe 8635 9f17 0534
00000290: 5ae0 9635 7fdd 1f35 f9b9 d735 6023 2034
000002a0: 3c26 8f34 c5a3 2a34 9071 aa35 8d38 0333
000002b0: ab70 c732 d53d ab33 3787 8c31 b187 4034
000002c0: 431d b434 1745 8432 6f44 1c35 1c46 1735
000002d0: d92e 5b30 8308 9e34 2139 c331 f258 bc30
000002e0: 6bbf b035 70fb ab35 de05 1935 4f1e 9d33
000002f0: cfc3 a434 49ba 4730 a87a 5633 f6f7 ed31
00000300: 2f6c f034 8160 322f 88b7 2932 7d43 8734
00000310: 473e d134 33af 1835 1b80 ac33 f9fb 3135
00000320: e882 3334 c7ff 0b35 f696 c533 6ac1 3534
00000330: f2de 9c34 b15e 5633 8ff9 8d33 5764 4034
00000340: 3be9 3d35 f0c7 8833 ffb4 7435 aaa2 e332
00000350: d68b 1b34 3bad c532 cdb9 5b35 992a 5f35
00000360: f5f7 6435 21c9 8d35 edba 5832 cb0f d231
00000370: e7f3 9031 980e 3b31 0634 b430 d208 8631
00000380: b377 4931 0659 3534 106d 3a33 c7da 8834
00000390: d270 fc34 c33f 4035 9a4d f134 b06a 2a35
000003a0: 06f0 4f33 5ec6 1b35 19a0 b131 d717 2e33
000003b0: 188e b533 8849 3235 d4fc 902f fe7e a934
000003c0: 064b 1032 09e1 1c32 a512 8135 76e7 a733
000003d0: 407f c931 b1ba 2632 a0c1 d135 c2be 3935
000003e0: 1c41 2235 188b 8733 9cb5 6b34 ec81 5f33
000003f0: 6359 6033 b71f 1e33 44ab c135 9ce6 5835

exp_avg f4 [64, 128]
0.00043524726 -0.00018387384 -0.00013534729 -0.00013523563 -0.00012840318 0.000353657 7.404058e-05 0.00014961406
-0.0003182054 -0.00035961333 5.3949552e-05 0.00018450411 -0.00035267207 -0.00021544789 -0.00025779734 0.00023705277
-3.656566e-05 0.000101118494 -0.0006868652 0.0003532619 -7.22064e-05 0.00040636584 0.00019693126 -0.00035908388
-7.200762e-05 0.00068775355 0.00014823367 0.00048259943 0.00030370313 2.7491551e-05 0.00022693732 0.00011241203
0.00018656954 -0.00019958802 -7.4539203e-06 0.00025633152 3.677205e-05 -0.0001380799 0.00011559743 0.00035080704
0.00010895902 -3.695255e-05 -1.3044497e-05 -0.000113803966 0.00037247303 -0.00024885064 -0.00035889773 0.00012745938
-0.00032903245 0.00023684389 -0.0002797724 0.0002957133 -4.1151503e-05 -0.0005466725 8.1405226e-05 -3.060825e-05
-0.00023864758 -0.00015587988 -0.0005814689 0.00010592124 -0.0002533091 0.00018952206 -0.00015035617 -2.5889563e-05
-0.0005222618 2.8393799e-05 0.00012333131 0.0003521591 -0.00028343164 -0.0003866353 2.7858609e-05 6.2992796e-05
0.00041639333 -0.00036363263 -0.0002381425 -0.0004937391 0.0005166895 0.00024616922 -0.00014262873 6.5260334e-05
0.00035933545 0.00019964675 0.0002748374 0.00011216579 4.5285688e-05 -0.0002522395 -0.00037671195 -0.00041081433
-0.00044798892 4.3582695e-06 0.00011960235 0.00033053325 0.0001650925 0.00026363204 5.445158e-05 -0.00031166326
0.000108730295 5.7583253e-05 -0.0005555353 0.00014203863 -0.00010584037 0.0005302377 0.0005223411 4.7903595e-05
-0.00015513404 -0.0006292552 0.00074202765 0.00035797805 -0.00051784806 0.00037128798 -2.9352006e-05 -0.00048875663
-0.00039839823 0.00014518785 3.237881e-05 -0.0001315644 0.00047016196 -0.00030593155 0.0006798697 -0.00096556847
-0.0003222893 -0.00026817512 4.6985544e-05 -0.0003794402 -4.6530986e-05 4.823876e-06 -3.0095172e-05 0.000104641076
-3.4110788e-05 1.9707295e-05 1.3926814e-05 1.8065712e-05 3.4279929e-06 -2.5433248e-05 -1.9046211e-06 -1.0423321e-05
9.234522e-06 2.8689039e-05 -2.1969141e-05 -1.8502435e-05 1.703047e-05 1.1721728e-05 5.2560026e-06 -1.9647854e-05
3.4229924e-06 -1.2300633e-05 3.0501404e-05 -7.0847527e-06 1.2847524e-05 -3.684904e-05 7.701034e-06 9.355321e-06
1.3760291e-06 -2.932911e-05 -1.4487057e-05 -3.0710737e-05 -1.4978392e-05 4.7908416e-06 -1.0494012e-05 -9.514717e-06
-6.049275e-06 2.7320095e-05 -1.0422689e-05 -1.879964e-05 -1.1165863e-05 1.02880285e-05 8.168869e-06 -2.1047656e-05
-4.2891643e-06 1.1092245e-05 8.187117e-06 2.2454618e-05 -2.3009474e-05 9.243208e-06 2.1406853e-05 -2.2822387e-06
2.8807302e-05 -1.4578908e-05 2.6663034e-05 -2.0048334e-05 -1.7139491e-06 2.707458e-05 -1.1229704e-05 7.655117e-07
1.2863937e-05 -1.348053e-06 2.858276e-05 -1.1560379e-06 5.5642513e-06 -2.879201e-05 7.366796e-06 -1.2471633e-06
5.5341538e-05 -1.8842411e-06 -2.5192656e-05 -3.2959477e-05 7.322664e-06 2.2863675e-05 -6.6451958e-06 -6.3194566e-06
-3.1703974e-05 2.7155977e-05 5.3299955e-06 4.7667832e-05 -2.3243012e-05 -2.1200547e-05 6.69769e-06 -2.592881e-06
-1.7429913e-05 2.467937e-06 -2.4587425e-05 -2.6336296e-05 4.894101e-06 1.7751663e-05 2.3091221e-05 3.2448163e-05
1.394114e-05 4.0496852e-06 -1.8394778e-05 -1.5423391e-05 -1.4029893e-05 -1.8812085e-05 -2.100943e-05 1.1150047e-05
-1.4153589e-05 2.7437636e-06 2.7793187e-05 3.9407428e-06 3.015697e-06 -4.1590905e-05 -3.6659047e-05 -8.858756e-06
1.5936708e-05 1.3978894e-05 -7.125134e-05 -1.8969466e-05 1.9089965e-05 -8.639912e-06 -1.9849285e-06 3.0243902e-05
2.5185967e-05 -1.6407192e-05 9.763808e-06 1.3167039e-05 -3.6572255e-05 4.4084118e-06 -6.9188965e-05 7.354331e-05
4.663756e-06 1.9696914e-05 1.5415508e-06 2.2837521e-05 -2.2280681e-05 -1.1034907e-05 -7.663242e-06 -1.1647347e-05
00000000: e631 e439 42ce 40b9 03ec 0db9 0ace 0db9
00000010: f7a3 06b9 0a6b b939 3c46 9b38 b8e1 1c39
00000020: ced4 a6b9 7c8a bcb9 e447 6238 7277 4139
00000030: d8e6 b8b9 dae9 61b9 f928 87b9 5e91 7839
00000040: 145e 19b8 940f d438 be0e 34ba 0236 b939
00000050: 846d 97b8 800d d539 557f 4e39 6c43 bcb9
00000060: cc02 97b8 5c4a 343a 2c6f 1b39 6605 fd39
00000070: 583a 9f39 a89d e637 06f6 6d39 c0be eb38
00000080: e1a1 4339 8048 51b9 b01c fab6 3c64 8639
00000090: b03b 1a38 8ac9 10b9 e66c f238 86ec b739
000000a0: ee80 e438 80fd 1ab8 b0d9 5ab7 0aaa eeb8
000000b0: 7c48 c339 2b78 82b9 702a bcb9 9ea6 0539
000000c0: fd81 acb9 4c59 7839 6aae 92b9 f809 9b39
000000d0: 179a 2cb8 924e 0fba 19b8 aa38 5c61 00b8
000000e0: 793d 7ab9 b073 23b9 b86d 18ba 0822 de38
000000f0: 92ce 84b9 71ba 4639 eda8 1db9 6a2d d9b7
00000100: 65e8 08ba 382f ee37 7f52 0139 ffa1 b839
00000110: 8d99 94b9 50b5 cab9 e8b1 e937 001b 8438
00000120: 5e4f da39 f2a5 beb9 e4b5 79b9 456e 01ba
00000130: 7272 073a 4610 8139 9c8e 15b9 60dc 8838
00000140: 3065 bc39 4458 5139 0d18 9039 8d3a eb38
00000150: 23f1 3d38 033f 84b9 6c81 c5b9 9162 d7b9
00000160: 0ee0 eab9 403d 9236 06d3 fa38 6c4b ad39
00000170: ae1c 2d39 1838 8a39 f062 6438 bc66 a3b9
00000180: 2206 e438 8c85 7138 58a1 11ba 34f0 1439
00000190: 9ef6 ddb8 a6ff 0a3a b8ed 083a 18ec 4838
000001a0: 7aab 22b9 9af4 24ba a284 423a 00af bb39
000001b0: 32c0 07ba 6ea9 c239 f438 f6b7 e71f 00ba
000001c0: 1be0 d0b9 913d 1839 7cce 0738 8df4 09b9
000001d0: 1280 f639 7065 a0b9 4939 323a 341e 7dba
000001e0: f0f8 a8b9 db99 8cb9 5812 4538 9aef c6b9
000001f0: 442a 43b8 c8dc a136 e474 fcb7 c072 db38
00000200: 2e12 0fb8 1851 a537 36a7 6937 d28b 9737
00000210: 780c 6636 7c59 d5b7 48a2 ffb5 d3df 2eb7
00000220: f8ed 1a37 3ea9 f037 5f4a b8b7 ad35 9bb7
00000230: a8dc 8e37 70a8 4437 b85c b036 72d1 a4b7
00000240: 90b6 6536 d15e 4eb7 44dd ff37 90b9 edb6
00000250: b28b 5737 5b8e 1ab8 b033 0137 ccf4 1c37
00000260: 00b0 b835 c907 f6b7 700d 73b7 67cf 00b8
00000270: b44b 7bb7 04c1 a036 700f 30b7 66a1 1fb7
00000280: e0fa cab6 752d e537 1cdd 2eb7 ebb3 9db7
00000290: 0455 3bb7 bf9a 2c37 060d 0937 7f8f b0b7
000002a0: a4eb 8fb6 d418 3a37 665b 0937 ed5c bc37
000002b0: 7804 c1b7 4713 1b37 de92 b337 9028 19b6
000002c0: 36a7 f137 ef97 74b7 6eaa df37 782d a8b7
000002d0: d80a e6b5 381e e337 3667 3cb7 907d 4d35
000002e0: 30d2 5737 c0ee b4b5 02c5 ef37 2929 9bb5
000002f0: 8eb4 ba36 5f86 f1b7 4c30 f736 3464 a7b5
00000300: 861e 6838 08e6 fcb5 d154 d3b7 f83d 0ab8
00000310: 34b5 f536 5ecb bf37 ccf9 deb6 b80b d4b6
00000320: e2f9 04b8 04cd e337 50d8 b236 f2ee 4738
00000330: fdf9 c2b7 d4d7 b1b7 b8bc e036 5b01 2eb6
00000340: 7436 92b7 d69e 2536 1841 ceb7 c4ec dcb7
00000350: 0238 a436 68e9 9437 05b4 c137 f318 0838
00000360: bee4 6937 88e2 8736 7c4e 9ab7 7b61 81b7
00000370: ee61 6bb7 a5ce 9db7 683d b0b7 1611 3b37
00000380: 3475 6db7 8021 3836 6a25 e937 b93a 8436
00000390: 4861 4a36 e571 2eb8 5ac2 19b8 11a0 14b7
000003a0: d2af 8537 e486 6a37 c66c 95b8 9e20 9fb7
000003b0: 6323 a037 24f4 10b7 d034 05b6 49b4 fd37
000003c0: 7446 d337 2da2 89b7 3ccf 2337 00e8 5c37
000003d0: 2965 19b8 f8eb 9336 8b19 91b8 443b 9a38
000003e0: 5c7d 9c36 cd3a a537 48e7 ce35 3493 bf37
000003f0: 66e7 bab7 9122 39b7 6091 00b7 f968 43b7

exp_avg_sq f4 [64, 128]
0.0001003713 2.8169588e-05 1.597918e-05 1.3304569e-05 2.1248152e-06 9.514198e-05 5.8073456e-05 2.0850277e-05
1.01862715e-05 9.114629e-05 3.431817e-05 7.366817e-06 1.0854298e-05 9.0773385e-05 7.649665e-05 8.7034685e-05
3.3440727e-05 1.7347997e-05 0.00011425291 0.0003328446 4.2325326e-05 0.00014562879 5.15924e-06 4.35654e-05
7.808642e-05 8.716076e-05 3.174495e-05 7.317346e-05 3.9131413e-05 5.6845714e-05 7.360902e-05 9.018367e-06
4.3350778e-05 0.00012503569 1.5298261e-06 1.5572052e-05 0.00014133604 8.15774e-06 3.651795e-05 1.8160361e-05
9.695532e-06 0.00039671746 1.3586904e-05 1.51044715e-05 1.3620506e-05 4.4617095e-06 2.241258e-05 0.0001473036
2.2259992e-05 5.1023948e-05 2.7044267e-05 9.665069e-06 1.6944558e-05 0.00016800562 3.2496337e-06 8.81618e-06
6.0955135e-06 1.617755e-06 4.564356e-05 6.794637e-06 9.352945e-06 6.194114e-05 1.5815487e-05 3.1213588e-06
0.00021863607 9.104519e-06 6.1525657e-06 1.7243121e-05 0.00012220653 2.9562474e-05 3.155435e-05 0.0001381257
1.8221546e-05 0.000117240066 1.15884495e-05 0.000111772424 8.830401e-05 8.050216e-06 4.3471446e-05 1.3633749e-05
7.731891e-05 1.5437576e-05 1.0254138e-05 2.5696449e-05 6.7107163e-07 1.924233e-05 6.455843e-05 9.105638e-06
9.807045e-05 1.2862417e-05 2.3317012e-05 0.000111247355 3.2941964e-06 4.0381447e-06 5.716439e-06 9.572244e-06
3.6952663e-06 8.3575935e-05 4.6404155e-05 1.9350411e-05 4.1826726e-05 3.011172e-05 0.0001316037 2.4053593e-06
1.3891768e-05 6.201767e-05 4.6349174e-05 0.00023870122 0.000106985564 1.7123588e-05 9.41498e-06 2.484804e-05
2.2745671e-05 4.117206e-05 5.177572e-05 3.7080738e-06 4.014337e-05 2.8840062e-05 3.7822796e-05 0.00031901657
8.234884e-05 1.6679496e-05 3.525952e-05 4.2532247e-05 2.7200638e-05 1.2049333e-05 3.4375885e-06 9.822388e-05
5.173109e-07 2.5337079e-07 8.7191204e-08 3.457992e-08 1.4880487e-08 4.4735512e-07 2.2890917e-07 6.997393e-08
2.1174696e-08 5.2457216e-07 4.1937318e-07 2.8291923e-08 5.7588814e-08 4.1282686e-07 4.5482827e-07 4.7232038e-07
1.3820184e-07 5.49574e-08 2.7006885e-07 1.0266785e-06 1.1641107e-07 8.70309e-07 1.2010531e-07 5.545233e-08
3.003151e-07 2.0718619e-07 1.6573965e-07 3.7027112e-07 1.1857584e-07 3.0424948e-07 2.6276732e-07 3.5460673e-08
1.207133e-07 7.878827e-07 3.514696e-08 6.112243e-08 7.909506e-07 2.5521903e-08 5.5856436e-08 7.792759e-08
4.2557662e-08 1.5064336e-06 3.730459e-08 1.5813804e-07 4.7897682e-08 1.7748922e-08 8.9833215e-08 5.517041e-07
1.8267342e-07 2.061172e-07 2.260011e-07 3.6854047e-08 4.3888466e-08 5.664286e-07 1.548333e-08 3.47778e-08
1.9470253e-08 3.471988e-08 1.1822675e-07 1.5501131e-08 1.00170965e-07 1.5460903e-07 7.3582925e-08 2.1279615e-08
1.5615007e-06 4.239873e-08 3.2609034e-08 1.3133257e-07 3.413187e-07 1.1877393e-07 1.2013015e-07 6.209328e-07
8.39255e-08 6.372949e-07 4.4022812e-08 8.5991394e-07 2.4091278e-07 6.005663e-08 1.7149924e-07 3.3332373e-08
2.410481e-07 7.6967176e-08 1.0932992e-07 6.9666264e-08 2.4336185e-08 5.6546003e-08 2.7701898e-07 4.4540982e-08
2.2338119e-07 6.8318556e-08 1.8914423e-07 4.110421e-07 1.1175233e-08 1.9549935e-08 1.217817e-08 2.081264e-08
8.244819e-09 2.6809056e-07 1.3415018e-07 2.9598999e-08 1.7241577e-07 2.024193e-07 6.4367055e-07 2.6642917e-08
3.536969e-08 6.099862e-08 4.6018147e-07 8.947651e-07 2.4172232e-07 1.548545e-07 3.24881e-08 1.0325341e-07
1.1327872e-07 2.2210806e-07 1.196548e-07 1.0182357e-08 2.6540354e-07 4.125439e-08 4.5195148e-07 1.7551771e-06
2.0657998e-07 9.892199e-08 1.874248e-07 2.0512469e-07 3.394126e-07 2.398801e-08 5.961036e-08 3.4482613e-07
00000000: 6e7e d238 bb4d ec37 070b 8637 b036 5f37
00000010: 0c98 0e36 f686 c738 e693 7338 a1e7 ae37
00000020: b4e5 2a37 cb25 bf38 dbf0 0f38 7a30 f736
00000030: db1a 3637 975d be38 d46c a038 6486 b638
00000040: b542 0c38 8a86 9137 109b ef38 a581 ae39
00000050: 7986 3138 eeb3 1839 891d ad36 feb9 3638
00000060: 54c2 a338 14ca b638 e125 0538 b474 9938
00000070: 0921 2438 9f6d 6e38 8b5e 9a38 974d 1737
00000080: 8bd3 3538 031c 0339 6d54 cd35 baa0 8237
00000090: 9b33 1439 3add 0837 da2a 1938 1457 9837
000000a0: fea9 2237 84fe cf39 4ff3 6337 3669 7d37
000000b0: a183 6437 cbb5 9536 a602 bc37 8275 1a39
000000c0: f8ba ba37 8c02 5638 1fdd e237 2827 2237
000000d0: 2924 8e37 aa2a 3039 4814 5a36 34e9 1337
000000e0: 1088 cc36 a321 d935 6671 3f38 7dfd e336
000000f0: 98ea 1c37 65e6 8138 80ab 8437 8978 5136
00000100: ac41 6539 9dbf 1837 2372 ce36 52a5 9037
00000110: 9124 0039 eefc f737 3a59 0438 d6d5 1039
00000120: 79da 9837 c8de f538 036c 4237 5d67 ea38
00000130: db2f b938 6a0f 0737 1c55 3638 82bc 6437
00000140: 4626 a238 f17f 8137 3009 2c37 b48e d737
00000150: b123 3435 976a a137 8b63 8738 6bc4 1837
00000160: 2cab cd38 a9cb 5737 e798 c337 784d e938
00000170: dd11 5d36 667f 8736 d6cf bf36 7a98 2037
00000180: 31fc 7736 7d45 af38 15a2 4238 b152 a237
00000190: 1b6f 2f38 6d98 fc37 19ff 0939 c26b 2136
000001a0: b010 6937 7c0f 8238 0c67 4238 df4b 7a39
000001b0: 705d e038 a0a4 8f37 08f5 1d37 c270 d037
000001c0: f5cd be37 2ab0 2c38 c229 5938 39d8 7836
000001d0: 9e5f 2838 90ed f137 eba3 1e38 ae41 a739
000001e0: b2b2 ac38 f2ea 8b37 9fe3 1338 a764 3238
000001f0: ed2c e437 7e27 4a37 52b1 6636 8bfd cd38
00000200: 56dd 0a35 0407 8834 df3d bb33 0685 1433
00000210: 13a5 7f32 052c f034 13ca 7534 9344 9633
00000220: a6e3 b532 53d0 0c35 3626 e134 9906 f332
00000230: 9257 7733 7ea2 dd34 1f2f f434 3893 fd34
00000240: a264 1434 4d0a 6c33 fbfd 9034 68cc 8935
00000250: aafd f933 2e9f 6935 4cf6 0034 7b2a 6e33
00000260: fe3a a134 e876 5e34 2bf6 3134 adc9 c634
00000270: c2a3 fe33 bb57 a334 7712 8d34 6c4d 1833
00000280: 6b9d 0134 e37e 5335 7ef4 1633 6942 8333
00000290: b651 5435 423b db32 cde6 6f33 2559 a733
000002a0: a5c8 3633 aa30 ca35 d538 2033 a7cc 2934
000002b0: 0fb8 4d33 4b76 9832 55ea c033 d118 1435
000002c0: e324 4434 1151 5d34 b6aa 7234 7449 1e33
000002d0: e17f 3c33 ad0c 1835 3400 8532 985e 1533
000002e0: 8a3f a732 e91e 1533 d8e3 fd33 5927 8532
000002f0: 921d d733 9b02 2634 a404 9e33 5eca b632
00000300: c194 d135 e619 3633 030e 0c33 6c04 0d34
00000310: 7c3e b734 a910 ff33 20fd 0034 2dae 2635
00000320: 883a b433 9212 2b35 9813 3d33 d6d4 6635
00000330: cd56 8134 7bf8 8033 5a25 3834 5529 0f33
00000340: 6669 8134 2749 a533 c2c8 ea33 6f9b 9533
00000350: d60b d132 fddc 7233 33b9 9434 544d 3f33
00000360: 8eda 6f34 86b6 9233 9217 4b34 32ad dc34
00000370: 32fd 3f32 c3ee a732 2838 5132 7bc7 b232
00000380: 19a5 0d32 16ee 8f34 ec0a 1034 e340 fe32
00000390: 4921 3934 9858 5934 b4c8 2c35 65dc e432
000003a0: 63e9 1733 59fe 8233 dc0e f734 ca2f 7035
000003b0: 10c6 8134 1546 2634 0b89 0b33 2abc dd33
000003c0: a343 f333 997c 6e34 767a 0034 7bee 2e32
000003d0: c97c 8e34 ae2f 3133 bda3 f234 6d93 eb35
000003e0: 46d0 5d34 f06e d433 f03e 4934 3f40 5c34
000003f0: 8338 b634 310e ce32 2403 8033 8b20 b934

exp_avg f4 [64]
-0.00048468437 3.58637e-05 -0.00011167325 -0.00040045573 -2.9066588e-05 -1.9912275e-05 5.1736813e-05 -0.00019843876
0.0001675354 -3.1519296e-05 -4.8797265e-05 0.00012017574 0.00012273963 -1.2829966e-05 -0.00042799936 -5.293101e-05
3.934656e-05 7.189408e-05 5.90834e-05 0.0002515629 -0.00015606532 -2.4219707e-05 1.0244452e-05 -0.00035333083
0.00045332062 2.3254415e-05 1.219033e-05 -1.4927056e-05 -0.0001468055 4.8850343e-05 0.00015472894 -9.0865135e-05
-0.0004963869 -7.0238006e-05 7.818315e-05 -0.00014028499 0.00014521803 0.0012315889 2.6612519e-05 -0.0001761386
6.8142836e-05 -0.00015044182 -9.539132e-05 -2.2288232e-05 6.6831104e-05 -2.0076299e-05 0.000108750464 0.00019651305
-0.0003516861 -0.000112339214 -9.235384e-06 -2.4549592e-05 -0.00048816373 -2.3889457e-05 6.201759e-05 -2.0531339e-05
-2.131139e-05 -0.0006757818 -4.7551122e-05 -0.00012475111 0.0005924518 -0.00023493834 -5.3954485e-05 -6.8066765e-05
00000000: 3c1d feb9 5b6c 1638 1f32 eab8 42f4 d1b9
00000010: 06d4 f3b7 4909 a7b7 fbff 5838 0014 50b9
00000020: 71ac 2f39 9633 04b8 aaab 4cb8 dc06 fc38
00000030: abb3 0039 4940 57b7 1a65 e0b9 3d02 5eb8
00000040: 0c08 2538 d7c5 9638 51d0 7738 33e4 8339
00000050: 77a5 23b9 6d2b cbb7 96df 2b37 433f b9b9
00000060: aaab ed39 7a12 c337 1285 4c37 386f 7ab7
00000070: cdef 19b9 a8e4 4c38 bc3e 2239 d98e beb8
00000080: f61f 02ba be4c 93b8 42f6 a338 7719 13b9
00000090: ab45 1839 446d a13a f33d df37 d8b1 38b9
000000a0: e8e7 8e38 ebbf 1db9 d30c c8b8 9df7 bab7
000000b0: ad27 8c38 8669 a8b7 f610 e438 120f 4e39
000000c0: 8262 b8b9 a897 ebb8 acf1 1ab7 d9ef cdb7
000000d0: 3af0 ffb9 3866 c8b7 710f 8238 b73a acb7
000000e0: ddc5 b2b7 f326 31ba a171 47b8 9fcf 02b9
000000f0: c44e 1b3a c859 76b9 304d 62b8 11bf 8eb8

exp_avg_sq f4 [64]
0.00024123274 1.2200151e-06 7.645018e-06 0.00011618587 8.303766e-07 3.5698687e-07 2.5111356e-06 3.651326e-05
2.56109e-05 8.971818e-07 1.484285e-06 1.0767777e-05 1.4028569e-05 1.3755155e-07 0.00012381077 2.2099011e-06
9.3378236e-07 3.5600333e-06 2.0877358e-06 4.305276e-05 1.8547526e-05 4.6099345e-07 1.5065461e-07 9.6657386e-05
8.3243154e-05 2.3131612e-07 1.1321918e-07 3.1813252e-07 1.2755483e-05 1.8093905e-06 1.7899927e-05 5.658003e-06
0.0001724893 5.4335096e-06 3.5857674e-06 2.4866657e-05 1.534958e-05 0.0046344264 4.3066908e-07 1.7222723e-05
2.8893853e-06 2.1002925e-05 6.5195195e-06 4.942912e-07 4.5358984e-06 3.1677737e-07 1.1711149e-05 2.149137e-05
9.2723465e-05 7.0929364e-06 2.0571055e-07 2.698944e-07 0.00015919936 3.5261505e-07 2.2236784e-06 7.1464643e-07
3.6015763e-07 0.00031599423 1.6955541e-06 1.067322e-05 0.0002489314 3.7604426e-05 2.1694168e-06 3.2137455e-06
00000000: 6cf3 7c39 66bf a335 1a43 0037 d0a8 f338
00000010: 0ce7 5e35 e7a7 bf34 fb84 2836 d025 1938
00000020: fdd6 d637 ddd5 7035 a537 c735 40a7 3437
00000030: 3f5c 6b37 e2b1 1334 33d3 0139 d04d 1436
00000040: 09a9 7a35 e8e8 6e36 071b 0c36 8d93 3438
00000050: 8296 9b37 757e f734 a0c3 2134 8ab4 ca38
00000060: d492 ae38 b15f 7834 e722 f333 cdcb aa34
00000070: 6200 5637 2fda f235 cd27 9637 e0d9 bd36
00000080: 3ede 3439 7e51 b636 04a3 7036 bd98 d037
00000090: f9c2 8037 63dc 973b b536 e734 8479 9037
000000a0: 43e7 4136 702f b037 3fc2 da36 6faf 0435
000000b0: 1233 9836 8d11 aa34 017b 4437 5e48 b437
000000c0: 8874 c238 dcff ed36 49e1 5c34 01e6 9034
000000d0: c1ee 2639 0b4f bd34 813a 1536 21d6 3f35
000000e0: b05b c134 07ac a539 cc92 e335 2111 3337
000000f0: 0283 8239 72b9 1d38 4c96 1136 baab 5736

exp_avg f4 [1, 64]
0.0102891475 0.13080932 -0.22592504 -0.10112634 -0.046388745 -0.15615015 0.10511416 -0.21452305
0.046013027 -0.15612647 -0.28979325 0.21221507 0.10498893 0.097972885 -0.19034353 -0.10247195
0.2898645 0.19130248 0.31510824 0.30074042 -0.10209432 -0.21984032 0.21519844 -0.076600194
-0.22838596 -0.09458673 -0.073277816 -0.048995554 -0.20516452 0.13527778 0.21213573 -0.30114475
-0.3001726 0.04013677 0.28972933 -0.1377562 0.19130325 0.17211089 0.2898988 -0.2894944
0.2053906 -0.020848185 -0.1914452 0.009148985 0.023480088 -0.22871028 0.14304835 0.15843976
-0.18610108 -0.17986584 0.02017133 0.119903475 -0.25388932 -0.28987974 0.28973058 0.005670458
-0.18707553 -0.16464043 -0.17345595 -0.30090967 0.13253316 -0.30066386 0.011535011 -0.27597597
00000000: d093 283c e1f2 053e e558 67be 541b cfbd
00000010: 2002 3ebd d3e5 1fbe 1846 d73d eeab 5bbe
00000020: 2878 3c3d 9edf 1fbe c85f 94be e84e 593e
00000030: 7004 d73d 02a6 c83d 6ae9 42be d0dc d1bd
00000040: 1f69 943e cce4 433e de55 a13e a6fa 993e
00000050: d416 d1bd d21d 61be fb5c 5c3e 90e0 9cbd
00000060: 02de 69be b0b6 c1bd ae12 96bd 90af 48bd
00000070: a616 52be 4286 0a3e 1c3a 593e a52f 9abe
00000080: 39b0 99be 7466 243d 6757 943e f60f 0dbe
00000090: 00e5 433e d63d 303e 9e6d 943e 9c38 94be
000000a0: ea51 523e d0c9 aabc 360a 44be a0e5 153c
000000b0: 5059 c03c 0733 6abe 447b 123e 083e 223e
000000c0: 4891 3ebe c02e 38be 583e a53c f48f f53d
000000d0: c8fd 81be 1e6b 94be 9157 943e 40cf b93b
000000e0: ba90 3fbe 8097 28be 709e 31be d510 9abe
000000f0: c6b6 073e 9df0 99be 58fd 3c3c b94c 8dbe

exp_avg_sq f4 [1, 64]
22.903585 8.342984 7.67588 37.936924 30.277985 7.4774356 38.229404 7.9316616
30.15308 7.4771543 7.931334 8.07554 38.18442 9.744088 47.17386 38.360973
7.9319124 47.47785 8.256901 9.8101 38.238132 7.7248282 8.219662 29.96223
7.9236937 29.973959 13.413131 30.364418 38.060387 38.20426 8.07173 9.840361
9.76643 23.38729 7.9309254 38.22127 47.473347 30.747238 7.9321933 7.9293804
38.11253 23.182669 47.5209 23.266827 23.113811 7.5890527 8.286627 29.767635
7.7230563 29.84514 17.5129 38.18546 7.957385 7.9320645 7.930987 9.948352
7.731019 37.684525 8.359024 9.822854 37.401737 9.80445 12.886928 8.318881
00000000: 8b3a b741 dd7c 0541 cfa0 f540 69bf 1742
00000010: 5039 f241 2747 ef40 e9ea 1842 2cd0 fd40
00000020: 8239 f141 d944 ef40 7dcd fd40 6935 0141
00000030: d9bc 1842 c9e7 1b41 08b2 3c42 a371 1942
00000040: 3ad2 fd40 52e9 3d42 441c 0441 2bf6 1c41
00000050: d9f3 1842 cb31 f740 bc83 0341 a6b2 ef41
00000060: e68e fd40 abca ef41 2f9c 5641 54ea f241
00000070: d63d 1842 2ad1 1842 ce25 0141 1e72 1d41
00000080: 4c43 1c41 2b19 bb41 24ca fd40 95e2 1842
00000090: b5e4 3d42 58fa f541 87d4 fd40 7cbd fd40
000000a0: 3b73 1842 1b76 b941 6715 3e42 7622 ba41
000000b0: 16e9 b841 85d9 f240 0696 0441 1e24 ee41
000000c0: 4723 f740 d9c2 ee41 6b1a 8c41 e9bd 1842
000000d0: e6a2 fe40 79d3 fd40 a5ca fd40 732c 1f41
000000e0: 8264 f740 f4bc 1642 90be 0541 692a 1d41
000000f0: 619b 1542 07df 1c41 db30 4e41 231a 0541
