Lab7_ALTEGRAD_learning_on_sets_and_graph_generative_models/code/part1STE/model_lstm.pth.tar (torch, 622178 bytes, 18 tensors)

embedding.weight f4 [11, 128]
000000 f5 42 47 3f e8 e7 20 3e 78 76 b7 3e a9 3c 28 bf
       0.77836543 0.15713465 0.35832572 -0.6571756
000010 41 b8 0a 40 b1 89 a9 3e d4 06 40 3f 87 fb ff 3e
       2.167496 0.33112863 0.7501042 0.49996588
000020 9d ef 3e 3f 05 60 fd be 87 1c f9 3f 86 4c b3 bf
       0.7458437 -0.4948732 1.9461831 -1.4007728
000030 59 1a 21 3f 07 2c 41 3f 0f 9f 52 be 3b 1f e1 3e
       0.6293083 0.75457805 -0.20568489 0.4396914
000040 3f 88 05 3f 34 e6 7c 3e 2f ad 08 bf 7f e9 3b be
       0.5216102 0.2469719 -0.5338926 -0.1835079
000050 2a ff 88 3f 9f 64 f9 be d5 22 e9 3c c2 7c 5c bf
       1.070287 -0.4870958 0.028458992 -0.86127865
000060 75 c4 13 bf ec 8c 38 bf 98 04 d8 3d ea 98 86 be
       -0.57721645 -0.7209003 0.10547751 -0.2628854
000070 00 d1 01 c0 c0 78 b5 3f 27 af 82 3e 41 49 4a be
       -2.0283813 1.4177475 0.25524256 -0.19754507
000080 49 a9 9f be 81 99 2f 3f 62 bd 9f bd c3 b4 58 bf
       -0.31183842 0.68593603 -0.07799794 -0.8465082
000090 6b c1 90 bf bb cb dc 3d fa 8c b4 3d 41 f5 93 3f
       -1.1309026 0.10781046 0.08815952 1.155922
0000a0 64 8b 5b 3f c1 62 54 bd 78 92 89 3f 28 fa f8 3e
       0.8575957 -0.05185199 1.0747824 0.48628354
0000b0 db 3b 67 be 70 27 d6 3f 02 1a 82 3f 68 0f 33 3f
       -0.22581427 1.6730785 1.0164187 0.69945383
0000c0 ac d7 4e 3f f9 07 42 bf 30 71 1e 3f 8e 66 90 3f
       0.8079784 -0.75793415 0.6189146 1.1281297
0000d0 99 a9 74 be 03 16 87 bf 1f c7 5e 3f 3e 23 ad be
       -0.23892821 -1.0553592 0.87022585 -0.3381595
0000e0 0f 93 dc bc c0 83 ed be c3 1b 64 3e 58 de cc bf
       -0.026925592 -0.4638958 0.22276215 -1.6005354
0000f0 d5 ba 6a be 20 08 33 3f ce dc ad be ec fd 22 3f
       -0.22922833 0.6993427 -0.33957523 0.63668704
000100 20 66 9a 3f 85 e7 d4 3f 60 96 08 bf 20 27 36 bf
       1.2062416 1.6633154 -0.53354454 -0.7115345
000110 a5 47 9c bd 5a 96 1d bf a9 fb 8d be 98 96 35 bf
       -0.076308526 -0.61557543 -0.27731064 -0.7093291
000120 cb 94 c3 be 52 e5 8c 3f 4f 03 34 3f b2 46 12 bf
       -0.38199458 1.1007483 0.7031755 -0.5713912
000130 ab 81 7b bf 64 db 9f bf c0 5a 2e be 2e b7 d6 bf
       -0.9824473 -1.2488828 -0.17026806 -1.6774652
000140 34 c3 13 40 76 8b f8 3e 25 87 e3 be bf 8c b3 bf
       2.3087893 0.485439 -0.44439045 -1.4027327
000150 61 ee 8e bf 11 c0 15 3e 27 d9 cf bf 10 32 e1 be
       -1.1166497 0.14624049 -1.6238145 -0.43983507
000160 b9 c8 82 3f 7e dc a4 3f 7d c5 b5 bc 28 e4 18 3f
       1.0217506 1.2879789 -0.022188896 0.5972314
000170 ec 22 9c bf 82 87 a6 be ea 6e fa bd bd 56 e5 bf
       -1.2198157 -0.3252526 -0.122281864 -1.7917095
000180 71 7c 8f be f9 dc 13 3f 32 2a 03 bf 69 3f c6 be
       -0.2802463 0.5775905 -0.5123626 -0.38720253
000190 79 eb cd 3e 33 9c 7b 3f 31 9e d7 3e e9 ef 8c 3f
       0.40218714 0.98285216 0.42112878 1.1010715
0001a0 0f 66 dc bc c7 a1 6c bf 19 63 1d 3f 14 e5 8b bf
       -0.026904134 -0.9243435 0.61479336 -1.0929284
0001b0 9f 06 93 3f b0 4c 69 bf 7f a3 a5 bf 83 af d7 3e
       1.1486396 -0.9113264 -1.294052 0.42126092
0001c0 de 2b 3b 3e cb f5 81 3f de b0 6a be d9 ba 9d bf
       0.18278453 1.0153135 -0.22919032 -1.2322646
0001d0 1b 87 c4 3f 64 23 73 3f c8 7f ad bf 55 70 0b 40
       1.5353731 0.94975877 -1.3554621 2.1787312
0001e0 85 ff 0b c0 5f dd 45 bf 0e 13 7e 3f 67 86 8b bf
       -2.1874707 -0.7729091 0.99247825 -1.0900391
0001f0 1b 8b a5 be 72 4f a1 3f 1f ac 52 3f d1 db b3 bf
       -0.32332692 1.260237 0.82293886 -1.4051458
000200 a2 a2 f3 3e 26 98 69 3e 0a 81 86 bf c6 bf 20 40
       0.47585016 0.22811946 -1.050813 2.511705
000210 f0 3b d4 bf d8 1e 5b 3f 6b 48 e5 3e 18 41 20 bf
       -1.6580791 0.8559394 0.44781813 -0.62599325
000220 e0 b7 18 3f 12 d8 56 3e 40 6b 46 bd c5 76 c3 3e
       0.5965557 0.20980862 -0.048442125 0.3817655
000230 9a 57 cf 3b 64 67 03 3e db 26 37 bf 5f 2d a0 bf
       0.0063275816 0.12832409 -0.71543664 -1.2513846
000240 ed 13 ff 3e 1b b7 76 bf 4d 8f a8 bf c8 43 79 3f
       0.4981989 -0.96373147 -1.3168732 0.9736905
000250 db ad 91 bd 72 d8 53 3f 4f 35 8f 3f 78 42 78 bf
       -0.071132384 0.82752144 1.1188143 -0.96976423
000260 0b 0b 37 3f 1b e9 8a be 72 24 81 3c 49 f6 c8 bd
       0.71501225 -0.2713097 0.015764449 -0.098126
000270 0d c2 85 be f5 f0 16 3f f5 64 0e 3f 9d 72 d9 3e
       -0.26124611 0.5896142 0.556228 0.42470255
000280 02 5f 51 bd 6c 38 de 3f 64 fe ff be a4 54 83 bf
       -0.051115997 1.7360969 -0.49998772 -1.0260205
000290 f6 b2 a0 3e 0c 24 07 3f 10 ef 29 bd b0 86 5e 3f
       0.31386536 0.5278938 -0.041487753 0.86924267
0002a0 56 2f fa 3f 89 5c 36 3f 7d 72 80 3f 77 d9 b5 3f
       1.9545696 0.7123495 1.0034939 1.420699
0002b0 ee e7 ba bf 99 cf 31 bf ec ff 5f 3f 96 3c 3f 3f
       -1.4602029 -0.69457394 0.8749988 0.7470182
0002c0 aa 9e af 3f 33 8b a3 3e e6 7b 9c 3f 58 80 87 3f
       1.3720295 0.31942138 1.2225311 1.0586042
0002d0 bf 73 54 be 18 b9 d4 bf 18 78 d9 3e 5c 71 21 bf
       -0.20747279 -1.6618986 0.42474437 -0.630636
0002e0 63 67 15 bf 7d 36 9b bf 80 34 be 3e d1 c9 5b bf
       -0.5836088 -1.2126004 0.3714943 -0.8585482
0002f0 0c 1d 62 bd 7a 1e 10 3f ca 2e 32 bf 37 13 1c bf
       -0.055203483 0.56296504 -0.69602644 -0.6096682
000300 31 a1 b5 bf 3d 95 f7 bd 19 93 1e 3e 76 81 66 bf
       -1.4189817 -0.12089012 0.15485801 -0.9004129
000310 86 03 cd bd 79 84 bf 3f e4 a9 64 bf 05 4d 0b be
       -0.10010438 1.4962302 -0.8932173 -0.136036
000320 8e 6f 58 3f 30 27 a4 3f 19 1f 92 3e 1b 96 2c 3c
       0.8454522 1.2824459 0.2853935 0.010533835
000330 ce a8 de bf 6d 86 89 3f 07 6d a1 bf c1 5c ac bd
       -1.7395265 1.0744148 -1.2611398 -0.08416129
000340 12 40 1d 3f 98 1f 2b be aa 9b 84 bf 9b e4 9f bf
       0.6142589 -0.16711271 -1.0360005 -1.249164
000350 d1 8b b9 bf dd b2 a7 3f 4d bd 08 bf 20 79 88 3f
       -1.4495794 1.310146 -0.5341385 1.0661964
000360 1d a8 0e 40 1c 64 b4 3d 48 8b 6c be d7 d0 3e 3f
       2.2290108 0.08808157 -0.23100007 0.74537414
000370 0f 87 d4 be ca c4 72 bf c5 d2 e5 bc 6a 5d 7d 3f
       -0.41509292 -0.94831526 -0.028054604 0.98970664
000380 91 5c 77 3f 58 87 a6 be 72 fc a2 3f b3 f5 f6 bf
       0.9662562 -0.32525134 1.273329 -1.9293731
000390 b9 39 f5 3d 5a 51 59 bf 02 53 a7 3f 38 05 7f 3e
       0.119739 -0.8488976 1.3072207 0.24904335
0003a0 ea 9b 97 3d c5 6e 88 bf d9 0a cd bf 84 b8 3a 3f
       0.07402785 -1.0658804 -1.6018935 0.729378
0003b0 d8 57 c4 3c ac 24 c9 3f 1c 8f 10 3c 42 42 a6 bf
       0.023967668 1.5714316 0.008823182 -1.298897
0003c0 89 4a bd be 2f 83 3c be b6 6f 2a 3f 70 17 37 bf
       -0.36970928 -0.18409418 0.6657671 -0.7152014
0003d0 ac 35 7c 3f 04 28 bd bd 72 90 00 c0 f9 1a c9 3e
       0.98519397 -0.09236148 -2.0088162 0.3927839
0003e0 cd 4c ac bf d8 78 04 bd 17 85 b8 3d 9a a8 88 3f
       -1.3460938 -0.032341808 0.0900976 1.0676453
0003f0 c3 ee 36 bf 27 d6 02 be 4d 22 45 3f b4 a2 9d 3f
       -0.7145807 -0.12777005 0.77005464 1.2315278

lstm.weight_ih_l0 f4 [256, 128]
000000 11 6c c1 bc da 61 20 be 7b 6c 55 3e 27 61 a4 be
       -0.0236111 -0.15662327 0.20842163 -0.3210537
000010 75 3d 4a bd 31 f5 12 bd 47 da e9 3d ab 9a 91 3c
       -0.049375016 -0.035878364 0.11418586 0.017773947
000020 cd 36 24 3e 0a 0d 13 3c 86 31 74 3e 52 3c 95 be
       0.1603653 0.008975277 0.23847017 -0.29147583
000030 32 2a 3b 3c b0 81 88 3e 0d a1 ba 3d b9 7e 09 3e
       0.011423634 0.26661444 0.09112749 0.13427247
000040 cc 5d c1 bb 25 9c 4e 3e 9a 31 3b 3d e5 33 eb bd
       -0.005901074 0.20176752 0.0457016 -0.114845075
000050 a2 e0 5d 3e 91 e9 b7 bd 3a 67 17 be 57 36 ff 3d
       0.21667722 -0.08980096 -0.14785472 0.124615364
000060 2d d2 d0 bd 15 85 d0 3c a0 4b 29 bd 2c 27 1a be
       -0.10196338 0.025454083 -0.041331887 -0.15054005
000070 1c 3b 8a 3a a7 be 1c 3e 9d cc 2c bd 81 a8 d6 3d
       0.001054618 0.15307103 -0.042187322 0.10481358
000080 e7 b2 d8 bd 38 b2 ae be ad 4a 9f bd 48 37 f7 bc
       -0.10580998 -0.34120345 -0.07777915 -0.030177727
000090 36 d7 0b be 5d 47 01 3d f7 97 e2 bd c0 ee e8 3d
       -0.13656315 0.031562198 -0.11064141 0.11373663
0000a0 e7 88 4b 3e f5 b5 9a 3d f9 4a 6b be 1a 15 e2 bd
       0.19876443 0.07554237 -0.22977819 -0.11039181
0000b0 89 73 ef 3d f3 91 33 bd 5e b1 5b 3d ea 76 7a bd
       0.116919585 -0.04384036 0.053635947 -0.06114856
0000c0 54 df b3 be ab f6 89 bc 1d 10 34 3d 30 66 c3 bd
       -0.35131323 -0.016841253 0.04396068 -0.09540975
0000d0 6e 1f 6b 3e 5a bc 8b 3e 61 b6 0b 3e 72 d4 5f be
       0.22961208 0.27292138 0.13643791 -0.21858385
0000e0 e2 ec 66 bc 74 d8 f3 3d ce 0f ed 3d a8 53 26 bd
       -0.014094563 0.119065195 0.1157528 -0.040607125
0000f0 04 3e 9b bd c3 3a 38 3e ed 42 51 bd 36 4a 31 3e
       -0.07580188 0.17991166 -0.051089216 0.17313465
000100 51 55 70 3e c3 e9 89 3d 0e 40 44 bd 4e c5 c0 bd
       0.23470046 0.0673404 -0.04791265 -0.09412633
000110 17 b5 76 bd 59 47 f9 3d 12 72 a5 be cc 0b 10 bd
       -0.060231294 0.121718116 -0.3231359 -0.0351675
000120 fc c0 c8 bd ae e5 62 be 07 55 4e 3e 18 68 44 be
       -0.09802434 -0.22157928 0.20149623 -0.19180334
000130 fb 88 45 3e 2f a4 ae be a0 03 b2 bb 5d 28 3e 3e
       0.19290535 -0.34109637 -0.005432561 0.18570085
000140 85 61 c1 bb 3c 73 31 be 07 be 55 bd 7e 83 12 be
       -0.005901518 -0.17329115 -0.052183177 -0.14307973
000150 8a cc 80 bd e9 80 87 bd 3b 20 43 3d d2 f3 ba bc
       -0.06289013 -0.066163845 0.04763816 -0.02282134
000160 53 ee 19 bd b5 12 b8 bd c0 47 37 3d c5 1d 21 3e
       -0.0375808 -0.08987943 0.04474616 0.15734012
000170 a4 08 07 be 1c 53 cb bc 07 c7 53 3e 9f 58 fa bd
       -0.1318689 -0.024819903 0.20681392 -0.122239344
000180 2a 58 9c be fb b9 0f 3a 33 27 c0 bd 25 ab 98 be
       -0.30536014 0.00054827303 -0.09382477 -0.29818073
000190 30 ca a4 3e 93 9c 8c 3c f3 05 37 be f5 2f 82 bd
       0.32185507 0.017164504 -0.17873363 -0.06356803
0001a0 56 af 4e 3e 14 c2 d4 bd ed 4c 3a 3e e4 0c 88 be
       0.20184073 -0.1038858 0.18193407 -0.26572335
0001b0 47 16 1c 3c 39 a0 c6 3c ab 62 8b be fa fc 16 3e
       0.009526796 0.024246322 -0.27223715 0.1474494
0001c0 72 b6 1b be 0c c1 89 3e 3d ec 09 be 9a 28 5d 3d
       -0.15206316 0.26905096 -0.13469024 0.0539938
0001d0 99 d5 18 be 88 eb af 3e 49 eb 7a 3d 30 52 2a be
       -0.14925231 0.34359384 0.06125954 -0.16632915
0001e0 92 31 96 be dd 38 37 bd a3 5c 9b 3c dd 39 b7 bd
       -0.29334694 -0.044731963 0.018965071 -0.089465834
0001f0 db 7d 8b be f4 31 5e 3e ce 97 6c ba df d0 19 be
       -0.27244458 0.21698743 -0.0009025306 -0.15021084
000200 91 08 9e be da c1 ff 3d cc 11 00 3e f5 21 d9 3d
       -0.3086591 0.12488146 0.12506789 0.1060218
000210 6e 3a e9 bd 8b 11 58 3e c3 39 81 3d 02 fe 17 3e
       -0.11388098 0.21100442 0.06309845 0.1484299
000220 09 62 cc 3e ab bd 9f 3e 28 d7 8f 3d fc c6 8c 3d
       0.39918545 0.31199393 0.0702346 0.06873891
000230 a4 ff 74 bb 6f 14 3c be 54 e4 54 be fd 32 36 3e
       -0.003738382 -0.1836717 -0.20790225 0.17792888
000240 08 a8 23 3d 85 cf 02 3e b7 18 cb 3d fc 4a 24 3d
       0.03995517 0.12774475 0.09916823 0.040110573
000250 ac 00 c2 3d 8c 44 27 3b ca 17 cf bc de dc ca 3d
       0.094727844 0.0025523035 -0.025279898 0.09905408
000260 c0 f2 28 3e fd ee 1f be bb 16 38 3c de 11 18 be
       0.16498852 -0.1561851 0.011235888 -0.14850566
000270 79 25 6f 3d 56 76 29 3e ed dc 8d 3e c6 3f 2a 3e
       0.058385346 0.16549048 0.27707615 0.1662589
000280 86 c2 3d be 1b 1a cb 3d 1c fb 6a 3c ca 8f 47 3e
       -0.18531236 0.099170886 0.014342096 0.19488445
000290 dd ff f9 bd a4 8d 09 3e ac 3c 85 bb c0 48 9f 3d
       -0.12207005 0.13432938 -0.0040660705 0.07777548
0002a0 99 e7 3d 3e 1c 75 06 3c 36 f9 13 3e 35 d6 7e 3e
       0.18545379 0.008206632 0.14450535 0.24886401
0002b0 56 2d 72 bc 6f 0a 9e bd fc b0 86 3e 9c 5f 80 39
       -0.014781317 -0.07716834 0.26306903 0.00024485297
0002c0 4f c4 d1 bd 8e 3b ce bd b4 19 42 3e d9 be 87 3e
       -0.10242521 -0.10069953 0.18955117 0.26512793
0002d0 db c0 ea bd 3d 74 55 be 7a 5e 4d 3e 76 4b 8a bd
       -0.114625655 -0.20845123 0.20055571 -0.06752674
0002e0 80 ad fd bd 8b 8b fd 3c e2 b5 ea 3d 3f d1 5b be
       -0.12386608 0.030950328 0.11460473 -0.2146654
0002f0 3e 4f 80 be df 6e 09 3d 39 ef ab be f0 a4 6d bd
       -0.25060457 0.033553 -0.3358095 -0.058018625
000300 5f 88 23 3e 33 eb 0d 3e 29 10 fe 3d 50 15 0c be
       0.1596999 0.13859253 0.12405426 -0.13680005
000310 81 f8 ad bc 43 e0 da 3c 47 46 14 be fb 12 b2 be
       -0.02123666 0.026718264 -0.14479934 -0.34780106
000320 fc f9 6e be 58 6d 13 be 1f c0 9c 3d c4 e1 91 3d
       -0.23337549 -0.1439718 0.07653832 0.071231395
000330 04 ef b8 bd 6d bc a8 bd 95 ad 38 3d 81 c2 69 3e
       -0.090299636 -0.08239064 0.045087416 0.22828104
000340 2c e5 1b 3e 51 8a 90 3d 7a 53 0a 3e 47 08 be 3d
       0.15224141 0.07057632 0.13508406 0.092789225
000350 44 64 80 be 84 83 42 3e 94 17 1e be cf 08 96 3d
       -0.25076497 0.18995482 -0.15438682 0.07325899
000360 17 5e 8b 3e dd 42 2f 3e 55 77 09 3e 25 3b 97 3e
       0.27220222 0.1711535 0.13424428 0.2953731
000370 28 ae cc bd 3f 8c 95 bd ad a6 5f 3d 44 d0 4e 3d
       -0.09994155 -0.073021404 0.054602314 0.050491586
000380 07 08 47 3e 77 ce 97 3c 23 fc cb 3c 5d d8 18 be
       0.19436656 0.018531067 0.024900502 -0.14926286
000390 f8 25 2f 3e 12 ad aa 3d 5d 97 fc bc 6d 9f 8c 3d
       0.17104328 0.08333792 -0.030833894 0.068663456
0003a0 7e bf 38 3d 5b 78 1c bc f2 c3 83 be a6 80 02 be
       0.045104496 -0.009550179 -0.25735432 -0.12744388
0003b0 ed 25 bf 3e bc 11 73 3e 0d 57 88 be f9 85 dd bd
       0.37333623 0.23737234 -0.26628914 -0.10816569
0003c0 7c d9 9b be fa f8 77 3d 52 95 19 3d 6a 61 1c 3e
       -0.30439365 0.060540177 0.03749592 0.15271536
0003d0 7e c2 2c 3d b1 cc b1 3e 7b 26 b4 bd 41 31 0b 3d
       0.04217767 0.3472648 -0.08796402 0.03398252
0003e0 49 c7 7a be 46 2a ae bc 91 8d e6 3e a0 e8 f8 3d
       -0.24490084 -0.021260392 0.45029882 0.12153745
0003f0 df d4 a7 3e 09 9d 0a 3e fb 8b 54 3e 7e 18 18 3e
       0.32779595 0.13536467 0.20756523 0.14853093

lstm.weight_hh_l0 f4 [256, 64]
000000 6f dc ba 3d aa a8 c7 3d 2f da 10 3f 95 1d 0c be
       0.091240756 0.09748967 0.5658292 -0.1368316
000010 03 54 24 3d 41 8f 3f 3d a6 04 46 3e 1f 70 bd 3d
       0.040119182 0.046767477 0.1933771 0.09249901
000020 0e 12 80 bd 64 c0 7c bc 8e e0 41 3d 86 8e 16 3c
       -0.06253444 -0.015426729 0.047333293 0.009189254
000030 e7 0d a7 3d c5 0c 22 3f 4a f7 da be a3 00 39 3c
       0.081569485 0.63300735 -0.42766792 0.011291656
000040 bb 18 00 bc 9a a4 dc 3e 90 4f ba bd 73 41 11 bf
       -0.007818396 0.4309433 -0.090972066 -0.5674049
000050 ac 7d 90 be c5 4e 7a be 2c 24 77 3d c1 d0 2c be
       -0.2822088 -0.2444411 0.06033723 -0.16876508
000060 96 ef 10 3e c4 8b 67 be 2c 18 5d bd 0a 29 91 bd
       0.14153895 -0.2261191 -0.05397813 -0.07087906
000070 47 c8 3a 3e ff 02 11 be ae 6e 10 be 59 16 53 3e
       0.18240462 -0.14161299 -0.14104721 0.20613994
000080 8b fb 33 be 2d 18 cd be eb d9 93 be 9f 8d fe 3d
       -0.17576425 -0.40057507 -0.28877196 0.12429356
000090 8f f0 19 be ec 30 c5 be 9f f8 55 bd 39 cb 41 be
       -0.15033172 -0.38513887 -0.052239057 -0.1892518
0000a0 d9 c2 8b 3d 76 ca 14 3c 92 ed d7 3e ab b6 19 be
       0.068242736 0.009081474 0.4217344 -0.15011089
0000b0 c6 4d f4 3d 2f ab fd 3c f3 4b 92 3e 9a 51 ec 3c
       0.119288966 0.030965416 0.2857357 0.028847504
0000c0 fc 33 03 3e f2 4a a8 3d e1 3b 04 be c1 56 17 3d
       0.12812799 0.0821742 -0.12913467 0.03694797
0000d0 59 47 e2 3b c3 eb 2e be 3c 4e 17 be 81 74 2d 3e
       0.006905478 -0.17082123 -0.14775938 0.16938974
0000e0 a6 4c e3 3d 87 14 c8 be 9f a9 c5 be 0a e9 66 bd
       0.11098604 -0.3907816 -0.38605973 -0.056374587
0000f0 ea c1 a7 bb d4 67 93 bd 1a db 93 3b 87 82 3b be
       -0.005119552 -0.07197538 0.004512203 -0.18311511
000100 19 c2 98 bd 76 9b 67 be 65 5f 72 3e 3f 20 19 3e
       -0.07458896 -0.22617897 0.23669203 0.14953707
000110 36 0b 3e 3e b9 d4 1e 3d 1a 90 7c be 7b d8 0b be
       0.18558964 0.038777087 -0.24664345 -0.136568
000120 9a 53 d7 bb 09 81 15 bd 1d 6c f8 bd fd cb 52 be
       -0.0065712454 -0.03650001 -0.12129996 -0.20585628
000130 61 cc 68 3d 72 49 dd 3c 08 e7 ce 3c 92 f2 44 be
       0.056835536 0.02701256 0.025256649 -0.19233158
000140 cc 9d 2b be 5a c6 a3 3d 4e f8 8d bc c6 a2 0b be
       -0.16759413 0.07996817 -0.017330315 -0.13636312
000150 f2 1c 73 3c 8b f1 9f bd a5 1f 76 bd 45 51 27 be
       0.014838444 -0.078097425 -0.060088772 -0.16339596
000160 d0 6f 3f 3e f2 64 cd bd be dd d2 3b 6b 0a ca bd
       0.18694997 -0.100290194 0.006435125 -0.09865268
000170 24 9b a2 3c 3b 29 3f 3b 3e 48 69 bd e1 ac 9a bd
       0.019849367 0.0029168862 -0.05695366 -0.07552505
000180 79 36 42 bd 97 4a 34 be 37 46 b3 bd e2 ab f8 bb
       -0.04741523 -0.17606579 -0.08753627 -0.0075888494
000190 04 6f 25 bd fa a9 84 bd 26 52 af bd d5 08 06 bd
       -0.040389076 -0.06477733 -0.085605904 -0.032723267
0001a0 4e c7 b3 bd ac 06 45 3e 5e fa 87 3e 8f b9 80 bd
       -0.08778249 0.19240826 0.26558203 -0.062853925
0001b0 3f 4f d8 3d d0 0d 40 bd 2b a9 5c bd 58 11 21 3e
       0.1056199 -0.046888173 -0.05387227 0.15729272
0001c0 ac 33 c9 bc dc b2 23 3e ce ac 91 bd 29 bd 5c 3d
       -0.024560772 0.15986198 -0.07113038 0.053891335
0001d0 fb f3 3f 3e cc 21 7d be 93 7b 3a bd a8 e6 95 3d
       0.18745415 -0.24719924 -0.045528006 0.07319385
0001e0 33 bb bf bb 56 85 9e bd 59 4b 98 bd fa 37 a3 bd
       -0.0058511733 -0.077402756 -0.074362464 -0.07969661
0001f0 13 9a e5 bd c8 80 ec bd 43 2e 39 be 98 f4 1d be
       -0.11211028 -0.115480006 -0.18084054 -0.15425336
000200 3e 75 07 3e e2 f4 48 be fb b2 7e 3e 5b 61 b4 3e
       0.13228318 -0.19624665 0.24872963 0.35230526
000210 63 05 8b be 6c b4 e5 bd 24 d7 3b be 4d 7b 04 be
       -0.27152547 -0.11216053 -0.18343788 -0.1293766
000220 78 17 3a 3f 6d 28 f7 bd 96 ac a8 bd 21 1b 69 bd
       0.7269206 -0.120682575 -0.08236043 -0.056910638
000230 f3 67 54 3e 82 d8 85 3d c9 65 93 be 63 94 14 3d
       0.20742778 0.06535436 -0.28788593 0.036274325
000240 62 51 1e 39 5d d3 fe 3e b9 ba 07 3f 6f 6f 88 be
       0.00015098372 0.49770632 0.5301929 -0.26647517
000250 da f0 22 be 56 93 66 3e 48 65 d8 3d 71 13 0a be
       -0.1591219 0.22517142 0.10566193 -0.13483979
000260 a5 f5 ef bc f7 f9 26 3d 77 09 37 3e cd 31 8b 3b
       -0.029291937 0.04076573 0.17874704 0.00424788
000270 d4 fd 08 3e ce 91 90 be fe a4 e4 bd 9c 4c e8 be
       0.13378078 -0.2823624 -0.11164282 -0.45370948
000280 53 b0 3a 3e ce ed a5 be dd c1 1a bd 4b 20 82 bd
       0.18231325 -0.32407993 -0.03778254 -0.06353816
000290 68 ba 0f be cf 43 87 be 8c 0f 0b 3d 18 a3 be 3e
       -0.14035952 -0.2641892 0.033950374 0.37233806
0002a0 39 d0 1f bd 0e d5 c8 3d b6 90 f6 bc e3 e2 ed 3d
       -0.039016936 0.09806262 -0.0300983 0.11615541
0002b0 5d d3 b1 3d 6a 97 37 be 38 84 3f 3e 39 2b 47 3e
       0.086828925 -0.17928854 0.18702781 0.19450082
0002c0 8b dc a0 3b 91 1b 98 bc e3 81 ab bd 10 9e 9b 3d
       0.0049091033 -0.018567832 -0.08374383 0.075985074
0002d0 f3 63 86 bd 71 19 3c 3e 51 0b 27 3e f3 6e cf be
       -0.065620326 0.1836908 0.1631291 -0.40514335
0002e0 2f 07 d9 3c 49 ce 74 bd 8b 16 ba be ad ea 25 bb
       0.026492683 -0.05976704 -0.36345324 -0.002531688
0002f0 73 4a 13 3c 3f f1 c5 bd cb 1e 06 be 1b 20 51 bd
       0.008989918 -0.09665155 -0.13097684 -0.05105601
000300 22 a8 f8 bc 5e 1b 3e bd 0b a7 f1 3c 05 0d 1b 3b
       -0.03035361 -0.046412818 0.029498598 0.0023658883
000310 99 4e 88 3e 5c b1 95 3c cf 96 bc bc 01 84 ee 3a
       0.26622465 0.018273048 -0.02302113 0.0018197299
000320 87 4a 41 3c e8 10 56 bb 65 b8 96 bc 97 58 d0 3d
       0.011797554 -0.0032663886 -0.018398473 0.10173147
000330 9f 99 06 bc 7d 68 f1 3c 00 59 ea bd c1 27 cf bd
       -0.008215337 0.02946877 -0.11442757 -0.10115004
000340 b5 0a 9b 3d c0 90 d7 3c 5f 6a be bd 12 10 7a 3d
       0.075704016 0.02631414 -0.092976324 0.061050482
000350 9e 30 3f be 0c 2c 09 bd 29 be c8 3d 81 ca 17 3d
       -0.1867089 -0.033489272 0.09801895 0.037058357
000360 46 62 01 3d 92 a1 2a bd 64 72 b0 3d 92 17 8d 3c
       0.03158786 -0.04165799 0.08615568 0.017223153
000370 fb a6 b0 bc 5e b5 c6 bd e2 c9 4f 3d 8a b1 b9 3c
       -0.021563997 -0.09702562 0.05072964 0.022667665
000380 b3 fd e9 bc 59 1c 42 be db 67 39 3d 02 f7 94 3d
       -0.028563356 -0.18956126 0.04526506 0.072736755
000390 ad 8a b1 bc a8 07 b9 3d 77 94 87 bd 53 b0 9f 3d
       -0.021672571 0.090346634 -0.06620114 0.07797303
0003a0 66 63 a7 bd 62 97 90 bd 66 65 16 bd 18 f4 d5 bc
       -0.081732556 -0.07060124 -0.036717795 -0.02611737
0003b0 bb 7f cb 3c 5a bd 44 bc ef d6 3d 3e f5 53 ba 3b
       0.02484118 -0.012008036 0.18539022 0.005686278
0003c0 97 35 7e 3d 7b 26 c8 bc 23 a3 12 3d 9f 9e 92 3d
       0.062062826 -0.024432411 0.03580011 0.07159161
0003d0 30 d8 17 3d 01 31 ee bd 4a 46 02 3d 3e 24 18 be
       0.037071407 -0.116304405 0.031805314 -0.14857575
0003e0 af ae 27 3d 85 f1 b4 be 7f 52 47 be 03 da b4 bc
       0.040938076 -0.35340515 -0.19465064 -0.022076612
0003f0 eb 9f 96 3b d5 c3 fc bd 75 df 6a 3b 74 2a 56 3d
       0.0045967004 -0.123420395 0.0035838757 0.05228658

lstm.bias_ih_l0 f4 [256]
000000 cd 6b 62 3d ae 99 6b 3e 04 bc 14 be 33 09 c4 3d
       0.055278588 0.23007843 -0.14524847 0.09572067
000010 3b 9c 96 be ef ab e5 bc 04 d0 b5 3d 4f b9 72 bd
       -0.2941607 -0.028036086 0.088775665 -0.059258755
000020 ea 64 89 39 ce 0b 4e be b2 26 0b be 03 64 93 3e
       0.00026205863 -0.2012169 -0.1358898 0.2878724
000030 70 1c 5a bd da fe 5d bd 5d 88 dc bd 49 b6 e4 bd
       -0.053249776 -0.054198124 -0.10768197 -0.11167581
000040 37 df 86 3e dd 16 a4 be ea 1f 6a bd 5a 1a 86 be
       0.26342174 -0.32048693 -0.057159342 -0.2619198
000050 54 1c 3f bd 8f 18 0d 3d 99 72 da bd a8 ef 15 bc
       -0.046657875 0.03444725 -0.10666389 -0.009151377
000060 90 39 19 be 63 73 13 bd e1 6e 80 3e 30 c4 8a 3e
       -0.14963365 -0.035998713 0.25084594 0.27102804
000070 56 27 11 3d 9a 8d 91 be 2e 03 71 be 56 20 82 3c
       0.035437904 -0.28428346 -0.23536369 0.01588456
000080 fc fb 23 3d f8 23 41 be 1a 24 09 b9 31 c7 52 3e
       0.040035233 -0.18861377 -0.00013078787 0.20583798
000090 06 b7 32 bc 1d 36 2b be 7c 53 d9 bd f5 54 28 bd
       -0.010907894 -0.16719861 -0.106116265 -0.041096646
0000a0 ec 0d 44 3e 81 e8 f0 3b fc aa a5 be ba 59 aa bd
       0.19145936 0.0073519354 -0.32357013 -0.08317895
0000b0 a3 5e e5 bd 8b ec e5 bd 19 42 a1 bd 76 a8 db 3d
       -0.11199691 -0.112267576 -0.07873935 0.10725491
0000c0 d8 9f 9e bd c9 a8 ce 3c 41 de 24 be 0a ba 4b be
       -0.077453315 0.025226967 -0.16100408 -0.19895187
0000d0 4d c7 b1 bd c6 30 66 3d be 52 53 3e 0a 86 a7 bd
       -0.08680592 0.056198858 0.20637032 -0.08179863
0000e0 11 32 ac bc ac 4d 02 be de f8 2b be 86 59 e6 3c
       -0.021019967 -0.12724942 -0.16794154 0.02811886
0000f0 e3 ba 01 be 1e 35 3d be 7b c2 1a be 0d d5 33 be
       -0.12668948 -0.18477294 -0.15113251 -0.17561741
000100 85 25 81 3e 4c 54 0d 3e 58 6a e2 bd 96 cb 79 3e
       0.25223938 0.13801688 -0.1105544 0.24394068
000110 52 5c 65 be 7f 0d 17 3e 8d 3c 48 3e 5f 54 c3 3d
       -0.22398499 0.14751242 0.19554348 0.09537577
000120 d4 3a a6 3e 43 b6 bf 3d 13 b5 8b 3e cf cb 81 3e
       0.32466757 0.093609355 0.27286586 0.25350806
000130 3b 71 bc 3c 7d c2 ad 3e b4 cf 00 bd 49 4f 30 3e
       0.023003211 0.33937445 -0.03144808 0.17217745
000140 0b 2a 40 3e 49 a7 36 be 6c 9f 53 3e 4b 8a 2f be
       0.18766038 -0.17837252 0.20666283 -0.17142598
000150 1e 33 66 3d 8a b2 16 3e 65 bd 45 bd 5c 43 d2 3d
       0.056201093 0.14716545 -0.048276324 0.10266754
000160 39 35 f3 3c 85 c5 c8 3d 2b 56 a9 3e 68 6d d7 3d
       0.029688464 0.09803299 0.33073553 0.105189145
000170 01 8e 73 3c e4 e5 bc 3c b2 a0 31 3d c6 88 ad 3d
       0.014865399 0.02305884 0.04336614 0.08473353
000180 08 c1 3e 3e b9 53 aa 3d 76 73 45 3e c7 54 ce 3d
       0.18628323 0.0831675 0.19282326 0.10074764
000190 c7 d9 cb 3d b4 27 fc 3d 94 30 3e 3e 3e 82 88 3e
       0.09953647 0.1231226 0.18573219 0.26661867
0001a0 d9 7e b6 3e cc f2 4d 3d df 69 06 be 4f 4e 72 3d
       0.35643652 0.050280377 -0.13126324 0.059156712
0001b0 6a 35 b5 3d 7f 44 18 3d b3 bd 1e 3e c6 fc a2 3e
       0.088480785 0.037174698 0.15502052 0.31833476
0001c0 2a c4 e0 3d f0 43 af 3d 42 7a 55 3e 2d 91 71 3e
       0.10974915 0.0855788 0.20847419 0.23590536
0001d0 87 34 92 3e 9d ed 0e 3d 52 3c 4e 3e ce c4 c6 3d
       0.285557 0.034894574 0.20140198 0.09705506
0001e0 09 f5 e1 3d 9a 42 d6 bc 2f cc 75 3d b5 2f 83 3e
       0.11033065 -0.026154805 0.060009178 0.25622335
0001f0 21 b6 a3 3d 9e 77 20 3e bf 53 54 3e 60 69 69 bc
       0.07993723 0.1567063 0.20735072 -0.014246315
000200 a5 5f 90 be 4c 54 96 3e 64 ba e3 3c a0 6e f3 3d
       -0.2819797 0.29361188 0.027798839 0.118863344
000210 a7 6d 1a 3e 73 b2 4d bd 79 f7 1a 3e 6d 60 8d 3e
       0.15080892 -0.05021901 0.15133466 0.2761263
000220 b7 b8 b5 bd 65 34 72 bd a6 cd 2d 3e 44 31 69 3e
       -0.08873122 -0.059132 0.1697298 0.227727
000230 2b bc b3 3d 8a 0d fb 3c 08 a2 0b be 91 12 65 3e
       0.087761246 0.030646104 -0.13636029 0.22370364
000240 39 3e fc 3d a2 8f ab bd e6 6e 04 bd c8 73 3e be
       0.123165555 -0.08377005 -0.032332323 -0.18598855
000250 ec d2 ce bc f9 f3 90 be e3 17 9f 3d 1f 9f f8 3d
       -0.02524706 -0.28311136 0.07768228 0.12139725
000260 e4 c2 76 3b 11 c5 d7 3d 6f ce 2e be 60 bd 1c be
       0.0037652785 0.10535634 -0.17070936 -0.15306616
000270 ee c3 0c be b2 98 24 be 10 8b 18 be 8e 63 ce 3d
       -0.13746616 -0.16073874 -0.14896798 0.10077582
000280 10 12 b3 bc 34 82 a4 bc 8a cd 36 bc 92 9f 8e 3e
       -0.021859199 -0.020081617 -0.011157403 0.27856117
000290 b7 52 23 3e bc 4c 8b bd 12 b0 61 3e cd 8f 81 3d
       0.15949522 -0.06801745 0.22039822 0.06326256
0002a0 ab 45 85 3e ff 89 38 be 11 d5 95 3c 44 ad 01 be
       0.26029715 -0.18021391 0.018290075 -0.12663752
0002b0 71 98 54 be 52 4c 2a 3e c7 0c 36 3c dc f1 4c be
       -0.20761277 0.16630676 0.011111445 -0.20014137
0002c0 b6 3e 6c be d2 27 17 be 2b 58 91 be 61 83 e4 bc
       -0.23070797 -0.14761284 -0.2838758 -0.027894678
0002d0 34 6d 96 be 8f ff b6 bc 2a d7 5d be 3f 2c ca bd
       -0.2938019 -0.022338657 -0.2166411 -0.098717205
0002e0 a1 d1 05 3e 4f d2 81 3d 59 4b b4 bd 13 8a 4d 3d
       0.13068248 0.06338941 -0.08803434 0.050180506
0002f0 02 cf cc 3c 57 f0 34 be 78 04 b8 3d aa 6e bd bc
       0.025001053 -0.17669807 0.08985227 -0.023124058
000300 46 0b d3 3d 3a b8 c0 3e 48 90 08 3e 49 9f 8f 3e
       0.103048846 0.37640554 0.13336289 0.28051212
000310 cc 7f ac 3e b9 0f 33 3e f5 4f 6a 3e 95 b3 57 3e
       0.3369125 0.17486466 0.22882064 0.21064599
000320 11 4b d9 3e 76 0c 13 be 64 8c 46 3e 56 a7 84 3e
       0.42440084 -0.14360222 0.19389492 0.25908917
000330 f7 c4 11 3e 84 5c ae 3e 07 42 4e 3c fc 3e fb 3d
       0.14235292 0.3405496 0.012588984 0.12267873
000340 b3 5c 50 3e 8d 9c 41 3e f6 f6 af 3e 12 18 3d be
       0.20347862 0.18907376 0.34368104 -0.18466213
000350 11 d2 8e 3d 63 9c 05 3f bd f2 e2 bd 6c c9 6e 3e
       0.06973661 0.5219175 -0.11081455 0.23319024
000360 8c 08 01 3d 14 84 c7 3e ec de 4a 3e 76 cc 8f bb
       0.03150229 0.38967955 0.198116 -0.0043883873
000370 94 a4 6e 3e 95 7f 75 3d a2 9f 91 bb 84 48 c6 3e
       0.23304969 0.059936125 -0.0044440785 0.387272
000380 36 aa 58 3e c2 5d 9e bd 91 5b 96 3e dd d6 b9 3e
       0.2115868 -0.07732727 0.29366735 0.3629674
000390 4a fa ea 3d da 4a 39 be 3b 80 83 3e 89 58 a1 3e
       0.1147352 -0.1809496 0.2568377 0.3151286
0003a0 99 cb cf bc b2 c9 ce 3d 25 db 1b bd 76 b6 c4 3c
       -0.025365638 0.10097064 -0.03805079 0.024012785
0003b0 86 9a bb bb 4d 83 83 3e 10 6c b6 bd b3 15 00 3e
       -0.0057252077 0.25686112 -0.0890733 0.12508278
0003c0 51 52 5e 3d 46 c4 25 3e 0f e1 7e 3e b4 c5 16 bc
       0.05427772 0.16188154 0.2489054 -0.00920241
0003d0 78 18 80 3e 83 2c d2 3e dc 6b 82 3e 3d 62 db 3e
       0.25018668 0.41049585 0.25472915 0.42848387
0003e0 5f e5 aa 3d 03 89 9b 3c 2f 16 ea 3d 42 e4 ff 3d
       0.0834453 0.01898623 0.114300124 0.124947086
0003f0 95 57 97 bd 2c ca af 3e 26 99 aa 3d b8 e8 7f 3d
       -0.07389752 0.34333932 0.08329992 0.062477797

lstm.bias_hh_l0 f4 [256]
000000 8e a3 ba 3d a9 2d 03 3e ca 7a bc bd c5 06 16 3d
       0.09113227 0.12810387 -0.09203108 0.03662755
000010 01 69 af be f6 47 32 be b6 68 83 3d f9 77 49 bd
       -0.342598 -0.17410263 0.064164564 -0.04918668
000020 e3 4f d2 3c d2 a5 30 3d 52 73 23 be 53 1b 97 3e
       0.025672859 0.04312689 -0.1596196 0.29513034
000030 e1 59 60 be 4b 43 93 bd 53 1c da bd a6 91 3b 3d
       -0.21909286 -0.071905695 -0.10649934 0.045793198
000040 dd 23 7e 3e e1 eb 8c be 68 cc 17 3e 78 19 95 be
       0.24818368 -0.2752371 0.14824069 -0.29120994
000050 56 ff 33 be 1a ee 70 3e df 5d 14 bd 7a 75 b9 3d
       -0.17577872 0.23528329 -0.036222335 0.0905561
000060 49 c3 03 bd 8c f9 e0 3c d2 76 4c 3e 4f 1c 72 3e
       -0.03216866 0.027462743 0.19967201 0.23643611
000070 60 9f 9a 3d 5f b6 d1 bd 14 12 77 be ea e8 bf bc
       0.075499296 -0.10239863 -0.2412799 -0.023426492
000080 d6 4c 70 3c a0 ac 91 be bd da e0 3d 95 e0 60 3e
       0.014666757 -0.28452015 0.10979221 0.21960671
000090 16 3a 52 be 95 b2 10 be 58 03 8f 3d 87 7e b8 3c
       -0.2052997 -0.14130624 0.0698306 0.02252127
0000a0 b2 99 38 3e 16 12 f4 3d c7 ac c0 bd d8 31 fa bd
       0.1802738 0.11917512 -0.09407955 -0.12216538
0000b0 20 4f 1d be d2 f8 26 bd 12 14 14 be 4a 8b 49 3e
       -0.15362215 -0.040764637 -0.14460781 0.19682041
0000c0 2d db 37 bd a7 cc 43 bd 3c 1f 8f bd 52 44 d8 bd
       -0.044886757 -0.047802594 -0.06988379 -0.10559906
0000d0 03 80 66 be 73 f1 02 3e 0f 4b ac 3d fc 1c a1 3d
       -0.2250977 0.12787418 0.08412754 0.078668565
0000e0 4b 41 f2 bd 32 59 6a be be ec c0 be 5e 79 18 be
       -0.1182886 -0.22885588 -0.3768062 -0.14890048
0000f0 e6 fe a1 3d 58 23 e7 bc dd be 3b be 17 cb df bd
       0.07909946 -0.028215095 -0.18334527 -0.10927408
000100 48 1f 88 3e 30 ba 46 3e 3a 76 2f 3d b2 9c 1a 3e
       0.26586366 0.19406962 0.04283736 0.15098837
000110 36 4e 27 be 6d 33 06 3e e4 35 7c 3e b5 bb 04 3e
       -0.16338429 0.13105555 0.24629933 0.1296223
000120 c8 0a 92 3e 87 97 5a 3e f5 b5 73 3d b2 4c 2a 3e
       0.2852385 0.21346866 0.0594997 0.1663082
000130 e3 e9 64 3e c0 bf 67 3e 1d 96 f2 3d fa af 8a 3e
       0.22354846 0.2263174 0.11845038 0.27087384
000140 af 2e 2e 3e 1f ee 13 be 44 75 ff 3d 64 67 88 bd
       0.17009996 -0.14446305 0.124735385 -0.06660345
000150 88 57 1a 3e 2b d8 7f 3e 23 b2 43 3e 11 f2 0b 3e
       0.15072453 0.24984805 0.19110923 0.1366656
000160 63 f2 33 3e 8f 1d ef 3d 67 8f 5d 3e b5 3c 63 3e
       0.17572932 0.1167556 0.21636735 0.22191127
000170 5c 18 05 3d f0 2a a7 3d e3 7e c5 3d 2f 76 85 3d
       0.032493934 0.081624866 0.09643342 0.06516682
000180 23 98 84 3c 5c 64 15 bd 66 51 5c 3e 35 51 76 3e
       0.016185826 -0.036472663 0.21515426 0.24054416
000190 37 ee 1f 3b 1d f4 ee bd 60 a5 1a 3e 02 c8 f5 3d
       0.0024403462 -0.11667655 0.15102148 0.12001039
0001a0 ea 7d 1e 3e 2c 47 11 3e dd dd 7c bd cb da 9a bd
       0.1547772 0.14187306 -0.061735023 -0.07561263
0001b0 ab 8a 81 3e 4e 97 fd bc 4f cf 06 3e 53 fd 21 3e
       0.25301108 -0.030955937 0.1316502 0.15819292
0001c0 68 d4 87 3e 4c 10 b3 3c d9 96 89 3e 41 22 5b 3e
       0.2652924 0.021858357 0.268729 0.21399786
0001d0 46 6a 5c 3d ab 32 26 3e ce 34 48 3e fd 71 39 3e
       0.053812288 0.16230266 0.19551393 0.1810989
0001e0 39 03 34 3d 7f ca 88 3d f4 a2 07 3d 0e 8b 9f 3e
       0.043948386 0.06679248 0.03311439 0.31160778
0001f0 00 e7 2e 3e ce df c3 3d a3 e1 26 3e fe c6 d7 3d
       0.17080307 0.09564172 0.16297011 0.105360016
000200 c5 dd 19 be c1 12 90 3e 5a 79 b8 bd f8 c7 30 3d
       -0.15026005 0.28139308 -0.09007521 0.043159455
000210 7b c6 4b 3e e9 6a 80 bd 04 c7 02 3e 1a 50 64 3e
       0.19899933 -0.062703915 0.12771231 0.22296181
000220 2c c1 43 bd 78 1c bd 3d 40 e5 2e 3e 8a 0e 3f 3e
       -0.047791645 0.092339456 0.1707964 0.1865789
000230 98 72 83 bc bd 71 7a 3e 5b 2d 54 be 49 51 49 3d
       -0.016045853 0.2445745 -0.20720427 0.049149785
000240 61 2c 31 3e 20 9c cb bd 50 c1 74 3d 42 a6 ac bc
       0.17302085 -0.09941888 0.05975467 -0.021075372
000250 c1 4a cd bc 63 1c 9d be 17 da 0f bd bb 4a 5f 3d
       -0.02506006 -0.3068572 -0.035120096 0.054514628
000260 18 4c 0d be d8 86 86 3d a6 26 98 be 2e 26 37 be
       -0.13798559 0.06568688 -0.29716986 -0.17885658
000270 e9 57 05 bc 21 9c af bc 1c 42 c6 bc fc 42 cd bd
       -0.008138635 -0.021436753 -0.024201445 -0.10022542
000280 a6 45 0a bd c0 ed 83 3d 72 6b 3d 3d 18 9e 81 3e
       -0.03375783 0.064418316 0.046245046 0.25315928
000290 86 03 38 3d 90 67 0e be e6 6f 15 3e c1 e3 ca 3d
       0.044925235 -0.13906693 0.14593467 0.09906722
0002a0 e2 b9 8d 3e 22 e2 9c be 49 70 57 3d c0 6d ed bd
       0.2768088 -0.30641276 0.052597318 -0.11593199
0002b0 a7 91 e9 bc d7 76 0e 3e 24 7a e8 3c 88 f9 b2 be
       -0.028511835 0.13912521 0.028378554 -0.34956002
0002c0 6d b6 81 be e3 7c 97 bd b1 c6 e1 bd 11 d4 cb 3d
       -0.25334492 -0.07396867 -0.110242255 0.09952558
0002d0 22 50 1d be 0c a8 06 bd 1d 12 ab be 19 ab cd 3d
       -0.153626 -0.032875106 -0.33412257 0.100424
0002e0 4f e2 9c bb ba fa 1f 3d 75 23 e2 3d 08 cf 4b 3e
       -0.0047877203 0.03905747 0.11041919 0.19903195
0002f0 2a fe 7f 3e 20 90 02 be be bc cb 3d 9b 58 73 3d
       0.249993 -0.12750292 0.09948109 0.059410673
000300 07 03 e9 3a 38 a5 5f 3e dd 69 4e bd 41 f6 59 3e
       0.0017777391 0.2184037 -0.050393928 0.21285345
000310 40 bf a3 3e 63 1b 42 3e 0e c7 bb 3e 8f 17 19 3e
       0.3198185 0.1895576 0.36675304 0.14950393
000320 df dc b4 3e d5 d7 86 3d 3c 39 41 3e ac 92 96 3e
       0.3532476 0.065841354 0.1886949 0.29408777
000330 30 24 86 3e 12 52 a3 3e 0d 8c 9c bc 19 81 2f 3e
       0.26199484 0.31898552 -0.01910975 0.1713909
000340 1c 37 c7 3e ed 59 6f 3e 02 8c d5 3e 84 14 3e bc
       0.38909233 0.23374148 0.4170838 -0.011601571
000350 45 fc ec 3d 33 70 1b 3f 47 36 d0 3d 80 c1 56 3e
       0.11571554 0.6071808 0.101666026 0.20972252
000360 00 26 fa 3c 8a ab b9 3e a3 5b c6 3e 7a f6 40 3d
       0.030535698 0.36263686 0.38741788 0.04711006
000370 56 da 77 3e 27 25 7f 3e 71 52 6e bd f2 5c ef 3e
       0.24204382 0.24916516 -0.05818409 0.467506
000380 84 c8 5e 3e 3b 62 59 bd 45 b6 92 3e a3 55 ad 3e
       0.21756178 -0.053072196 0.28654686 0.33854398
000390 f6 33 f7 3d 67 ac 5e bd 7e e8 02 3e 19 ef c3 3e
       0.12070458 -0.054363634 0.12784001 0.38268355
0003a0 e1 b2 fe bc 0f 02 25 3e a6 14 66 be a2 45 1e 3b
       -0.031091155 0.16114067 -0.22468814 0.002415039
0003b0 84 9e e2 3d c9 8a 77 3e 09 d3 4f 3c 8c 18 49 3d
       0.11065391 0.24174036 0.012684592 0.049095675
0003c0 b5 9f 11 3e 84 0c 6b 3e 18 50 5a 3e 1f c7 e7 3d
       0.1422108 0.22953993 0.21319616 0.11317276
0003d0 09 72 aa 3e 2f e0 8c 3e c0 d1 b3 3e 3d f3 b7 3e
       0.33290127 0.27514789 0.35120964 0.35927764
0003e0 a6 7a 30 3d 63 f6 24 bd 03 ef c5 3d 2f 57 9e 3e
       0.043085717 -0.040274035 0.096647285 0.3092589
0003f0 32 bc 22 3d be bb 01 3e 4d b5 c4 bb b6 78 94 bd
       0.03973026 0.12669274 -0.006003058 -0.07249586

fc.weight f4 [1, 64]
000000 71 a9 85 bf 8e 01 8d 3f f2 20 ed 3f 85 cd 93 3f
       -1.0442334 1.10161 1.8525679 1.1547095
000010 a7 03 2b c0 fd c2 a2 bf f3 70 8c 3f 26 9d 82 3f
       -2.672098 -1.2715756 1.0971969 1.0204208
000020 d7 c4 9c 3f 59 2b 89 bf 86 b9 92 3f b2 65 81 3f
       1.2247571 -1.0716354 1.1462867 1.010916
000030 5d cb 8e 3f a4 09 81 3f 58 3c c6 bf 02 01 92 3f
       1.1155812 1.0081067 -1.5487165 1.1406558
000040 f3 27 84 3f fb c6 00 40 f8 fc 91 3f 14 d6 16 c0
       1.0324692 2.0121448 1.1405325 -2.3568163
000050 36 8f c8 bf bf 24 89 bf 9e 71 91 3f 61 48 91 3f
       -1.5668705 -1.0714339 1.1362798 1.1350213
000060 41 6e 8c bf c1 c6 96 3f 29 6b 8a bf d5 c9 7f bf
       -1.0971147 1.1779405 -1.0813953 -0.99917346
000070 4b 41 97 bf be 2b c4 bf 73 4b ea bf af ad 95 bf
       -1.1816801 -1.5325849 -1.8304275 -1.1693629
000080 aa f5 9b 3f 4e 3f b6 bf 58 34 9e 3f 4a eb 8a 3f
       1.2184346 -1.4238069 1.2359724 1.0853055
000090 62 e1 9a 3f f8 a2 e0 bf dd 91 87 3f 15 bf 9f 3f
       1.2100031 -1.7549734 1.0591389 1.2480189
0000a0 98 2b 85 3f 14 a7 89 bf 70 a1 27 40 9b fe 92 bf
       1.0403929 -1.0754113 2.6192284 -1.148395
0000b0 90 be 93 bf 6d 99 87 3f 77 e1 be 3f 2c bd 83 bf
       -1.154253 1.0593697 1.4912556 -1.0292106
0000c0 c3 85 94 bf e1 0b 93 bf c8 63 8d bf b3 f8 91 3f
       -1.1603321 -1.1488 -1.1046076 1.1404022
0000d0 f8 bb 91 bf f4 dd 9e 3f d6 59 8e bf fc 01 90 bf
       -1.1385489 1.2411485 -1.1121166 -1.1250606
0000e0 a6 74 8e 3f 65 32 be bf f0 55 f4 bf fc 0d 87 3f
       1.1129348 -1.4859129 -1.9088726 1.0551143
0000f0 7c f5 98 3f 66 0f ad bf 8a 83 92 3f 03 5d 98 bf
       1.1949916 -1.3520324 1.1446393 -1.1903385

exp_avg f4 [11, 128]
000000 ba 28 d6 b9 6e 02 81 3a e0 12 f2 38 cf 1b 0b b9
       -0.00040847604 0.0009842643 0.00011542975 -0.00013266433
000010 20 84 a0 ba b1 a2 8b b9 02 d4 63 ba 06 37 28 b8
       -0.0012246408 -0.0002663336 -0.00086909544 -4.0105566e-05
000020 86 16 eb 39 67 00 d6 39 b5 d9 89 ba 76 ed 80 3a
       0.00044839474 0.0004081756 -0.0010517152 0.0009836394
000030 3f 18 96 3a 16 02 82 ba 75 94 9d ba 4f 2c 81 39
       0.0011451318 -0.0009918835 -0.0012022393 0.0002463781
000040 b5 0b a1 38 de d8 11 3a 34 31 7c 3a 99 00 9b ba
       7.679259e-05 0.0005563627 0.0009620369 -0.001182574
000050 a9 a8 4d 3a b1 7c 07 bb 37 19 ef ba 9b 71 08 3a
       0.0007845262 -0.0020673687 -0.0018241768 0.0005204917
000060 a7 09 e0 39 c4 03 68 39 05 a4 15 ba bf f4 c1 ba
       0.000427318 0.00022126647 -0.000570834 -0.0014797671
000070 19 30 a6 3a 10 e8 a5 38 ec 0d 60 3a 15 4c 27 3a
       0.0012679129 7.911038e-05 0.00085469964 0.00063818815
000080 40 f5 3b 38 76 f6 11 ba ef 68 48 3a f6 56 97 39
       4.481268e-05 -0.00055680366 0.0007645031 0.00028865755
000090 ea 09 9a b9 42 ea 78 b9 92 f1 ab 39 e0 05 51 ba
       -0.00029380555 -0.00023738391 0.00032795646 -0.0007973593
0000a0 f4 d8 dc ba c9 88 64 ba 3a bc 88 ba e1 44 95 ba
       -0.0016849325 -0.00087178923 -0.0010432072 -0.0011388325
0000b0 f3 d9 07 3b 77 3b 94 3a 60 ae 62 ba 82 32 6a ba
       0.0020729273 0.0011309226 -0.00086472 -0.0008933918
0000c0 af d7 12 ba e6 8e c4 b9 49 6a 84 ba 40 e8 fb ba
       -0.00056015974 -0.000374905 -0.0010102476 -0.0019218996
0000d0 06 88 fc 38 64 11 05 ba a4 72 cc ba 60 0b 7e b8
       0.00012041633 -0.0005076139 -0.001559813 -6.0568913e-05
0000e0 87 2a 2a b9 1e 09 cd 3a 62 55 db ba 99 da 84 3a
       -0.00016228306 0.0015642976 -0.001673382 0.0010135948
0000f0 a4 9f 89 38 32 9c 9e ba 97 9f bb b9 39 88 eb 3a
       6.5624045e-05 -0.0012100993 -0.00035786323 0.0017969675
000100 80 f7 c0 39 bc 4f 1c 3a fa 93 35 39 4c f8 bb 3a
       0.00036805496 0.0005962809 0.0001731663 0.0014340966
000110 8a c3 21 38 f4 14 ab b9 b1 e2 d1 ba 47 50 d5 b9
       3.85675e-05 -0.00032631273 -0.0016012994 -0.00040686337
000120 3e 99 cf ba d2 df 88 3a fa 43 90 b8 cb 4a 62 3b
       -0.0015838516 0.001044268 -6.879117e-05 0.0034529443
000130 dc 19 39 3a 70 96 86 ba 88 25 2f b9 c7 2e 30 3a
       0.0007061043 -0.0010268223 -0.00016703282 0.00067208376
000140 a7 b5 f1 38 c5 4c 3c 3a 26 11 47 b9 0a 1e c2 3a
       0.00011525611 0.00071830704 -0.00018984507 0.0014809978
000150 05 87 ce b9 fb 89 d6 b9 4e 66 08 3a 80 20 5b 3a
       -0.0003939198 -0.00040920064 0.0005203233 0.000835903
000160 42 aa ac ba 10 10 e4 37 a2 be e9 39 40 73 df b7
       -0.0013173299 2.7187198e-05 0.00044583256 -2.6637339e-05
000170 10 59 10 ba 88 6b cf 3a a6 28 b1 ba 0b 06 c5 38
       -0.00055064354 0.0015824893 -0.0013516142 9.3948176e-05
000180 c4 00 dc 38 6e 1e b8 b8 de 55 02 ba 5a 60 4f 3a
       0.0001049056 -8.779472e-05 -0.00049719017 0.0007910781
000190 c8 fa 59 ba ce 00 c4 39 4f f9 87 38 e3 71 0d bb
       -0.00083152624 0.00037384633 6.483739e-05 -0.0021582774
0001a0 74 61 b5 b8 0a 70 90 39 3c ec 4a ba 6b 30 d7 39
       -8.6489046e-05 0.00027549296 -0.000774089 0.0004104407
0001b0 8f ec 69 ba 7f 1c 4f 3a ed 5f 0d ba c4 18 48 3a
       -0.00089234946 0.00079006696 -0.0005393017 0.0007633085
0001c0 95 82 65 b9 bc f1 27 ba d8 c2 cc 38 88 47 93 37
       -0.00021887787 -0.00064065657 9.7637705e-05 1.7557075e-05
0001d0 5b 84 1c 3a 48 10 8b 3a 7a 2b ee 3a 2f 9f 65 39
       0.000597065 0.0010609711 0.0018170916 0.00021898442
0001e0 86 67 9d 3a 9c 7c 9d ba 80 da 8a 3a a8 b1 ea 38
       0.0012009002 -0.0012015286 0.0010593683 0.000111910806
0001f0 e1 69 50 ba 55 ef a7 b9 40 5c e6 39 de 13 75 3a
       -0.00079503475 -0.00032031038 0.0004393775 0.0009348969
000200 54 ea 3a 3b b5 21 42 ba c9 d3 0a ba 21 d2 c4 ba
       0.0028521018 -0.00074055354 -0.00052958407 -0.0015016237
000210 18 f6 14 3b 70 9a fb b9 40 a6 83 3a f0 b5 33 bb
       0.002272969 -0.00047989516 0.0010044053 -0.0027421676
000220 e8 18 25 bb e6 3a 81 bb 5b c0 02 3a 51 23 00 bb
       -0.0025191847 -0.003943789 0.00049877696 -0.00195523
000230 3d 6a 62 b9 9d e8 19 3b f0 30 e8 3a f6 20 c9 ba
       -0.00021592616 0.0023484596 0.001771478 -0.0015344906
000240 91 3d b8 ba 01 6f d5 ba ec b8 4c bb 51 8c 5e 3a
       -0.0014056434 -0.0016283692 -0.0031238152 0.00084895367
000250 09 14 4e ba 3d 82 3d 3b a0 db 26 3a 9a f9 b4 b9
       -0.0007861262 0.002891674 0.0006365124 -0.00034518243
000260 98 ae 73 b9 ba 86 e7 b9 cb 5d 16 3b 02 1c 14 3b
       -0.00023239327 -0.00044160133 0.0022944089 0.0022599702
000270 a6 0d d2 ba 79 73 d2 b9 ae ab a2 bb 7c a9 78 3a
       -0.0016025796 -0.00040140355 -0.0049643135 0.00094857044
000280 3e 5b 1b 3a c6 98 f7 b9 73 b2 4b 3a 81 f1 45 bb
       0.0005926377 -0.00047225336 0.00077704265 -0.0030203762
000290 91 39 91 ba a5 77 a8 ba c0 cc 67 38 55 ac 04 3a
       -0.0011079778 -0.001285304 5.526538e-05 0.000506108
0002a0 a8 b2 c9 b9 d0 19 09 3b 4a 43 38 b8 36 37 03 bb
       -0.00038470817 0.0020919926 -4.3931686e-05 -0.0020021922
0002b0 34 3d 0a bb fe 25 ce b9 82 e0 12 bb cc 05 70 bb
       -0.0021093609 -0.00039319688 -0.002241165 -0.003662455
0002c0 76 fa e6 39 01 0f 48 3a bf 59 38 ba c4 89 24 3b
       0.00044055626 0.000763163 -0.0007032416 0.0025106529
0002d0 20 cd ef 39 78 57 ea 3a 5f f9 e8 b9 84 cc a5 3a
       0.00045738462 0.0017878851 -0.00044436284 0.0012649451
0002e0 4a 73 cb 3a 32 f0 b9 ba 7e 0b 6c 3b 96 54 32 3b
       0.001552203 -0.0014185964 0.0036017592 0.0027211062
0002f0 63 62 b1 39 8a 2c 52 ba cf 6b 8b 3a 7e 72 81 ba
       0.00033833375 -0.0008017501 0.0010636988 -0.000987604
000300 6b 98 73 ba 13 42 c7 ba f7 1b de b9 60 d0 b3 38
       -0.00092924264 -0.0015202187 -0.00042363975 8.574198e-05
000310 6d f5 20 bb 4b 44 3e 3a d0 4a dd 39 1b dd 2e 3b
       -0.0024560348 0.0007258101 0.00042208144 0.0026682082
000320 1e 97 25 3b 5d 39 97 b8 12 f3 4e 3a 33 f7 98 bb
       0.0025267075 -7.210926e-05 0.00078944967 -0.0046681403
000330 7a 10 b0 ba 97 bf 5c 3a eb be 03 ba 3d 74 2a bb
       -0.0013432645 0.0008420883 -0.00050257024 -0.0026009225
000340 52 a7 94 ba 88 e3 54 b9 0e 23 67 ba 59 60 87 ba
       -0.0011341369 -0.00020302658 -0.0008817174 -0.0010328396
000350 cc 85 21 3b bc 94 5d bb d0 15 37 ba 1e 97 5b bb
       0.00246464 -0.0033810576 -0.00069841463 -0.003350682
000360 9d bc 98 3a e6 23 9d b9 00 45 4d b7 44 e9 8d ba
       0.0011652891 -0.0002997212 -1.22350175e-05 -0.0010826965
000370 a1 1d 48 39 d4 1b 30 bb c8 f1 36 3a da cc 0a ba
       0.00019084524 -0.0026872056 0.0006978777 -0.00052948075
000380 f3 c6 0e ba d4 01 cd ba 26 76 21 3a d2 ea 48 3a
       -0.0005446516 -0.0015640804 0.0006159268 0.00076643855
000390 f0 ae 95 b9 15 59 a5 ba 0d eb 83 bb 36 8c c9 3a
       -0.00028549833 -0.001261505 -0.004025823 0.0015376869
0003a0 44 fc 86 38 db 3d 9a ba 82 12 29 3b 1b c6 8f b8
       6.436606e-05 -0.0011767702 0.0025798385 -6.8556714e-05
0003b0 3a 66 14 b9 20 b3 41 bb af 87 a2 ba 96 c7 80 ba
       -0.00014152462 -0.002955623 -0.0012400056 -0.0009825106
0003c0 e9 ff 00 3b 70 bb a5 38 23 e7 cc b9 a2 4a a6 b9
       0.0019683784 7.902726e-05 -0.00039082122 -0.00031717593
0003d0 e6 9a bd b9 5c 69 24 bb 9d 3e 1f bb c3 a0 b3 b9
       -0.00036164297 -0.0025087213 -0.0024298795 -0.00034261317
0003e0 28 ca 0f 3a 8f 1e 02 3b 71 9b 57 bb c7 ed 06 bb
       0.0005485141 0.001985464 -0.0032899047 -0.0020588504
0003f0 92 23 11 bb 95 00 13 ba 20 08 ef b9 f1 be 70 bb
       -0.0022146446 -0.0005607692 -0.00045591686 -0.0036734904
