Lab7_ALTEGRAD_learning_on_sets_and_graph_generative_models/code/model_lstm.pth.tar (torch, 622178 bytes, 18 tensors)

embedding.weight f4 [11, 128]
0	0xbf9e1ab0	-1.2351894
1	0xbe9b5ded	-0.30345097
2	0xbddefa72	-0.108876124
3	0xbf0eca4a	-0.5577742
4	0x3e07fccc	0.13280028
5	0x3d8f9277	0.07010358
6	0xbf49ff5f	-0.7890529
7	0xbea2fefe	-0.3183517
8	0xbfe0428b	-1.7520307
9	0xc012f168	-2.2959843
10	0x3f42122b	0.7580897
11	0x3f45bb22	0.77238667
12	0x3fa18f7c	1.2621913
13	0xc00879c4	-2.132432
14	0x3df77eac	0.120847076
15	0xbe8a7917	-0.2704551
16	0xbeb0240d	-0.34402505
17	0xbe3abec9	-0.18236841
18	0xbfa3bb74	-1.2791581
19	0x3f5d63ed	0.864806
20	0xbf335e64	-0.70065904
21	0xbfce9844	-1.6140218
22	0x3f19cae2	0.600752
23	0x3d829154	0.063753754
24	0x3eed4779	0.46343592
25	0xbf812d99	-1.009204
26	0x3e3f8868	0.18704379
27	0x3e948e6b	0.29014906
28	0x3f905160	1.1274834
29	0x3fad2788	1.3527689
30	0xbe4b073f	-0.19826983
31	0x3fd35d33	1.6512817
32	0x40123d54	2.2849932
33	0x3eec0dcc	0.46104276
34	0xbf67c97e	-0.9054183
35	0x3f73c7c6	0.95226705
36	0xbf567fa1	-0.83788496
37	0xbfa08585	-1.2540747
38	0xbeb105e6	-0.34574813
39	0xbf1cd589	-0.6126333
40	0xbf0bf0e2	-0.54664433
41	0xbfc5bd2c	-1.5448356
42	0xbfad02ec	-1.3516517
43	0xbf1ddf45	-0.6166881
44	0xbfa29458	-1.2701521
45	0xbe8d6c83	-0.2762185
46	0x3f848ab0	1.0354824
47	0xbf170a93	-0.5900051
48	0xbf478988	-0.7794423
49	0xbfa9c91e	-1.3264501
50	0x3dadec7f	0.08492374
51	0x40075f40	2.1151886
52	0xbec91124	-0.3927089
53	0xbf254514	-0.6455853
54	0xbcea7387	-0.02861954
55	0xbf52ec17	-0.82391495
56	0x3e71e261	0.23621513
57	0x3f6400c1	0.8906365
58	0xbe20d2b3	-0.15705375
59	0x3f480f11	0.7814799
60	0xbfc36f89	-1.5268413
61	0x3f7dcaf7	0.99137825
62	0xbe5949f3	-0.21219616
63	0x3f360e11	0.71115214
64	0x3fc78c32	1.5589659
65	0xbea048b0	-0.31305456
66	0xbf8f2854	-1.1184182
67	0xbfc658e6	-1.549588
68	0xbd889587	-0.06669145
69	0xbfacd6d8	-1.3503065
70	0xbe494dcf	-0.19658588
71	0x3f46d262	0.7766477
72	0xbf557613	-0.8338329
73	0x3eb40df6	0.351669
74	0xbf942184	-1.1572728
75	0x3e42c086	0.19018754
76	0x3f00f0e9	0.503676
77	0xbf512ef5	-0.81712276
78	0x3fee4e60	1.8617668
79	0x3e5a3aa4	0.21311432
80	0x3e054ec6	0.13018331
81	0x3f945ed2	1.1591437
82	0x3f7e9293	0.99442405
83	0xbf88cc4f	-1.068735
84	0xbf2a8e1d	-0.666231
85	0x3e9655ca	0.29362327
86	0xbf3d220e	-0.7388009
87	0x3f93fef6	1.1562183
88	0xc00fb432	-2.2453732
89	0xbfcabac3	-1.5838245
90	0xbed54e7d	-0.41661444
91	0x3f368431	0.7129546
92	0xbfde561e	-1.7370031
93	0xbbd1122a	-0.006380339
94	0x3ff6e0a7	1.9287308
95	0xbf372373	-0.71538466
96	0xbead1331	-0.33803704
97	0xbeeaafac	-0.45837152
98	0xbf6266dc	-0.884382
99	0x3ffd0768	1.9767885
100	0xbf6da92e	-0.9283627
101	0xbf878fa3	-1.059071
102	0x3e9c2f2a	0.30504733
103	0xbfa3f58c	-1.280931
104	0xbf7f2488	-0.9966512
105	0xbea85da8	-0.32883954
106	0x3ed1b061	0.4095488
107	0x3ca3f21a	0.020012904
108	0x3f9662f9	1.1748954
109	0x3e622f98	0.22088468
110	0x3f242844	0.6412394
111	0xbf47f222	-0.7810384
112	0x3fc9a07e	1.5752103
113	0xbe9c56b4	-0.305349
114	0xbf54f8e7	-0.83192295
115	0xbf8190a1	-1.0122262
116	0xbef7e9d1	-0.48420575
117	0x3ff582fb	1.9180597
118	0xbef8ab1f	-0.48568055
119	0x3c9d0edd	0.019172126
120	0xbed6d79c	-0.41961372
121	0x3ee7c101	0.45264438
122	0xbf2f5211	-0.684846
123	0x3f7a269b	0.9771516
124	0xbfbebde9	-1.4901706
125	0xbf8ed48f	-1.1158618
126	0x3fa0b364	1.2554746
127	0xbf8755e2	-1.0573084
128	0x3e560663	0.20900874
129	0x3f0e918c	0.55690837
130	0xc007b424	-2.12037
131	0x3f0c7d8f	0.5487909
132	0x3f61d4b2	0.8821517
133	0x3f3ae5d0	0.73006916
134	0x3e8decae	0.27719635
135	0x3c0ee48a	0.00872148
136	0xbf0dc8bc	-0.5538442
137	0x3f1a04bc	0.60163474
138	0xbf1a9a02	-0.6039125
139	0x3f5da9ae	0.86587036
140	0x3f720998	0.9454589
141	0x3ebdcef2	0.3707195
142	0xbe724939	-0.23660745
143	0xbf90f15f	-1.1323661
144	0xbe93bd34	-0.28855288
145	0x3f4a606d	0.79053384
146	0xbec29f33	-0.38012084
147	0x3ee90b43	0.45516405
148	0xbf0a0fc6	-0.5393032
149	0xbfe90fda	-1.8207963
150	0x3f09ee53	0.5387928
151	0x3f79aad0	0.97526264
152	0xbfbaee3b	-1.4603952
153	0x3e76f13b	0.2411546
154	0x3e5f9a62	0.21836236
155	0xbbbf3a69	-0.0058358205
156	0xbeb3332a	-0.34999973
157	0xbef229e1	-0.47297576
158	0x3f4e95af	0.8069715
159	0x3f823e74	1.0175309
160	0x3f368668	0.7129884
161	0xbdd504ed	-0.1040133
162	0x3e22714f	0.15863536
163	0xbeb455a4	-0.3522159
164	0x3e080dcc	0.13286513
165	0xbfa7c6cf	-1.3107547
166	0x3e80dc1a	0.25167924
167	0x3e95b58a	0.29240066
168	0xbf81557c	-1.0104213
169	0xbead6b17	-0.33870766
170	0x3db9f2c9	0.09079511
171	0xbf2911ee	-0.66042984
172	0x403698f5	2.8530858
173	0xbec5e062	-0.38647753
174	0x3f6bac8e	0.9206017
175	0xbfc74d66	-1.5570495
176	0x3eda3985	0.4262201
177	0xbf977bff	-1.1834716
178	0xbea2f2f7	-0.31825992
179	0x3fb5530f	1.4165972
180	0x3ea4a9be	0.32160753
181	0x3f804aba	1.0022805
182	0x3eaf4985	0.34235778
183	0x3fbb0787	1.4611672
184	0x3a02aff7	0.0004985327
185	0xbe74a1df	-0.23889874
186	0xbf2b0457	-0.668035
187	0x3ecff9b5	0.406202
188	0x3de07f29	0.10961754
189	0xbd619875	-0.055077035
190	0x3f30c1c3	0.69045657
191	0xbeb37eab	-0.35057577
192	0x3df6b4ac	0.12046179
193	0xbff46d2c	-1.9095817
194	0xbf213a2e	-0.629794
195	0x3fb9fb93	1.4529899
196	0x3f00fa17	0.50381607
197	0xbf03a440	-0.514225
198	0xbd6c7163	-0.05772532
199	0x3fd6da58	1.6785383
200	0xbe9bf560	-0.30460644
201	0xbf8a83e4	-1.08215
202	0xbea7d0fe	-0.32776636
203	0xbfe37661	-1.7770501
204	0x3e0604bf	0.13087748
205	0x3fa389c0	1.2776413
206	0xbea45142	-0.32093245
207	0xbe99eba5	-0.30062595
208	0xbeb6f754	-0.3573557
209	0x3f9c3459	1.2203475
210	0xbf46ecbd	-0.77704984
211	0xbf0c16ba	-0.5472218
212	0x3ed56201	0.41676334
213	0x3fbadc1e	1.4598424
214	0xbfae0a0c	-1.3596816
215	0xbf01c06d	-0.50684243
216	0x3f1c56f6	0.6107019
217	0x3f78c3c3	0.9717371
218	0x3ce2acc9	0.027670281
219	0x3f62c692	0.88584244
220	0xbec414ed	-0.38297215
221	0xbeb36ce5	-0.35044017
222	0xbe954993	-0.29157695
223	0xbf7187b1	-0.94347674
224	0x3ecfb27d	0.40565863
225	0xbc8115a4	-0.01575739
226	0x3e9763d4	0.2956835
227	0xbe2bbc8e	-0.16771147
228	0xbd880888	-0.06642252
229	0xbe9126d7	-0.28349945
230	0x3f24a459	0.64313275
231	0xbebefd8a	-0.3730281
232	0x3dfbc3a9	0.122931786
233	0x3edbda4e	0.4293999
234	0x3ee18ae5	0.4405128
235	0xbef7298f	-0.48273894
236	0x3f3d2cc2	0.7389642
237	0xbf4ecddb	-0.8078286
238	0x3f4be9e6	0.79653776
239	0xbf68133c	-0.9065435
240	0x3b35617c	0.0027676513
241	0xbef2094e	-0.47272724
242	0xbf730fb4	-0.94945836
243	0x3f63dd44	0.890095
244	0xbf0ce738	-0.5504031
245	0x3e90176b	0.28142866
246	0xbb26e9af	-0.0025468876
247	0xbf917187	-1.1362771
248	0x3eb6fc00	0.35739136
249	0xbe04379c	-0.12911838
250	0x3ee957a8	0.4557469
251	0xbea202ae	-0.3164267
252	0x3fb3eb78	1.4056234
253	0xbfcf9850	-1.6218357
254	0xbefdf7c0	-0.4960308
255	0x3e229948	0.15878785

lstm.weight_ih_l0 f4 [256, 128]
0	0xbd24e9af	-0.04026192
1	0xbdefcb91	-0.11708749
2	0x3d135315	0.035967905
3	0xbe30eb14	-0.17277175
4	0xbd7c4f71	-0.0615992
5	0xbd519cbe	-0.05117487
6	0x3bece413	0.007229337
7	0xbd51c6b4	-0.05121489
8	0x3e171810	0.14755273
9	0xbda93a52	-0.08263077
10	0x3daf9e6a	0.08575137
11	0xbe8d4eef	-0.27599284
12	0x3d6f19b6	0.05837413
13	0xbd02468a	-0.031805553
14	0x3ae138f7	0.0017183115
15	0x3d132880	0.035927296
16	0x3e507ecd	0.2036087
17	0x3e30dc03	0.17271428
18	0xbc52fe4d	-0.012878013
19	0xbe47a63a	-0.19497004
20	0x3dacf7f8	0.08445734
21	0x3e84cc57	0.2593715
22	0xbbc658b1	-0.0060530533
23	0xbdb83760	-0.08994937
24	0x3cab27a1	0.02089292
25	0x3ceb2de9	0.028708415
26	0x3c153a0c	0.009108078
27	0xbd8c1f24	-0.06841877
28	0xbe12cf0b	-0.14336793
29	0x3cf29ed8	0.029616758
30	0x3e1e06af	0.15432237
31	0xbe5e9d1f	-0.21739624
32	0xbde30574	-0.110850245
33	0x3e19d7f3	0.15023784
34	0xbd5427b4	-0.051795676
35	0xbdc4d455	-0.096108116
36	0x3db52e29	0.08846695
37	0x3d8f8a9a	0.07008858
38	0x3d392dc3	0.045209657
39	0x3d8d70a9	0.06906254
40	0x3e252383	0.16126828
41	0x3e16c5e6	0.1472393
42	0x3d71a279	0.058992837
43	0x3d97c2df	0.074102156
44	0x3cb582a4	0.02215702
45	0xbd0b37d5	-0.033988792
46	0xbdf65c14	-0.12029281
47	0x3e138123	0.1440473
48	0xbd6b88fb	-0.05750368
49	0x3d8bb6e2	0.068219915
50	0x3cde3fa3	0.027129954
51	0xbd306975	-0.04306932
52	0xbdf44d3c	-0.11928794
53	0xbdbb498a	-0.09144886
54	0xbde41bd4	-0.1113812
55	0xbd92acb0	-0.07161844
56	0x3d593e78	0.05303809
57	0x3e211a8b	0.15732782
58	0xbdaa14e1	-0.083047636
59	0xbde1c7e3	-0.110244535
60	0x3d592665	0.05301513
61	0x3e386e2b	0.18010776
62	0x3c376ddb	0.011195625
63	0x3c942cf2	0.018087838
64	0xbe59f416	-0.21284518
65	0x3c9cecb4	0.019155838
66	0x3e145a8c	0.14487666
67	0xbd53b61b	-0.05168734
68	0x3d236410	0.03989035
69	0x3e550ded	0.20806094
70	0xbc634b67	-0.013872958
71	0x3d059f35	0.032622535
72	0x3e58a1db	0.21155493
73	0x3c738cdd	0.014865127
74	0x3c888bff	0.016668318
75	0x3e842103	0.25806436
76	0x3d7d8b94	0.06190069
77	0xbca25478	-0.019815668
78	0xbd922c6b	-0.07137378
79	0xbc842d74	-0.016134955
80	0xbd5e9965	-0.054345507
81	0xbe1d99a9	-0.15390648
82	0x3df82f96	0.12118451
83	0xbd955cde	-0.07293104
84	0x3e090c39	0.13383569
85	0xbd523ba9	-0.051326428
86	0xbcfab551	-0.030604037
87	0x3d77dc98	0.06051311
88	0xbd85e429	-0.06537659
89	0xbda4819f	-0.08032536
90	0xbe233010	-0.15936303
91	0xbdc7e69a	-0.09760781
92	0xbdce1ad4	-0.10063711
93	0xbde2443f	-0.11048173
94	0x3d0ae1fd	0.033906925
95	0xbd9e319e	-0.077243075
96	0x3e197b70	0.14988494
97	0x3e27b157	0.16376244
98	0xbe2724d6	-0.16322646
99	0x3da9abea	0.08284743
100	0x3b29a0ea	0.0025883266
101	0x3cc6cde1	0.024268093
102	0xbd6cc9b9	-0.057809565
103	0x3e3c51c9	0.18390574
104	0x3d9d9d41	0.076960094
105	0xbdc74f28	-0.09731895
106	0xbd7e8c4e	-0.062145524
107	0x3e83d01f	0.2574472
108	0xbe550657	-0.208032
109	0x3e01576f	0.1263101
110	0xbe4d8b57	-0.20072685
111	0x3c8c76ba	0.017146457
112	0x3cfec3d3	0.031099236
113	0x3d53e444	0.051731363
114	0x3e6b0bbe	0.22953698
115	0xbe26ca30	-0.16288066
116	0xbda6b5b6	-0.08140127
117	0xbc8787ee	-0.016544309
118	0xbc5a3692	-0.013318675
119	0x3d792ebe	0.060835592
120	0x3d406bf5	0.046977956
121	0x3cc7ffb1	0.024413915
122	0xbe3a3b63	-0.18186717
123	0xbddac064	-0.10681227
124	0x3da3babe	0.079946026
125	0x3bf7f588	0.0075671114
126	0x3de39458	0.11112279
127	0x3c01ccad	0.007922334
128	0x3dc64df1	0.09682835
129	0xbda61433	-0.081093214
130	0x3e05f324	0.13081032
131	0xbca839dd	-0.020535404
132	0xbdb65aa8	-0.0890401
133	0xbd534089	-0.051575217
134	0xbd9229f4	-0.07136908
135	0x3c427671	0.011869059
136	0x3d8501e7	0.064945035
137	0xbdd0229f	-0.101628534
138	0x3e0df5a5	0.13863237
139	0xbc3d6365	-0.011559342
140	0xbda39a65	-0.07988433
141	0x3d22137b	0.03956936
142	0x3d8eb5a2	0.069682375
143	0x3e373a95	0.17893441
144	0x3db549d0	0.08851969
145	0x3e24175a	0.16024533
146	0x3dc423ad	0.09577117
147	0x3c377092	0.011196272
148	0xbcb8fa10	-0.022580177
149	0x3df3b0c0	0.11898947
150	0x3d0d94ef	0.034565862
151	0xbd9b19c1	-0.075732715
152	0x3dcdcb9d	0.10048602
153	0x3db44a30	0.08803213
154	0x3e2c7ed6	0.16845259
155	0x3dd4b168	0.103854
156	0x3d532917	0.05155286
157	0xbd810862	-0.06300427
158	0xbdfcf3d1	-0.12351192
159	0xbe827d28	-0.25486112
160	0xbdd4a90e	-0.10383807
161	0x3c435aba	0.011923486
162	0xbd762fdf	-0.060104247
163	0xbd859243	-0.06522038
164	0x3db2212e	0.08697735
165	0x3df90e27	0.121609025
166	0x3e36cee5	0.17852362
167	0x3d4cd345	0.05000617
168	0x3d921c85	0.07134346
169	0x3e3da3c9	0.1851951
170	0x3c602e9b	0.013682987
171	0x3dc2d81d	0.095138766
172	0xbd52386b	-0.051323336
173	0x3b1232d2	0.0022308123
174	0xbe1f9d93	-0.15587454
175	0xbceff45f	-0.02929133
176	0x3cf3e2f1	0.0297713
177	0x3ba016c2	0.0048855254
178	0xbdcbc480	-0.09949589
179	0xbdefe87f	-0.11714267
180	0xbd08d346	-0.03340461
181	0x3d8ce92c	0.068804115
182	0xbda6db6b	-0.081473194
183	0xbdaaa2bd	-0.08331821
184	0xbcf3bdad	-0.02975353
185	0x3e0d31b6	0.13788494
186	0xbbc10333	-0.005890274
187	0xbd43158a	-0.047627963
188	0xbd137717	-0.036002245
189	0x3dc11535	0.09427873
190	0x3d46e3de	0.048557155
191	0xbd0f2ce8	-0.034954935
192	0xbd3f6d10	-0.04673487
193	0xbad78c58	-0.0016445024
194	0x3defba64	0.11705473
195	0x3ca7243d	0.020403022
196	0x3de09116	0.10965173
197	0x3d0039fd	0.031305302
198	0xbda1d5f0	-0.079021335
199	0xbe037290	-0.12836671
200	0x3e1e3ac6	0.15452108
201	0x3de97a49	0.11400277
202	0xbb42ff42	-0.0029754196
203	0x3bb52fe6	0.0055293916
204	0xbdaa8731	-0.08326567
205	0x3d2e87c8	0.04260996
206	0xbd5503b4	-0.052005485
207	0xbd4416e4	-0.047873393
208	0xbb31d81e	-0.0027136873
209	0xbdaaabd7	-0.08333557
210	0x3e2eed77	0.17082773
211	0x3dfabf2f	0.122434966
212	0x3d545688	0.051840335
213	0xbe0f02e8	-0.13965952
214	0x3daf06f8	0.08546251
215	0x3e046399	0.12928618
216	0xbd77b71b	-0.060477357
217	0x3c6dcd22	0.0145142395
218	0xbe0310ec	-0.12799424
219	0x3d23e19e	0.040010087
220	0x3c42f3e4	0.011898968
221	0xbd6b54f5	-0.05745407
222	0x3dc914c9	0.098184176
223	0x3d3a03bf	0.04541373
224	0xbca0f47b	-0.019647827
225	0xbc76d051	-0.015064315
226	0x3c49f7e2	0.012327166
227	0x3d43dfc6	0.04782083
228	0xbe14c8e6	-0.14529762
229	0x3de4068d	0.11134062
230	0x3cc1d90a	0.023663063
231	0x3dc4074c	0.09571704
232	0x3d9b8847	0.07594352
233	0x3de24c97	0.110497646
234	0x3da3a1f8	0.079898775
235	0x3e3e3782	0.18575862
236	0xbe5d467d	-0.2160892
237	0x3e256001	0.16149904
238	0xbdc71552	-0.097208634
239	0x3e182b67	0.14860307
240	0x3c264133	0.010147381
241	0x3da5135a	0.08060332
242	0x3dcec12e	0.1009544
243	0x3d4a5225	0.049394745
244	0xbdeb46c4	-0.11488107
245	0xbc9322f7	-0.017961008
246	0x3e1352f5	0.14387114
247	0xbc31fb6b	-0.010863165
248	0x3cbe4fb5	0.023231367
249	0x3a94856d	0.0011331268
250	0xbe0da23d	-0.1383142
251	0xbdb11b63	-0.08647802
252	0xbcd4ec32	-0.025991533
253	0xbd378a30	-0.04480952
254	0xbd1f7e31	-0.038938705
255	0xbde4ff10	-0.11181462

lstm.weight_hh_l0 f4 [256, 64]
0	0x3e07973e	0.13241288
1	0x3df6103d	0.12014816
2	0x3e3d70f2	0.18500116
3	0x3da9b2b2	0.082860366
4	0x3ec72ce4	0.38901436
5	0x3d237e3f	0.03991532
6	0xbbc74ab5	-0.006081904
7	0x3da71d72	0.08159913
8	0xbd6fba15	-0.05852707
9	0xbd84d2f8	-0.064855516
10	0x3eeb8865	0.46002498
11	0xbe65eab8	-0.2245282
12	0xbd7b4fcf	-0.06135541
13	0x3c8febfa	0.017568577
14	0x3ebd0f71	0.36925843
15	0x3cfdccd0	0.030981451
16	0x3d0a2831	0.033729736
17	0xbac00fca	-0.0014653143
18	0xbd0159a5	-0.031579632
19	0xbe15de00	-0.14635468
20	0xbd78ae3b	-0.060713034
21	0xbdc21dfe	-0.09478377
22	0xbd1de576	-0.03854891
23	0xbe16f4da	-0.14741841
24	0xbe2ab57b	-0.16670792
25	0x3e2cb685	0.168665
26	0x3e226e2c	0.1586234
27	0xbdf8e393	-0.12152781
28	0xbc4f52ef	-0.01265405
29	0x3e3b023a	0.18262568
30	0x3e04fdb3	0.12987404
31	0x3d9c90b6	0.07644789
32	0x3d82b12a	0.063814476
33	0x3d287b3a	0.041133143
34	0xbe05e25e	-0.13074633
35	0xbe6cfa5c	-0.2314238
36	0xbe5df81d	-0.21676679
37	0x3d596b50	0.053080857
38	0xbd1d94f7	-0.038472142
39	0x3d0cae60	0.034345984
40	0x3e02f4f2	0.12788752
41	0xbd1a8f4e	-0.037734322
42	0xbcd340ea	-0.02578779
43	0x3dfa7760	0.122298
44	0xbe6e6d6b	-0.23283927
45	0xbee5071d	-0.4473199
46	0x3c3678b5	0.011137177
47	0x3db226c7	0.086988024
48	0xbe18a4eb	-0.14906661
49	0xbd1fba57	-0.038996067
50	0xbdef4061	-0.11682201
51	0xbcfaf4c2	-0.030634288
52	0x3e142e2f	0.14470743
53	0x3e0a2227	0.1348959
54	0x3dec8c57	0.11550205
55	0x3e0818bc	0.13290685
56	0xbe150065	-0.14550932
57	0xbe07ebc4	-0.13273531
58	0xbce450a3	-0.027870482
59	0x3de3b722	0.11118914
60	0xbbba3361	-0.0056823944
61	0xbd34ce89	-0.04414228
62	0xbc3a03c8	-0.011353441
63	0x3e8204eb	0.25394377
64	0xbdbe52e7	-0.09293156
65	0xbdeefb9b	-0.11669084
66	0xbe6d125d	-0.23151536
67	0xbda0e56a	-0.07856257
68	0x3e61845d	0.22023149
69	0xbdd3de1f	-0.103451006
70	0x3c62eef2	0.013850914
71	0x3e3e07a9	0.1855761
72	0xbd292601	-0.04129601
73	0x3cd61553	0.026133215
74	0x3e04f73e	0.1298494
75	0xbdeba2bf	-0.11505651
76	0x3e3d72cc	0.18500823
77	0xbd44edf5	-0.048078496
78	0x3e1fc39e	0.15601966
79	0x3e9c1c8e	0.30490535
80	0x3dafece6	0.08590107
81	0xbe1839ff	-0.14865874
82	0x3d5aafef	0.05339044
83	0x3f0ab358	0.54179907
84	0xbe3841b9	-0.17993821
85	0xbd3a0973	-0.045419168
86	0xbe267a45	-0.1625758
87	0xbc5f0642	-0.013612332
88	0x3da7bc72	0.0819024
89	0xbe0abc8f	-0.13548492
90	0xbd9539d6	-0.07286422
91	0xbb8791d3	-0.0041372566
92	0xbe09d151	-0.13458754
93	0x3de1b5c2	0.11020996
94	0x3d554258	0.052065223
95	0xbd4b8a8d	-0.04969268
96	0x3c2e5a5e	0.010641662
97	0xbd8a095a	-0.06740065
98	0x3e3b5cec	0.18297166
99	0x3e977f61	0.2958937
100	0xbd83cc9c	-0.064355105
101	0xbf4d5d5e	-0.8022059
102	0xbe0a29a9	-0.13492455
103	0x3d86298d	0.06550894
104	0xbe44c505	-0.19215782
105	0x3df9db96	0.12200086
106	0x3d5ed3eb	0.05440132
107	0xbe313084	-0.17303663
108	0xbe5036f3	-0.20333461
109	0xbe0af01a	-0.13568154
110	0xbd80944c	-0.062782854
111	0x3d549334	0.051898196
112	0x3e08da9a	0.1336464
113	0x3e3a22bb	0.18177311
114	0x3d9cdd31	0.076593764
115	0x3d1b08ce	0.037850194
116	0xbc8bb72d	-0.017055118
117	0x3cb009ce	0.02148905
118	0x3ea72175	0.32642713
119	0xbf0a0d7d	-0.5392683
120	0x3d9439d4	0.07237592
121	0x3e1bd944	0.15219599
122	0x3d7848c2	0.060616262
123	0xbc4d3758	-0.012525402
124	0x3d042d3e	0.03226971
125	0x3e24704e	0.16058466
126	0x3d01af80	0.03166151
127	0xbc36467b	-0.011125202
128	0xbe5544c9	-0.2082702
129	0xbdb99edc	-0.09063503
130	0x3d583af1	0.052790586
131	0x3d8c67f5	0.06855766
132	0x3e0bc9c5	0.13651188
133	0x3e980dd0	0.29698038
134	0x3bbeca70	0.0058224723
135	0xbd18314e	-0.037156396
136	0xbd5be342	-0.053683527
137	0x3d51e979	0.051248048
138	0xbcc05db3	-0.02348218
139	0xbdec7731	-0.115461715
140	0x3d88bd17	0.06676691
141	0xbdfe92e6	-0.124303624
142	0x3dbebb2a	0.093130425
143	0xbdc1baad	-0.09459434
144	0x3d85e13a	0.06537099
145	0x3cb24f25	0.021766255
146	0xbd8075da	-0.062724784
147	0xbd987437	-0.07444041
148	0xbd1acb56	-0.037791573
149	0x3e0acfcb	0.13555829
150	0x3d1f8ff9	0.038955662
151	0xbe25aa84	-0.16178328
152	0x3e1180ff	0.14209364
153	0x3b7864b0	0.0037901811
154	0x3dcc1c1b	0.09966298
155	0xbdb5daa1	-0.08879591
156	0x3d2a9085	0.04164173
157	0x3ea58fa2	0.32336146
158	0xbcfd5ca7	-0.03092797
159	0xbd773d84	-0.0603614
160	0x3d31c5e8	0.04340163
161	0x3e5d3efb	0.21606056
162	0x3b656a61	0.0035006034
163	0x3e730190	0.23731065
164	0x3dcb2f78	0.09921163
165	0x3e329fe9	0.17443813
166	0xbe05b3ad	-0.13056822
167	0xbb89f2b1	-0.0042098393
168	0x3ca7b558	0.020472214
169	0x3db3c536	0.087778494
170	0xbd08f996	-0.03344115
171	0x3d3345f2	0.043767877
172	0xbe8c4117	-0.2739341
173	0xbe29001c	-0.16503948
174	0x3d0b616e	0.034028463
175	0x3edb5384	0.42837155
176	0x3d137fd3	0.036010575
177	0xbb2deb84	-0.0026538083
178	0xbd21e01c	-0.039520368
179	0x3b818f42	0.0039538452
180	0x3d0c5063	0.03425635
181	0xbdb52ed4	-0.088468224
182	0x3d9f88ae	0.077897415
183	0xbcf4c73c	-0.029880159
184	0xbd004af2	-0.031321473
185	0xbc83d4dd	-0.016092712
186	0xbd3a1fff	-0.04544067
187	0xbdaee4fc	-0.08539769
188	0xbdaebc56	-0.08532016
189	0x3e15d0a0	0.14630365
190	0x3e878f6b	0.26476607
191	0x3ddce9f1	0.10786808
192	0x3d86bc53	0.06578889
193	0xbdeb16ba	-0.11478944
194	0xbd89764d	-0.06712017
195	0x3e19b538	0.15010536
196	0x3dade799	0.08491439
197	0xbdab955e	-0.08378099
198	0x3ce0ac73	0.02742598
199	0x3dd620c7	0.104554705
200	0x3d951a8f	0.07280456
201	0xbde5177f	-0.11186122
202	0xbdc897cd	-0.09794579
203	0xbe1a1c28	-0.15049803
204	0x3e45e9d7	0.19327484
205	0x3a7e00b1	0.0009689434
206	0x3e683265	0.22675474
207	0x3e9d3c2c	0.3070997
208	0xbc0881d5	-0.008331736
209	0xbe610400	-0.21974182
210	0x3d32309e	0.043503396
211	0x3e880570	0.26566648
212	0xbe1213c8	-0.14265358
213	0xbdda4ced	-0.10659204
214	0xbe19ecf8	-0.15031803
215	0x3c879830	0.01655206
216	0x3ee19acc	0.44063413
217	0xbe48d98b	-0.19614236
218	0xbdb06876	-0.08613674
219	0x3d96910b	0.073518835
220	0xbe0544a4	-0.13014466
221	0x3d82729d	0.06369517
222	0xbd5284f5	-0.05139633
223	0xbc5f3e52	-0.013625698
224	0x3daa7888	0.08323771
225	0x3db5e70c	0.08881959
226	0x3d85498c	0.065081686
227	0x3e8df599	0.2772644
228	0x3e8a3653	0.2699457
229	0xbeeab9f9	-0.4584501
230	0xbe0d90d7	-0.13824783
231	0x3e43d9e0	0.19126081
232	0xbbdcce92	-0.0067384923
233	0x3d813f4c	0.06310901
234	0x3e586dd3	0.21135645
235	0xbe42baf7	-0.19016634
236	0xbde42806	-0.11140446
237	0xbe7e1460	-0.2481246
238	0xbca9142d	-0.020639503
239	0xbe30c5a6	-0.17262897
240	0x3dd48f87	0.10378938
241	0x3cc53e9e	0.02407771
242	0xbd46fd7f	-0.048581596
243	0x3cf253f7	0.029581053
244	0xbe064685	-0.13112839
245	0xbdf035db	-0.11729022
246	0x3e117ddf	0.14208172
247	0xbea3bfec	-0.31982362
248	0x3d2c0e8f	0.04200607
249	0xbd3d3d70	-0.04620117
250	0xbde61a69	-0.11235506
251	0x3dc6eab3	0.09712734
252	0xbe007299	-0.12543716
253	0x3d0a3fdf	0.03375232
254	0x3d69a932	0.057046123
255	0x3b660ab4	0.0035101594

lstm.bias_ih_l0 f4 [256]
0	0xbe0663fa	-0.13124076
1	0xbc67eb21	-0.01415518
2	0xbe48913f	-0.19586657
3	0xbbb25b02	-0.005442978
4	0x3ded8864	0.1159828
5	0x3da6b7f0	0.08140552
6	0xbdd7b88c	-0.105332464
7	0xbcb2bfd4	-0.021819986
8	0xbe57c781	-0.21072198
9	0xbce41e2c	-0.027846418
10	0xbc889420	-0.016672194
11	0xbe890b88	-0.2676661
12	0x3dee9582	0.1164961
13	0xbe3e2b54	-0.18571216
14	0xbd238049	-0.039917264
15	0xbe35bf68	-0.17748797
16	0x3bfc4304	0.0076984186
17	0x3eabd554	0.33561194
18	0xbce20b6f	-0.027593343
19	0xbd803795	-0.062606014
20	0xbd85b332	-0.065283194
21	0xbe84ca3c	-0.25935543
22	0x3e1e1dfe	0.15441129
23	0x3e40cec5	0.18828876
24	0xbdd7bdee	-0.10534273
25	0x3e4ba0ca	0.19885555
26	0x3e471447	0.19441329
27	0xbe014e10	-0.12627435
28	0xbdedb407	-0.11606603
29	0x3e12bac6	0.14329061
30	0x3e551948	0.20810425
31	0xbe3a093e	-0.18167588
32	0xbdba842e	-0.091072425
33	0xbe2ba1fa	-0.16761008
34	0x3dc701c9	0.09717137
35	0xbe7936ca	-0.24337307
36	0xbe9c023c	-0.30470455
37	0xbe37cddb	-0.17949621
38	0xbe4a0856	-0.19729742
39	0x3ec144dd	0.3774785
40	0x3d380392	0.04492528
41	0xbdf57d01	-0.11986733
42	0x3d1dc76b	0.038520258
43	0x3e73bd25	0.23802622
44	0xbc3d5a59	-0.011557185
45	0x3b56cd34	0.003277612
46	0x3e81cb6c	0.2535051
47	0xbd47b637	-0.048757758
48	0xbd08041c	-0.033207044
49	0xbddfc636	-0.109264776
50	0x3d2abfb3	0.041686725
51	0xbc53752b	-0.012906353
52	0x3e557576	0.20845589
53	0x3ef30bdb	0.47469983
54	0x3dd38514	0.10328117
55	0x3dda8cdf	0.106714
56	0xbd18f8ff	-0.037346836
57	0xbe33f738	-0.17574775
58	0xbdbe44ea	-0.09290488
59	0xbeb11319	-0.34584883
60	0xbd1416d9	-0.0361546
61	0xbe353ddd	-0.1769938
62	0xbd78da96	-0.060755335
63	0x3c8e34e0	0.017359197
64	0xbb067a07	-0.0020519511
65	0x3e888c4b	0.26669535
66	0x3e72f14c	0.2372486
67	0x3e007169	0.12543263
68	0x3ea71cc1	0.32639125
69	0x3dcbfc70	0.09960258
70	0x3d50dba3	0.050990712
71	0x3d85fe8a	0.0654269
72	0x3da5f478	0.08103269
73	0x3ccd1bc2	0.02503765
74	0x3df3b26a	0.11899264
75	0xbe0d58eb	-0.13803451
76	0x3e09db73	0.1346262
77	0x3e179871	0.14804246
78	0x3e16dc6e	0.14732525
79	0x3e1c0e52	0.15239838
80	0x3e518f1a	0.20464745
81	0x3e392d1d	0.18083616
82	0x3d2d1d75	0.04226442
83	0x3e1bad11	0.15202738
84	0x3e4088cd	0.18802185
85	0x3e66d4dd	0.22542138
86	0x3da5b9b7	0.08092063
87	0xbba06ae0	-0.004895553
88	0xbc0a8134	-0.008453656
89	0x3d7a186f	0.061058458
90	0xbe511bd8	-0.20420778
91	0x3de76804	0.11299136
92	0x3e3246dc	0.17409843
93	0x3db6a652	0.08918442
94	0x3ea09f3b	0.31371483
95	0x3e6beb2f	0.23038934
96	0x3def076f	0.1167134
97	0x3e29d868	0.16586459
98	0x3e5c6a2b	0.21524875
99	0xbc93e5f3	-0.018053984
100	0x3c494d91	0.01228656
101	0x3e0084ee	0.12550709
102	0x3d7ad404	0.06123735
103	0x3e49ed25	0.1971937
104	0x3e227234	0.15863878
105	0x3e46026b	0.1933686
106	0x3db36883	0.087601684
107	0x3e96cbd9	0.29452398
108	0x3e5cd564	0.21565777
109	0x3eb2556a	0.3483079
110	0x3ecf03ff	0.40432736
111	0xbb1a56e6	-0.002355033
112	0x3e6f7bcd	0.2338707
113	0x3b8a62df	0.004223212
114	0x3e930fb2	0.28722912
115	0x3dcf8d55	0.10134379
116	0x3e8b6f25	0.27233234
117	0x3dd54e63	0.10415342
118	0x3dbc0533	0.09180679
119	0x3e1e0827	0.15432797
120	0x3db949cf	0.09047281
121	0x3e189c5f	0.14903401
122	0x3e56e5bb	0.20986073
123	0xbe01f9c7	-0.12692939
124	0x3de9a7ee	0.11408983
125	0x3d26dece	0.040739827
126	0x3dbeca45	0.093159236
127	0x3e621761	0.22079231
128	0xbcd94925	-0.026524136
129	0xbc8a7785	-0.016902694
130	0xbc4102fa	-0.011780495
131	0xbe0bc306	-0.13648614
132	0xbd92fd47	-0.07177215
133	0x3d721d7b	0.059110146
134	0xbdd5e6f9	-0.10444445
135	0x3d22216a	0.039582647
136	0xbd10c0e9	-0.035340223
137	0xbd82c14c	-0.06384525
138	0xbdcf6ec2	-0.10128547
139	0xbcce55a7	-0.025187327
140	0x3e3dbcc1	0.18529035
141	0x3ce90e49	0.028449195
142	0x3c63feb1	0.013915704
143	0xbe783025	-0.24237116
144	0xbd80cf63	-0.06289556
145	0xbe2cb691	-0.16866519
146	0x3cb2f8ba	0.021847118
147	0xbc5d33a1	-0.013501079
148	0xbddd98d2	-0.10820164
149	0x3c6f2921	0.014597208
150	0xbe1f1687	-0.15535937
151	0xbd179f0a	-0.037016906
152	0x3db8f21a	0.09030552
153	0xbe8b3c1a	-0.2719429
154	0xbdffc342	-0.12488414
155	0xbdaeca4b	-0.08534678
156	0xbe24dbd8	-0.16099489
157	0x3c92aa71	0.017903538
158	0xbea49226	-0.32142752
159	0xbe32a982	-0.17447475
160	0x3dc03ad6	0.09386222
161	0x3e17a9ef	0.14810918
162	0x3e4a3b91	0.19749285
163	0x3d97157d	0.073771454
164	0xbd391088	-0.04518178
165	0xbd2adad2	-0.04171259
166	0xbe176ba2	-0.14787152
167	0x3ece1a7f	0.4025459
168	0xbe53e064	-0.20691067
169	0x3de2984a	0.11064203
170	0x3e804eb1	0.25060037
171	0xbe845cd9	-0.25852087
172	0x3d538a65	0.051645655
173	0xbdca48bc	-0.09877154
174	0x3e8c9a0d	0.2746128
175	0xbe169a06	-0.14707193
176	0x3e618519	0.22023429
177	0x3e187f40	0.14892292
178	0x3cae799a	0.021298219
179	0xbe5ed0b2	-0.21759298
180	0xbc790950	-0.015199974
181	0xbe32baa1	-0.17454006
182	0x3e16dcd8	0.14732683
183	0x3d17eba7	0.03708997
184	0x3d4743c3	0.048648607
185	0x3e52301d	0.20526166
186	0x3d40b66d	0.047048975
187	0xbddc924c	-0.107700914
188	0xbdf86075	-0.12127773
189	0x3d26970e	0.0406714
190	0x3d18f20b	0.037340205
191	0x3df59fa1	0.119933374
192	0x3c8b07d6	0.01697151
193	0xbd4a5d48	-0.049405366
194	0xbe0c8b60	-0.13725042
195	0x3ecab5c1	0.39591792
196	0x3efd77b5	0.49505392
197	0x3dbe51c5	0.0929294
198	0xbcd0354d	-0.02541604
199	0x3bbf5ead	0.0058401437
200	0xbdfcbfb7	-0.12341254
201	0xbdf5b5f6	-0.11997597
202	0x3e5df509	0.21675505
203	0x3c5a6c31	0.013331459
204	0x3d4286b9	0.047491763
205	0xbc7c12d3	-0.015385347
206	0x3ed9d5c7	0.42545912
207	0xbdff21a6	-0.1245759
208	0xbd86a9be	-0.065753445
209	0x3e9c1f1f	0.30492494
210	0x3dfc961e	0.1233332
211	0xbe245ca4	-0.16050965
212	0x3c91811c	0.01776176
213	0x3d8be2c3	0.06830361
214	0x3ec7d823	0.39032087
215	0xbe35a7d0	-0.17739797
216	0x3d99ae2f	0.07503926
217	0x3eb70273	0.35744056
218	0x3eaed661	0.34147933
219	0x3e3cde64	0.1844421
220	0x3eb96a97	0.36214134
221	0x3f010d00	0.5041046
222	0x3ebeb679	0.3724859
223	0x3d91e74a	0.07124193
224	0xbda8ea0d	-0.08247767
225	0xbda9cba2	-0.08290793
226	0x3e7406df	0.23830746
227	0x3e8239b8	0.2543466
228	0x3d8c29eb	0.06843933
229	0x3dad3160	0.08456683
230	0x3ccfc3ff	0.025362013
231	0x3eadcfee	0.339477
232	0x3d90df51	0.07073844
233	0x3e06331f	0.13105439
234	0x3eb02d37	0.34409496
235	0x3e8b78d3	0.2724062
236	0x3eca0eb6	0.3946435
237	0x3ed814a8	0.4220326
238	0xbe1bffec	-0.15234345
239	0x3d0760ce	0.033051305
240	0x3bff71bb	0.00779554
241	0x3db6c35b	0.0892398
242	0x3e577842	0.21041968
243	0x3cdf358a	0.02724721
244	0xbbf4d9d2	-0.0074722553
245	0x3e643a72	0.2228792
246	0x3b2a407f	0.0025978384
247	0x3e3b6725	0.18301065
248	0x3ec1daca	0.37862235
249	0xbd6851d0	-0.056718647
250	0xbdeee216	-0.11664216
251	0x3e874542	0.26420027
252	0x3e9f2aba	0.31087285
253	0xbdcdbb25	-0.100454606
254	0x3dcf476e	0.10121046
255	0x3ee526d3	0.44756183

lstm.bias_hh_l0 f4 [256]
0	0xbd135216	-0.035966955
1	0xbe2a73af	-0.16645692
2	0xbe6a9c8d	-0.22911282
3	0x3c2adeaa	0.010429064
4	0xbdca66ac	-0.09882864
5	0xbd577c87	-0.052608993
6	0xbdead75e	-0.11466859
7	0xbb9d76ee	-0.0048054373
8	0x3c046c25	0.008082424
9	0xbe04cd3b	-0.12968914
10	0x3d6535c4	0.055959478
11	0xbdfbc268	-0.122929394
12	0x3e36f760	0.17867804
13	0xbbfc3089	-0.0076962155
14	0x3da45ca4	0.08025482
15	0xbe6a10f2	-0.22858027
16	0x3b9d21c8	0.004795287
17	0x3ea53580	0.3226738
18	0xbe2a4d87	-0.16631137
19	0xbda1004d	-0.078613855
20	0xbd7316a1	-0.059347752
21	0xbe85668e	-0.26054806
22	0x3e653b80	0.22385979
23	0x3d95aa10	0.073078275
24	0xbd963452	-0.07334198
25	0x3e5f71c6	0.21820745
26	0x3ea0229f	0.31276414
27	0xbe0b04e5	-0.13576086
28	0xbe0d90ab	-0.13824718
29	0x3de01367	0.10941201
30	0x3ea1643a	0.3152178
31	0xbcd3aa27	-0.02583797
32	0xbc04c2b3	-0.008103061
33	0xbe2674bc	-0.16255468
34	0x3db84bd5	0.08998839
35	0xbe0bc646	-0.13649854
36	0xbea28e28	-0.31749082
37	0xbe350b7f	-0.17680167
38	0xbd5e4d35	-0.05427285
39	0x3ed54e8a	0.41661483
40	0x3d13437b	0.035953026
41	0xbe26b060	-0.16278219
42	0xbd84cbeb	-0.06484207
43	0x3e4970ab	0.19671886
44	0xbba40ddb	-0.0050065345
45	0x3d8228f7	0.0635547
46	0x3ea75989	0.32685497
47	0xbe39329e	-0.18085715
48	0xbba83fc3	-0.005134554
49	0xbc99f9b4	-0.018795826
50	0x3dc9fe24	0.098629266
51	0x3d37806b	0.044800203
52	0x3df9da8d	0.121998884
53	0x3eac8b35	0.33699957
54	0xbd8f22fe	-0.06989096
55	0xbcb433fc	-0.021997444
56	0xbcd8c021	-0.026458802
57	0xbe1c1418	-0.1524204
58	0xbdd0e2ae	-0.10199486
59	0xbe501da7	-0.20323811
60	0x3dd7fd06	0.10546307
61	0xbe903dd2	-0.28172165
62	0xbe346191	-0.17615344
63	0xbd87e99f	-0.066363566
64	0xbd3c4a98	-0.045969576
65	0x3e292b42	0.16520408
66	0x3c4f35e5	0.012647127
67	0x3e986ce1	0.29770568
68	0x3e55fb0c	0.20896548
69	0x3de9d328	0.11417228
70	0x3dca7349	0.0988527
71	0x3d749a44	0.05971743
72	0x3dbb61e8	0.091495335
73	0xbd888c06	-0.06667332
74	0x3e20b66c	0.15694588
75	0x3beef9c4	0.007292958
76	0x3d94cc6a	0.072655514
77	0x3e66580d	0.22494526
78	0x3d5286a4	0.051397935
79	0x3e5f3de2	0.2180095
80	0x3dfc5648	0.12321144
81	0x3e21e76d	0.15810938
82	0x3e206ef0	0.1566732
83	0x3e1b1c37	0.15147482
84	0x3e11d8b9	0.1424283
85	0x3c504af3	0.012713182
86	0x3e6773b1	0.22602727
87	0x3e4d0967	0.20023118
88	0x3c3c59d7	0.011496029
89	0x3c3ba8e5	0.011453842
90	0xbe22e5a2	-0.1590791
91	0xba2bd501	-0.00065548724
92	0x3d995edf	0.07488798
93	0x3e1f704e	0.15570185
94	0x3e74f422	0.23921254
95	0x3e5ac2e3	0.21363406
96	0x3e93f869	0.2890046
97	0x3def7e4e	0.116940126
98	0x3a827de1	0.0009955728
99	0x3e64e84b	0.22354238
100	0x3bf16876	0.007367189
101	0x3d1c79ac	0.038201973
102	0x3e892d59	0.2679241
103	0x3e4ef9b5	0.20212443
104	0x3e4d1da6	0.20030841
105	0x3e8c343f	0.2738361
106	0x3e40d5d2	0.18831566
107	0x3dcce96c	0.10005459
108	0x3e4d2d30	0.20036769
109	0x3e6dfa2b	0.23239963
110	0x3e58ac7f	0.21159552
111	0x3c789164	0.015171383
112	0x3e85647b	0.26053223
113	0x3db6adfb	0.08919903
114	0x3e2afb3f	0.16697405
115	0x3ddf3d17	0.10900324
116	0x3e1b161b	0.15145151
117	0x3e4ec759	0.20193233
118	0x3e4fa47a	0.20277587
119	0x3e1f7837	0.15573202
120	0x3bcabe26	0.0061872182
121	0x3e00dbd6	0.12583861
122	0x3e05ea03	0.1307755
123	0xbe1d3e09	-0.15355696
124	0x3db83304	0.089941055
125	0x3d024026	0.031799458
126	0xbd7ccb34	-0.061717227
127	0x3dfb3ca6	0.12267427
128	0xbdda01b2	-0.106448546
129	0xbe6b2fae	-0.22967407
130	0x3e4fa737	0.20278631
131	0xbd4b412b	-0.049622696
132	0xbc0358d7	-0.008016787
133	0x3d446805	0.047950763
134	0x3d08861b	0.033331018
135	0xbdafcd7c	-0.08584115
136	0xbe271600	-0.16316986
137	0xbdd8e7a8	-0.1059106
138	0x3d85d097	0.06533926
139	0xbdec0aca	-0.11525495
140	0x3e340fbd	0.17584129
141	0x3d7f8404	0.06238176
142	0x3dc2b179	0.095065065
143	0xbdf9d704	-0.12199214
144	0x3e152a62	0.14566949
145	0xbea37e33	-0.3193222
146	0x3db39cc1	0.08770133
147	0xbce78df4	-0.02826593
148	0xbd3aaa1a	-0.045572378
149	0x3daab926	0.083360955
150	0xbe9af2b1	-0.30263284
151	0xbcbe7022	-0.023246828
152	0xbdbe0e24	-0.09280041
153	0xbe6b9f61	-0.23010017
154	0xbe6a2c05	-0.22868355
155	0x3caaf23c	0.02086746
156	0xbde7f34c	-0.11325702
157	0xbd1a042d	-0.03760164
158	0xbe3ceb85	-0.18449219
159	0xbdf7b026	-0.120941445
160	0x3ce389e9	0.027775722
161	0xbc0e5f14	-0.008689661
162	0x3dc777c3	0.097396396
163	0xbc05c0ed	-0.008163673
164	0xbd56109e	-0.05226194
165	0x3dc66775	0.096877016
166	0xbe867b87	-0.2626612
167	0x3ea0df01	0.31420138
168	0xbe0ebba6	-0.1393877
169	0x3e2500d5	0.16113599
170	0x3e70ec9b	0.23527758
171	0xbe4ddae5	-0.20103033
172	0xbe1719e3	-0.14755969
173	0xbd4a92a3	-0.04945625
174	0x3e3134a1	0.17305233
175	0xbdb8b4e5	-0.09018878
176	0x3def782a	0.11692841
177	0x3c52873c	0.012849625
178	0x3bbee25c	0.005825324
179	0xbe6b1462	-0.22956994
180	0xbe850a7a	-0.25984555
181	0xbe09e9e1	-0.13468124
182	0x3d9b6c95	0.0758907
183	0x3cdb25c9	0.026751416
184	0xbe08b79f	-0.13351296
185	0x3dc3be31	0.095577605
186	0x3daf937c	0.08573052
187	0xbe103599	-0.14082946
188	0xbeb98717	-0.36235878
189	0x3b2b7425	0.0026161757
190	0x3dcdb1b5	0.100436606
191	0xbdd98171	-0.10620392
192	0x3d6024a5	0.054722447
193	0x3db71f86	0.089415595
194	0x3a2e31a1	0.00066449685
195	0x3ed03759	0.40667227
196	0x3ee0c7bf	0.43902394
197	0x3e990688	0.29887795
198	0x3dc24cb3	0.094872855
199	0x3d40509a	0.046951868
200	0xbdcde38d	-0.100531675
201	0xbe18886a	-0.14895788
202	0x3e8c6bfb	0.27426133
203	0x3d990c46	0.07473044
204	0x3dc3d211	0.09561551
205	0x3db11a27	0.08647566
206	0x3ef5ddd3	0.480208
207	0xbdb37729	-0.08762962
208	0x3d2ded9f	0.04246294
209	0x3e258041	0.16162206
210	0xbdb1603e	-0.08660935
211	0xbe496986	-0.1966916
212	0x3da994a3	0.08280303
213	0x3c813c01	0.015775682
214	0x3e8525fc	0.26005542
215	0xbe831f7c	-0.25609958
216	0x3dad4981	0.084612854
217	0x3eb8909f	0.36047837
218	0x3eab745f	0.33487222
219	0x3db338e1	0.08751083
220	0x3e771fd4	0.24133235
221	0x3f049816	0.51794565
222	0x3e63c606	0.22243509
223	0x3de06c98	0.109582126
224	0x3d81b534	0.0633339
225	0xbd223ceb	-0.039608877
226	0x3e14d923	0.14535956
227	0x3e0dacd9	0.13835467
228	0xbdd44dda	-0.103664115
229	0x3dfc7a12	0.123279706
230	0xbc877bdd	-0.016538555
231	0x3eba029a	0.3633011
232	0x3e9d8c07	0.30770895
233	0xbdaee53d	-0.085398175
234	0x3e2022e2	0.15638307
235	0x3e87243a	0.26394826
236	0x3ed46658	0.41484332
237	0x3f0350da	0.51295245
238	0x3c4d0d8e	0.012515439
239	0xbd7a3e3e	-0.061094515
240	0xbd8cd84f	-0.06877195
241	0x3dc49781	0.095992096
242	0x3ea251c1	0.31702998
243	0xbda53bbd	-0.08068035
244	0x3dbf80d5	0.09350745
245	0x3e8fcaf3	0.28084525
246	0x3cdf52ea	0.027261216
247	0x3da28c0b	0.07936867
248	0x3eca4368	0.39504552
249	0xbdf4d7f7	-0.119552545
250	0xbd3a3f17	-0.045470323
251	0x3ece8356	0.40334576
252	0x3e9c3af4	0.30513728
253	0xbe84b096	-0.25915974
254	0x3dd793e6	0.10526256
255	0x3f177b43	0.5917246

fc.weight f4 [1, 64]
0	0x3fa7ad86	1.309983
1	0xbf8b3f97	-1.0878781
2	0x3fa3a8b7	1.2785863
3	0xbf975d2c	-1.1825309
4	0x3f9adb7c	1.2098231
5	0x3fa140ae	1.2597864
6	0xbf911a96	-1.1336238
7	0x3f9577d0	1.1677189
8	0xbf928d96	-1.1449459
9	0xbf8cc9d5	-1.0999094
10	0x3fa1f287	1.2652138
11	0xc0140dbc	-2.3133383
12	0x3f8bec3c	1.0931468
13	0xbf9526ba	-1.1652443
14	0x3f9f84f8	1.2462454
15	0xbfacaa87	-1.3489541
16	0x3f7c3771	0.98522097
17	0xbf81112b	-1.0083364
18	0x3f8c8a9e	1.0979803
19	0xc02f28c6	-2.7368636
20	0xbf90f5a2	-1.1324961
21	0x3f9173c6	1.1363456
22	0xbf8a5209	-1.0806285
23	0xbfcb0577	-1.5861043
24	0xbfa7313b	-1.3061899
25	0xbf8a9b09	-1.0828563
26	0x3f950c51	1.1644384
27	0xbf9d9061	-1.2309686
28	0xbf80de3b	-1.0067819
29	0x3f9fce27	1.2484788
30	0xbf8e455a	-1.1114914
31	0xbfa96cbd	-1.3236309
32	0x3f88e7fd	1.0695797
33	0x3f9b18a7	1.2116898
34	0x3f846548	1.0343409
35	0xbfb5dcfb	-1.4208063
36	0xc0207fbd	-2.5077965
37	0xbfeabdd9	-1.8339187
38	0xbf898d44	-1.0746236
39	0x3f827b7f	1.0193938
40	0xbf8df841	-1.1091386
41	0x3f82f27d	1.0230252
42	0x3f8dfcac	1.1092734
43	0xbf8751a9	-1.0571796
44	0xbf9e2d9a	-1.2357666
45	0xbf99a948	-1.2004786
46	0x3f8f2414	1.1182885
47	0xbfdab47c	-1.708633
48	0x3f8d4209	1.1035777
49	0x3f94e83f	1.1633376
50	0x3f88d7d6	1.0690868
51	0xbf8b9d3d	-1.090736
52	0xbf8ae22c	-1.0850272
53	0xbf868afc	-1.0511165
54	0x3f955249	1.1665736
55	0xbf939979	-1.1531211
56	0xbfad87de	-1.3557088
57	0x3f929adb	1.1453508
58	0xbf99c110	-1.2012043
59	0x400f474f	2.2387273
60	0xbf841942	-1.0320208
61	0xbffbb936	-1.9665897
62	0xbfbce0a6	-1.4756057
63	0x3f96b43b	1.1773752

exp_avg f4 [11, 128]
0	0xb9d784c4	-0.00041106914
1	0x37ef54e0	2.8530543e-05
2	0x3a9a3eb8	0.0011767959
3	0xb856ff20	-5.125918e-05
4	0xba041b04	-0.0005039426
5	0xb937fe35	-0.0001754694
6	0xb9d6889e	-0.00040919048
7	0xbab37c59	-0.0013693675
8	0xb9181370	-0.0001450309
9	0xb9ea8288	-0.0004472921
10	0x39eb43ae	0.00044873118
11	0xba97e898	-0.0011589704
12	0xba694fa4	-0.0008900112
13	0xba98a6cf	-0.0011646393
14	0x393f4414	0.0001824054
15	0x3a5c069d	0.00083933194
16	0xb8fc9810	-0.0001204462
17	0xb992ebee	-0.0002802307
18	0xba611eec	-0.00085876766
19	0xb7745d80	-1.4565303e-05
20	0x3a0bce2d	0.0005333152
21	0x3a850f98	0.0010151742
22	0xb84280a0	-4.6372996e-05
23	0xb9e10b61	-0.00042923822
24	0x3a5e0ded	0.0008470703
25	0x39c06dbe	0.00036702858
26	0xba9a8f3e	-0.0011791957
27	0xb8ee7be4	-0.00011371801
28	0x372b7580	1.0219752e-05
29	0xb9c895f3	-0.00038258694
30	0xb977e9f8	-0.00023642916
31	0xbaa93bf5	-0.0012911545
32	0x39a6de26	0.000318275
33	0x3a0f11ed	0.0005457688
34	0x37236440	9.738898e-06
35	0x39a12a4c	0.00030739827
36	0xb9bd5f14	-0.00036119728
37	0x39fa0842	0.00047689868
38	0x38f02d60	0.000114525435
39	0x3aa9bf1e	0.0012950634
40	0xb98651a8	-0.0002561931
41	0x39a9c9d6	0.0003238457
42	0xb98ec084	-0.00027227786
43	0x39e6260c	0.00043897366
44	0xbac47368	-0.0014988007
45	0xba0c4214	-0.00053504226
46	0xba404859	-0.00073349994
47	0xba07f20a	-0.0005185908
48	0xb99de35f	-0.00030114778
49	0x38a96130	8.0766506e-05
50	0x39507758	0.00019880885
51	0xba536996	-0.0008064745
52	0xb9e4a074	-0.00043607096
53	0xb89ec250	-7.5702206e-05
54	0xba27ed68	-0.0006405921
55	0xb6f2de00	-7.238006e-06
56	0xba13498d	-0.0005618565
57	0xb6a5ab40	-4.9373193e-06
58	0x39275ff8	0.00015962112
59	0x39549428	0.00020273088
60	0x39986aa4	0.00029071153
61	0x39c0bde2	0.00036762567
62	0xba0759da	-0.000516323
63	0x398f7530	0.00027362397
64	0xb965bef0	-0.00021910272
65	0x3a820ac2	0.0009921419
66	0x3ab2d896	0.001364487
67	0xb945b97a	-0.0001885648
68	0xba64c0d4	-0.00087262434
69	0xb9f8e900	-0.00047475845
70	0xb93aeae0	-0.0001782584
71	0xba5ad67e	-0.0008348002
72	0x3832f830	4.266965e-05
73	0x3a831a84	0.0010002409
74	0x384a8c14	4.829101e-05
75	0x3970c258	0.00022960582
76	0x3746c01c	1.1846449e-05
77	0xba5e0573	-0.000846944
78	0x3aaf4778	0.001337274
79	0x3a014f4e	0.0004932777
80	0x39e132d4	0.00042953214
81	0x39f8c5bc	0.0004744957
82	0xb99cbdaa	-0.0002989595
83	0x39d6cb50	0.0004096874
84	0xba9c87f0	-0.0011942368
85	0xba350468	-0.00069052586
86	0xb9b28560	-0.00034050178
87	0x389d39ae	7.497087e-05
88	0xb91ecc54	-0.00015144172
89	0x39dcea38	0.00042136176
90	0x398e9a4c	0.0002719931
91	0xb7b85f80	-2.197898e-05
92	0xb99c1860	-0.000297728
93	0xba31778c	-0.0006769828
94	0xba226e0e	-0.0006196209
95	0xb896aa98	-7.184333e-05
96	0xb95bd7f0	-0.0002096591
97	0xb8b8ef08	-8.818327e-05
98	0xb9b6e256	-0.00034882379
99	0xb9178168	-0.0001444869
100	0xba0eb1d8	-0.0005443371
101	0x39b27336	0.00034036645
102	0xb9987a20	-0.0002908269
103	0x39455490	0.00018818886
104	0x3a1fd689	0.0006097337
105	0xba2c7aa5	-0.0006579555
106	0x398d0194	0.00026894792
107	0x3a07a6a8	0.0005174675
108	0xb9447b8c	-0.00018738041
109	0xba1ffe48	-0.00061032595
110	0x3a7301b8	0.00092699705
111	0xba8c9b8a	-0.0010727507
112	0x3985b140	0.00025499798
113	0x38564b00	5.1091425e-05
114	0x39bc7052	0.0003594184
115	0xb9c5ed36	-0.00037751504
116	0x3a4d05a2	0.0007820969
117	0xba0c19fd	-0.0005344449
118	0x393dcd92	0.00018101025
119	0x39d3c344	0.0004039054
120	0xb994a790	-0.00028353604
121	0x39f01949	0.00045795206
122	0xb993d7c1	-0.00028198774
123	0xb96835f0	-0.00022145337
124	0x39e347c8	0.00043350295
125	0xba06bd78	-0.00051399274
126	0xb8bc6348	-8.983031e-05
127	0x38205b20	3.823184e-05
128	0xbaa104e8	-0.0012284787
129	0xb784087c	-1.5739577e-05
130	0xbb12b65c	-0.0022386527
131	0x3983f328	0.00025167433
132	0x37f552f0	2.9244897e-05
133	0x3a0097cf	0.0004905434
134	0x3a8ca1f5	0.0010729419
135	0xb9c0f9b6	-0.00036807143
136	0xbac70950	-0.001518527
137	0x3a0ad85d	0.0005296523
138	0xbab66658	-0.0013915999
139	0xb894ccf8	-7.095368e-05
140	0x3abce05b	0.0014410125
141	0xba906fd4	-0.0011019656
142	0xba1bdc94	-0.00059456495
143	0xba957147	-0.0011401557
144	0xb99704a4	-0.00028804422
145	0x3a6e5912	0.0009092252
146	0xbac0e2d5	-0.0014716039
147	0xba48b5d6	-0.000765649
148	0x3a6bcf6f	0.00089954486
149	0x3aaf133a	0.001335717
150	0x3b2cc62a	0.0026363232
151	0x3ad71293	0.0016408734
152	0xba66fb81	-0.0008811281
153	0xba5ca752	-0.00084172667
154	0x3a5ee4c8	0.0008502719
155	0x39861a8d	0.00025578254
156	0xbb1ca84c	-0.0023904024
157	0x3a948e75	0.0011333959
158	0x3a4c1659	0.00077853125
159	0xbaad525f	-0.0013223401
160	0xb979f74c	-0.00023838616
161	0x3997bf72	0.00028943602
162	0x3a298c39	0.0006467733
163	0xba7d0c70	-0.00096530374
164	0x39d77d98	0.0004110157
165	0x39828f70	0.00024902401
166	0x3b27a44e	0.002558011
167	0x3b3adb59	0.002851209
168	0x3aba2e84	0.0014204537
169	0x3b141583	0.002259583
170	0x3afe40fc	0.0019398029
171	0x3ac74ae1	0.0015204811
172	0x3a2b21d7	0.0006528175
173	0xbb142789	-0.0022606573
174	0xba6430c3	-0.0008704776
175	0xbaf51b24	-0.0018700105
176	0xbaf2274f	-0.001847485
177	0xbab87a09	-0.0014074455
178	0x3a9fdbd6	0.0012196254
179	0x3b4c639a	0.0031187297
180	0xba9c0d83	-0.0011905882
181	0x3b31c132	0.002712321
182	0xba2a2516	-0.00064905116
183	0x3b025204	0.001988531
184	0xba066b4c	-0.0005127683
185	0x39b4bc2b	0.0003447247
186	0xbb7de995	-0.0038743962
187	0xba460109	-0.0007553255
188	0xba797e70	-0.0009517437
189	0x3a9a45b9	0.0011770047
190	0x3af15278	0.0018411418
191	0xbadae422	-0.0016700069
192	0x39fe2913	0.00048477258
193	0xbac02328	-0.0014658915
194	0x3ab37fdf	0.0013694725
195	0x3b833023	0.004003541
196	0xb9e65c04	-0.00043937576
197	0xb9c524ef	-0.00037602286
198	0xba0fa518	-0.0005479618
199	0x3b183234	0.0023223283
200	0xbab1d0f2	-0.0013566299
201	0x3a5559dd	0.0008138696
202	0xbaba4bea	-0.0014213298
203	0x3b071473	0.0020611554
204	0xbb0e0b8b	-0.002167436
205	0x3aa9ad64	0.0012945351
206	0x3b50c94e	0.0031858268
207	0xba2d3b70	-0.0006608283
208	0x3b67834a	0.0035326057
209	0x3b8990a4	0.0041981507
210	0xba506430	-0.00079494994
211	0x398f1112	0.00027287804
212	0xba0cbf32	-0.00053690665
213	0xbb8ed588	-0.004358951
214	0xbadbced5	-0.0016770015
215	0x3a5b86d3	0.00083742774
216	0xba8c9af7	-0.0010727335
217	0xba899aed	-0.0010498442
218	0x3a2e41d0	0.000664738
219	0x3ae11ef0	0.0017175358
220	0xba8ec527	-0.0010892496
221	0xbabec9be	-0.0014555973
222	0x3ac5b6c1	0.0015084372
223	0xb9c57f1d	-0.00037669475
224	0xba47a4c2	-0.00076157984
225	0xba71817f	-0.0009212717
226	0x397f3a74	0.0002434047
227	0xb80ad618	-3.3101154e-05
228	0x3a4c489f	0.0007792804
229	0xba91b190	-0.001111554
230	0xba7aeb1f	-0.0009571779
231	0x3af75cd6	0.0018872272
232	0xb91a6b2e	-0.00014726512
233	0x3ae55fde	0.0017499884
234	0x3a4353aa	0.00074511266
235	0x395efa78	0.00021264877
236	0x3af30d88	0.0018543461
237	0xbae1c33a	-0.001722432
238	0xb9fc4808	-0.00048118853
239	0xbb567e9f	-0.003272928
240	0xbab2dd28	-0.0013646232
241	0xbae7503c	-0.0017647813
242	0x3a3f5aeb	0.00072996196
243	0xb9c4720e	-0.0003746901
244	0xbb1dbd7d	-0.0024069243
245	0x39daa72d	0.00041704756
246	0x399e1d84	0.000301581
247	0x3a5bb94d	0.0008381799
248	0x3b07e530	0.0020735972
249	0xbac7cacc	-0.0015242933
250	0x3a38210c	0.00070239673
251	0xba2d2318	-0.00066046556
252	0x3a4f4ab9	0.0007907558
253	0xba0117a3	-0.00049244816
254	0xba935a4c	-0.001124212
255	0x3aadb74c	0.0013253479

exp_avg_sq f4 [11, 128]
0	0x392378e4	0.00015589927
1	0x37962c78	1.79021e-05
2	0x37ba53de	2.2211982e-05
3	0x388ecee6	6.8096255e-05
4	0x386e08df	5.6751884e-05
5	0x3642380b	2.8940874e-06
6	0x37140602	8.822886e-06
7	0x391a8ccd	0.00014739037
8	0x39555eda	0.00020348598
9	0x389ebb27	7.568887e-05
10	0x38833083	6.255603e-05
11	0x38a4469f	7.8332836e-05
12	0x3856844b	5.1144783e-05
13	0x38b651ef	8.6936976e-05
14	0x388bf904	6.674419e-05
15	0x3858dfc6	5.170682e-05
16	0x38907e45	6.8899746e-05
17	0x3849d203	4.8117723e-05
18	0x3a330df8	0.00068303896
19	0x378f5c90	1.7090031e-05
20	0x3801ec6d	3.0976185e-05
21	0x37d212ca	2.50427e-05
22	0x38ae2fa4	8.30584e-05
23	0x37198f92	9.152938e-06
24	0x37b1dca6	2.1202792e-05
25	0x37959417	1.7831144e-05
26	0x39ad5169	0.00033057787
27	0x36f78314	7.376433e-06
28	0x36e36cc5	6.7777896e-06
29	0x36b093c7	5.2624123e-06
30	0x3803d8e6	3.1434836e-05
31	0x380ecb80	3.4044962e-05
32	0x36d4e4d7	6.344733e-06
33	0x384179c3	4.6128185e-05
34	0x36ffcc26	7.623358e-06
35	0x368f1d7d	4.265165e-06
36	0x38a64bc6	7.929611e-05
37	0x380ae8d5	3.3118606e-05
38	0x38229d02	3.8770035e-05
39	0x3a0ad5b9	0.00052961294
40	0x37ff0563	3.0400877e-05
41	0x370448b7	7.884743e-06
42	0x38a5abf5	7.8998426e-05
43	0x38987232	7.269195e-05
44	0x39842e57	0.00025211528
45	0x3a13dc16	0.00056404003
46	0x379b2523	1.8494733e-05
47	0x393a6a78	0.00017778005
48	0x374a41a3	1.20554205e-05
49	0x39929015	0.0002795464
50	0x39172430	0.00014413963
51	0x37abc813	2.0477955e-05
52	0x374a2eea	1.2051061e-05
53	0x396449ef	0.00021771317
54	0x39c1f74f	0.00036996088
55	0x3967c2d9	0.00022102463
56	0x389b5452	7.406682e-05
57	0x370b6cf9	8.310418e-06
58	0x38d477e8	0.00010131282
59	0x3895379b	7.115231e-05
60	0x36de113a	6.618121e-06
61	0x3881516e	6.166367e-05
62	0x391648ef	0.00014332285
63	0x398270ea	0.0002487966
64	0x388d5a24	6.740194e-05
65	0x3840416c	4.5837296e-05
66	0x390a93ad	0.00013215719
67	0x36f54686	7.309779e-06
68	0x398fab41	0.0002740268
69	0x3a00be50	0.0004911171
70	0x3a072aa2	0.0005156194
71	0x37dc30be	2.6248741e-05
72	0x379f3862	1.8980532e-05
73	0x398d6caf	0.0002697459
74	0x374a7158	1.2066528e-05
75	0x37874b37	1.6128279e-05
76	0x35e11d04	1.6772251e-06
77	0x37bd2e84	2.2552216e-05
78	0x3a350cee	0.0006906529
79	0x39354711	0.0001728798
80	0x38c92f7e	9.593273e-05
81	0x39964653	0.00028662625
82	0x3846fe8e	4.744395e-05
83	0x383667fc	4.3489024e-05
84	0x393ca424	0.00017990224
85	0x381b5a3f	3.7038928e-05
86	0x38ae9423	8.324559e-05
87	0x373e12f5	1.1329296e-05
88	0x37a59b90	1.9741972e-05
89	0x38bae92d	8.9126035e-05
90	0x382f70bb	4.182824e-05
91	0x391be67a	0.00014867811
92	0x38875ccb	6.454586e-05
93	0x3801545c	3.0834562e-05
94	0x38c618ab	9.4459705e-05
95	0x3820f9f1	3.837975e-05
96	0x392df36f	0.00016589252
97	0x381ae145	3.692626e-05
98	0x386a7aef	5.590444e-05
99	0x38172724	3.6037658e-05
100	0x38a12ffb	7.686015e-05
101	0x37dee200	2.6569702e-05
102	0x38dfe434	0.00010675975
103	0x390d2173	0.00013459269
104	0x381caec5	3.7356065e-05
105	0x381bc606	3.7139303e-05
106	0x37136257	8.784779e-06
107	0x380200e8	3.099526e-05
108	0x383a8bef	4.447618e-05
109	0x37fc2a44	3.0060422e-05
110	0x3a108416	0.00055128464
111	0x3a536035	0.0008063347
112	0x37bca9bd	2.2490387e-05
113	0x3966d837	0.00022015056
114	0x383975dd	4.4217206e-05
115	0x372923ba	1.0081503e-05
116	0x3824bbc0	3.9275503e-05
117	0x376239fb	1.3484149e-05
118	0x373f9217	1.1418501e-05
119	0x38864322	6.4021224e-05
120	0x367841f3	3.6993267e-06
121	0x37198c58	9.152187e-06
122	0x37f34ecc	2.900455e-05
123	0x39bac1f8	0.00035621203
124	0x387d3eda	6.0378436e-05
125	0x392dec98	0.00016586704
126	0x383f69b9	4.563641e-05
127	0x3731ad64	1.0590393e-05
128	0x390d7eeb	0.00013494088
129	0x390a8c3b	0.00013212945
130	0x3940d042	0.00018388129
131	0x37fbd007	3.0018402e-05
132	0x39704845	0.00022915106
133	0x3830bbc5	4.2136544e-05
134	0x384f6c68	4.9453607e-05
135	0x377755b0	1.4742298e-05
136	0x390f290d	0.00013652835
137	0x3810fd13	3.456797e-05
138	0x3812c15b	3.498919e-05
139	0x381964a8	3.6571786e-05
140	0x397b3094	0.00023955322
141	0x38fb4c10	0.000119827804
142	0x37f71020	2.9452203e-05
143	0x3868b4dd	5.5481552e-05
144	0x390730c0	0.00012892764
145	0x38261252	3.9594546e-05
146	0x39f63478	0.0004695987
147	0x392b2d29	0.00016324654
148	0x37bc5caf	2.2454506e-05
149	0x38d69343	0.00010231745
150	0x393978f0	0.00017688028
151	0x380803b1	3.2428365e-05
152	0x3933978f	0.0001712723
153	0x36f92e4e	7.426169e-06
154	0x38379b17	4.377504e-05
155	0x378be73b	1.6677766e-05
156	0x38b52a12	8.638589e-05
157	0x37395781	1.1047233e-05
158	0x373406fc	1.0730462e-05
159	0x3890c0cf	6.9023685e-05
160	0x382c7a49	4.1121883e-05
161	0x38c2d84b	9.2909286e-05
162	0x3901c778	0.00012376707
163	0x378facab	1.7127333e-05
164	0x38bdf04c	9.056981e-05
165	0x38414893	4.6082376e-05
166	0x3893b66a	7.0434835e-05
167	0x3a14c890	0.0005675638
168	0x388c053a	6.676694e-05
169	0x397bf6f9	0.0002402923
170	0x392b2645	0.00016322087
171	0x3986dcee	0.00025723077
172	0x38bafea7	8.916604e-05
173	0x39cb4570	0.00038770912
174	0x38eb066b	0.00011206869
175	0x38a72115	7.9693426e-05
176	0x390d92dc	0.00013501517
177	0x399eba52	0.00030274928
178	0x38ec7e60	0.00011276896
179	0x397ef0fa	0.00024313098
180	0x37b74ce4	2.1851105e-05
181	0x39521db1	0.00020038222
182	0x3987015d	0.00025750222
183	0x389d8290	7.5106625e-05
184	0x37836234	1.5662146e-05
185	0x38e0a452	0.000107117594
186	0x39f0e665	0.00045948024
187	0x379ad2ee	1.8456452e-05
188	0x38989da0	7.277285e-05
189	0x383ce306	4.5034125e-05
190	0x3794077a	1.7646456e-05
191	0x38b02ecf	8.401053e-05
192	0x388a112e	6.583553e-05
193	0x3888b5ad	6.518825e-05
194	0x38b5b2ab	8.664032e-05
195	0x391546e5	0.00014236158
196	0x38f9250b	0.00011880145
197	0x394a9427	0.00019319412
198	0x39a93922	0.0003227676
199	0x391bce7d	0.00014858875
200	0x37d049e8	2.4829948e-05
201	0x3881985c	6.1795785e-05
202	0x38848c86	6.320425e-05
203	0x39c001f3	0.00036622546
204	0x38b4f832	8.629299e-05
205	0x38b3a4c5	8.566076e-05
206	0x39f1c71c	0.0004611545
207	0x3873a9cb	5.8093847e-05
208	0x3996f1e9	0.00028790467
209	0x39699844	0.00022277335
210	0x38011945	3.077953e-05
211	0x38538c13	5.0436774e-05
212	0x38c9a5c6	9.6153046e-05
213	0x3a5028d5	0.0007940655
214	0x393475c8	0.00017210015
215	0x383bdbde	4.478904e-05
216	0x384304ab	4.649597e-05
217	0x38c7a934	9.520576e-05
218	0x38115062	3.4645556e-05
219	0x38d9cd39	0.00010385592
220	0x393dd520	0.0001810384
221	0x391ec2af	0.0001514058
222	0x39a725ab	0.00031880787
223	0x38bbac7c	8.9489826e-05
224	0x390f63fd	0.00013674791
225	0x38b41c4e	8.588341e-05
226	0x3898177e	7.2523006e-05
227	0x3907b455	0.00012941782
228	0x38ae1ec5	8.302698e-05
229	0x38408683	4.590164e-05
230	0x38446a1f	4.6828874e-05
231	0x37a99720	2.0216743e-05
232	0x37d76f3d	2.5681797e-05
233	0x37dc0cab	2.6231943e-05
234	0x381d3c2f	3.7487767e-05
235	0x39f051d6	0.0004583734
236	0x383849d5	4.393778e-05
237	0x38c37809	9.320683e-05
238	0x38115f8a	3.465967e-05
239	0x39b9d0d2	0.00035441533
240	0x38bfc3e4	9.144077e-05
241	0x39d596f3	0.00040738992
242	0x37ad9198	2.0691004e-05
243	0x38b8038b	8.774464e-05
244	0x384069e7	4.5874996e-05
245	0x392acb79	0.00016288263
246	0x3835f052	4.337758e-05
247	0x383993b5	4.4245e-05
248	0x382d73ab	4.135414e-05
249	0x379bac65	1.8557717e-05
250	0x37d38c4f	2.5218496e-05
251	0x398c6a85	0.00026782244
252	0x38023c3e	3.105052e-05
253	0x38dc23fe	0.000104971215
254	0x384c34de	4.8686627e-05
255	0x38638de3	5.425316e-05
