Lab7_ALTEGRAD_learning_on_sets_and_graph_generative_models/code/model_deepsets.pth.tar (torch, 123362 bytes, 12 tensors)

embedding.weight f4 [11, 128]
0.9767395 1.0292021 -1.2385752 0.32475775 0.5197588 -0.064662755 0.949397 0.41301548
-0.95544595 1.7144445 -0.12840281 -0.63695157 -0.80132705 1.924306 -0.44898948 0.31385162
1.6019123 -1.2295408 -1.4706346 -0.69294316 0.55373126 0.31139007 0.24112032 -0.9729516
-0.46272033 -0.29541892 0.18054952 0.0767504 0.1917382 -1.8520285 1.7595667 2.0545871
-0.35731 0.2888711 1.4779915 -1.970026 -0.7869427 -0.2915992 -0.5018588 0.48145983
0.93052524 -1.5376371 0.4199454 0.029522054 -0.6242244 0.79050934 0.15548192 -2.7494333
-2.9117553 -0.4229861 0.039963603 -1.3849831 -0.69000375 -0.2986912 1.2207927 -1.2875056
-1.0731214 0.10459823 0.5894306 -2.2425845 0.6804298 -1.6846036 0.6329322 -1.8223857
0.7090667 -2.507998 1.87955 -1.1495141 0.09144138 -1.700418 -0.575382 0.6864899
-0.44192472 1.1036458 -0.9298422 2.0236275 -1.2767831 0.14209831 0.686319 0.10364033
-3.6456647 2.123541 1.0289148 -0.6275925 1.6014334 1.5757188 2.8018854 0.22014591
-0.6098769 -1.1870185 0.6478329 0.5998344 0.3227424 -0.17850046 1.5884957 -1.1316187
-0.6546787 0.6289424 1.4066201 -1.6566324 -0.7080344 0.26440012 0.6185246 0.18126802
1.2093607 -0.8025208 -0.98913723 0.09942761 -0.68011856 0.46198034 0.7845609 0.7725506
0.30619392 -0.7033085 0.43849644 0.9701625 -0.5212133 -1.0184659 -0.5970202 0.6153278
-2.001779 2.2336702 -0.38759953 0.8040913 1.6761212 0.5293773 -0.5579865 2.9656665
0.19833978 -2.175699 0.91838586 -0.35486513 0.8077044 -0.103273146 0.6091832 -0.31473532
0.6215362 -0.68283063 0.29920283 -0.30562937 -0.7561975 -1.4330966 -1.0430944 -0.03893937
-0.07312269 -0.52780527 1.335893 0.39703247 0.17123458 0.8899453 0.42170197 -0.43155375
-1.93188 0.18192925 1.150359 -0.08389443 -0.6830227 0.09444819 0.5369865 -0.31426728
-0.5911799 0.6762292 -0.10551952 1.005814 -0.5076746 0.101905145 1.7146904 -0.1276683
0.8639346 1.0034626 1.2234591 0.3232999 0.75806296 0.6364829 0.046411954 0.15742315
1.1796495 -1.7462239 -0.42767537 -1.2412261 -0.76188886 -0.20861728 0.08931229 -0.343972
-0.5965873 -0.3580467 -1.9348302 0.3808889 0.21185128 -2.1418514 0.22473715 -0.83438957
0.367485 1.9024451 0.3670224 0.28663272 -1.4788748 -0.4286354 0.39700586 1.2849833
-1.0376972 -2.7263055 1.1616987 0.56071186 0.25545177 0.63022524 2.2551765 0.878806
0.5766776 -1.5536145 2.249568 0.046099994 0.98534775 0.13835034 -0.2905589 -1.0639763
1.0349896 0.8651602 -0.048935287 0.83222187 0.810869 -0.52763486 -0.3414058 0.86933005
-1.2502018 -1.2000976 -0.73785156 -0.0001498787 1.6595327 -0.61417174 -0.86090326 1.5422652
0.32959294 1.3342068 0.21802987 1.316086 -1.0053135 0.12082266 -1.4203904 -1.3144295
-0.8876667 0.30655318 1.0518142 -0.10399661 0.7471189 -0.87425 -0.78222805 -1.7729003
-1.4587067 -1.7711042 1.3909103 -0.91105914 -0.57371056 2.0477338 -0.5420536 -0.58652776
00000000: 9a0b 7a3f e5bc 833f a289 9ebf a646 a63e
00000010: ea0e 053f e86d 84bd af0b 733f c476 d33e
00000020: 1b98 74bf eb72 db3f 077c 03be 420f 23bf
00000030: c523 4dbf a94f f63f f3e1 e5be 29b1 a03e
00000040: 760b cd3f 9861 9dbf c13d bcbf b964 31bf
00000050: 55c1 0d3f 856e 9f3e 3fe8 763e 5b13 79bf
00000060: aee9 ecbe 2641 97be f9e1 383e 502f 9d3d
00000070: 0557 443e 450f edbf 7b39 e13f 5b7e 0340
00000080: 56f1 b6be eae6 933e d32e bd3f d029 fcbf
00000090: 1475 49bf 7e4c 95be d179 00bf e781 f63e
000000a0: e736 6e3f 4bd1 c4bf 1503 d73e 3cd8 f13c
000000b0: 2ccd 1fbf d25e 4a3f a736 1f3e b7f6 2fc0
000000c0: 335a 3ac0 a291 d8be e0b0 233d 2047 b1bf
000000d0: 16a4 30bf 0eee 98be ef42 9c3f fccc a4bf
000000e0: 0b5c 89bf 9937 d63d ece4 163f 8186 0fc0
000000f0: a630 2e3f 17a1 d7bf d807 223f ef43 e9bf
00000100: 6585 353f 0a83 20c0 1895 f03f 4723 93bf
00000110: 9e45 bb3d 4ca7 d9bf 3c4c 13bf cdbd 2f3f
00000120: f543 e2be 4444 8d3f 230a 6ebf 1d83 0140
00000130: a16d a3bf 3882 113e 9ab2 2f3f 6241 d43d
00000140: 9252 69c0 19e8 0740 7bb3 833f e7a9 20bf
00000150: c5fb cc3f 27b1 c93f 1752 3340 ee6d 613e
00000160: e420 1cbf 39f0 97bf 60d8 253f bf8e 193f
00000170: 7e3e a53e d3c8 36be d453 cb3f e2d8 90bf
00000180: 0699 27bf 5e02 213f 210c b43f 880c d4bf
00000190: be41 35bf 745f 873e a157 1e3f 539e 393e
000001a0: 55cc 9a3f 0172 4dbf 1938 7dbf b4a0 cb3d
000001b0: 401c 2ebf b088 ec3e fcd8 483f e0c5 453f
000001c0: 73c5 9c3e 070c 34bf 9b82 e03e 925c 783f
000001d0: 3c6e 05bf 175d 82bf 51d6 18bf 1f86 1d3f
000001e0: 261d 00c0 74f4 0e40 7273 c6be edd8 4d3f
000001f0: 248b d63f 4585 073f 34d8 0ebf 7bcd 3d40
00000200: 9519 4b3e a73e 0bc0 561b 6b3f e2b0 b5be
00000210: b7c5 4e3f df80 d3bd 6ef3 1b3f fd24 a1be
00000220: ff1c 1f3f fdcd 2ebf 1d31 993e 747b 9cbe
00000230: 2996 41bf b66f b7bf 1e84 85bf e47e 1fbd
00000240: 59c1 95bd 3f1e 07bf 8bfe aa3f d747 cb3e
00000250: 1e58 2f3e 75d3 633f 52e9 d73e 9df4 dcbe
00000260: d847 f7bf a94b 3a3e f73e 933f d8d0 abbd
00000270: 93da 2ebf 0d6e c13d f277 093f a4e7 a0be
00000280: 9157 17bf 5b1d 2d3f 9e1a d8bd 83be 803f
00000290: f6f6 01bf a5b3 d03d fa7a db3f 7bbb 02be
000002a0: d12a 5d3f 7671 803f 4f9a 9c3f 9187 a53e
000002b0: 6a10 423f 8bf0 223f 761a 3e3d 8933 213e
000002c0: c1fe 963f 4484 dfbf 44f8 dabe 7fe0 9ebf
000002d0: 260b 43bf c59f 55be 5de9 b63d 191d b0be
000002e0: f2b9 18bf e651 b7be 84a8 f7bf df03 c33e
000002f0: 8bef 583e 1814 09c0 7f21 663e 8e9a 55bf
00000300: fe26 bc3e 5283 f33f 5cea bb3e 86c1 923e
00000310: c54b bdbf 1976 dbbe 5a44 cb3e 557a a43f
00000320: 43d3 84bf ca7b 2ec0 8bb2 943f d08a 0f3f
00000330: 93ca 823e 7156 213f d054 1040 6ef9 603f
00000340: 25a1 133f d7dc c6bf ecf8 0f40 59d3 3c3d
00000350: c03f 7c3f b6ab 0d3e 23c4 94be 6030 88bf
00000360: 8a7a 843f 247b 5d3f 5e70 48bd 7e0c 553f
00000370: 1c95 4f3f 1413 07bf becc aebe 6a8c 5e3f
00000380: 9d06 a0bf cc9c 99bf d7e3 3cbf c228 1db9
00000390: 916b d43f 5c3a 1dbf 2864 5cbf f268 c53f
000003a0: 68c0 a83e 4ac7 aa3f 3943 5f3e 8275 a83f
000003b0: 1dae 80bf df71 f73d 5acf b5bf 3a3f a8bf
000003c0: 203e 63bf 8af4 9c3e d9a1 863f 2dfc d4bd
000003d0: 2f43 3f3f d9ce 5fbf 1940 48bf 66ee e2bf
000003e0: e7b6 babf 8bb3 e2bf 5909 b23f 2c3b 69bf
000003f0: b2de 12bf 120e 0340 06c4 0abf af26 16bf

fc1.weight f4 [64, 128]
-0.2976811 -0.21843474 0.036042143 -0.06356536 0.021758264 -0.21611701 -0.06317891 -0.044426408
-0.07047786 -0.029226586 0.018142294 0.10698522 -0.10123309 -0.00045338733 0.109875076 -0.121640645
-0.22500573 -0.08100282 0.08321318 0.11923693 -0.042008106 0.15178229 0.13475169 -0.00017973816
-0.17268685 0.15113924 0.20414886 -0.15145667 0.044880025 0.03788925 -0.027198829 -0.047479015
-0.14756818 0.0648195 -0.2699358 0.08048713 -0.09115294 -0.1896454 -0.0477762 -0.12565295
0.09445529 -0.07623453 -0.06414392 0.09786658 0.13108136 -0.2056735 -0.26046994 0.022785148
0.021859545 0.022818094 -0.042227477 0.06326502 0.0032527337 -0.028156934 -0.0442601 0.038038444
0.017212369 -0.06927935 -0.054979358 -0.00043274107 0.121770285 0.14061815 0.089641124 0.0036602386
0.13649896 0.1465633 -0.10406623 0.16538678 -0.01893387 -0.063745044 -0.061665364 -0.06555431
0.16667542 -0.116984904 0.06652261 -0.115673475 0.13927267 0.08078314 0.067684844 -0.12913527
0.16007365 -0.10008637 0.06539246 -0.037550878 -0.089692734 0.12473367 -0.17126445 0.15897146
-0.008719563 0.020954546 -0.1484364 0.10506151 0.0035009487 0.09451172 -0.1643143 0.05594824
-0.083595395 -0.20421001 0.13420549 0.0066351607 0.16837509 -0.021813383 -0.06701422 -0.006399453
-0.12049918 0.090157844 -0.09711219 -0.0003472686 0.056831233 0.007808769 0.08757685 0.05165962
0.16813964 0.3145896 0.16272621 -0.16904587 -0.008424952 0.040501025 -0.15956187 0.0051660654
-0.10802509 -0.12956578 0.2435575 -0.27342358 -0.13592559 0.09511239 0.15501128 0.043335836
0.039727457 0.021804499 -0.07659936 -0.03609315 -0.055061612 -0.08660806 0.07323618 -0.123509325
0.0070992317 -0.08277194 0.028558029 0.010884708 -0.018377652 0.11908628 0.122513935 -0.12700026
0.071842395 -0.033954296 -0.18427613 0.034867164 0.14936468 0.042413015 0.07789893 -0.13280141
-0.11354935 0.014197623 -0.06885045 0.036189772 -0.091717936 -0.18240714 0.11534335 0.1499974
-0.015767012 -0.17690127 0.06931672 -0.16984122 -0.016630394 -0.10167059 -0.18311022 -0.013580623
0.10641622 -0.104655094 -0.18050508 0.0353136 -0.17283124 -0.13626343 -0.16395858 -0.18028195
-0.13916565 -0.027868796 -0.10271924 0.11326186 -0.1356401 -0.051427294 -0.08136963 0.0024588539
-0.0362965 -0.08283687 -0.026304344 0.04768539 0.16807567 0.15831473 0.069357105 0.09676868
0.18095301 -0.11253833 0.15892108 -0.005056042 0.06271143 -0.080422275 0.037259463 0.1356536
-0.041550495 0.22898808 -0.13882282 -0.06739932 0.041458063 0.07087985 -0.052703418 -0.038016103
-0.029104419 0.08231131 -0.20424508 -0.14819905 -0.06163024 0.041808553 0.09771617 0.1316884
-0.03621363 -0.108269624 -0.093949944 0.068653114 -0.056418914 0.19962044 0.06585607 -0.08980926
0.09894748 -0.11475691 0.15383527 -0.094379604 0.0027115932 0.052019257 0.12560451 -0.0411628
0.04924558 0.08655796 -0.07242714 -0.12893151 -0.0007851658 -0.04146762 0.20401567 0.09674713
0.22251347 -0.0219209 0.16045102 -0.108720094 0.04165258 0.0029011765 -0.039036278 0.09680677
0.014982412 -0.050845295 -0.17075683 0.07655021 -0.13618629 0.102727726 0.144597 0.10846646
00000000: a869 98be 5bad 5fbe eda0 133d 8e2e 82bd
00000010: 633e b23c c74d 5dbe f263 81bd 77f8 35bd
00000020: b256 90bd 986c efbc 269f 943c 111b db3d
00000030: 4b53 cfbd 9eb4 edb9 2f06 e13d bb1e f9bd
00000040: e767 66be cee4 a5bd ac6b aa3d 7e32 f43d
00000050: b110 2cbd d16c 1b3e 59fc 093e 1878 3cb9
00000060: d2d4 30be 3fc4 1a3e 660c 513e 7517 1bbe
00000070: 1ed4 373d c231 1b3d 14d0 debc 5b79 42bd
00000080: 1d1c 17be 16c0 843d 0635 8abe 70d6 a43d
00000090: 65ae babd 6732 42be fab0 43bd 2bab 00be
000000a0: c671 c13d d920 9cbd e35d 83bd 466e c83d
000000b0: 313a 063e 139c 52be 515c 85be eba7 ba3c
000000c0: ca12 b33c 03ed ba3c b8f6 2cbd 1791 813d
000000d0: d12b 553b 5fa9 e6bc 144a 35bd 33ce 1b3d
000000e0: f400 8d3c 55e2 8dbd 0932 61bd 86e1 e2b9
000000f0: b362 f93d 34fe 0f3e c495 b73d 9de0 6f3b
00000100: 62c6 0b3e b114 163e ad20 d5bd 275b 293e
00000110: 341b 9bbc c38c 82bd d294 7cbd 5741 86bd
00000120: f6ac 2a3e c895 efbd 023d 883d 37e6 ecbd
00000130: 7f9d 0e3e a271 a53d 5a9e 8a3d 093c 04be
00000140: 59ea 233e 15fa ccbd 7bec 853d f3ce 19bd
00000150: d3b0 b7bd 5e74 ff3d f35f 2fbe 6ac9 223e
00000160: 7fdc 0ebc dea8 ab3c b6ff 17be 7d2a d73d
00000170: 2c70 653b 5c8f c13d 0242 28be fb29 653d
00000180: 1034 abbd 6e1c 51be 2a6d 093e c36b d93b
00000190: 856a 2c3e fbb1 b2bc c03e 89bd 81b2 d1bb
000001a0: 46c8 f6bd ada4 b83d c2e2 c6bd 9a11 b6b9
000001b0: dec7 683d b4e0 ff3b 7e5b b33d 0a99 533d
000001c0: cc2c 2c3e e311 a13e b3a1 263e 5c1a 2dbe
000001d0: cf08 0abc 67e4 253d 3064 23be 1948 a93b
000001e0: 423c ddbd e4ac 04be 2367 793e 2dfe 8bbe
000001f0: 1430 0bbe 49ca c23d 47bb 1e3e eb80 313d
00000200: 42b9 223d 599f b23c 20e0 9cbd 69d6 13bd
00000210: 4988 61bd 915f b1bd dafc 953d 75f2 fcbd
00000220: aca0 e83b 5684 a9bd 87f2 e93c c655 323c
00000230: bb8c 96bc 82e3 f33d 96e8 fa3d 5b0c 02be
00000240: 1b22 933d a913 0bbd e2b2 3cbe dfd0 0e3d
00000250: 0ef3 183e 45b9 2d3d 7989 9f3d 18fd 07be
00000260: 908c e8bd 269d 683c 7701 8dbd ba3b 143d
00000270: 9dd6 bbbd f0c8 3abe 2239 ec3d eb98 193e
00000280: d229 81bc 9b25 35be edf5 8d3d dbea 2dbe
00000290: 773c 88bc ac38 d0bd 3f81 3bbe 4381 5ebc
000002a0: bff0 d93d 6955 d6bd 53d6 38be fea4 103d
000002b0: acfa 30be a488 0bbe c2e4 27be d59b 38be
000002c0: 7181 0ebe 1a4d e4bc 775e d2bd d6f5 e73d
000002d0: 3de5 0abe 6da5 52bd 1fa5 a6bd b924 213b
000002e0: a4ab 14bd 60a6 a9bd 357c d7bc c151 433d
000002f0: 071c 2c3e 421d 223e 190b 8e3d a82e c63d
00000300: bf4b 393e 7f7a e6bd 35bc 223e 28ad a5bb
00000310: da6e 803d 6fb4 a4bd 619d 183d c7e8 0a3e
00000320: da30 2abd da7b 6a3e 9227 0ebe a808 8abd
00000330: eecf 293d 7429 913d 8adf 57bd c6b6 1bbd
00000340: 646c eebc d592 a83d 9f25 51be 7ec1 17be
00000350: fe6f 7cbd 723f 2b3d 6a1f c83d 53d9 063e
00000360: be54 14bd 77bc ddbd d468 c0bd 019a 8c3d
00000370: 8517 67bd 4d69 4c3e 8cdf 863d ebed b7bd
00000380: faa4 ca3d ac05 ebbd fe86 1d3e 184a c1bd
00000390: fcb4 313b 2512 553d 789e 003e 539a 28bd
000003a0: bcb5 493d 4d45 b13d ae54 94bd 9f06 04be
000003b0: 96d3 4dba f3d9 29bd 7ce9 503e 5c23 c63d
000003c0: 92da 633e 7693 b3bc 464d 243e a4a8 debd
000003d0: e59b 2a3d aa21 3e3b 81e4 1fbd a142 c63d
000003e0: ca78 753c 2843 50bd e1da 2ebe 5bc6 9c3d
000003f0: 6b74 0bbe ea62 d23d 3c11 143e aa23 de3d

fc1.bias f4 [64]
0.030290367 0.13175403 -0.0016521092 0.09264514 0.052196458 -0.07535096 0.107642114 0.09438711
-0.14014941 0.016041914 0.0002668237 0.0066973446 0.12022711 0.035915263 -0.10308865 0.008285104
0.077025995 0.051269084 0.054794468 -0.0872743 -0.100265175 0.057521224 0.04746675 0.0618681
0.14327995 -0.10204785 0.035225198 -0.05326695 -0.039446764 -0.054202925 -0.02275936 -0.110052906
0.17681076 -0.08088707 0.038013496 -0.03986184 -0.030091798 0.13243093 -0.104401015 0.023707641
0.08969946 0.0028917044 -0.070999116 -0.004554122 0.12803173 -0.020096473 -0.05375265 -0.17229703
0.14345308 0.07556358 -0.028880358 -0.17886725 -0.034191653 0.05630719 -0.018485265 0.08720043
-0.08724429 0.14382887 0.019770438 -0.09212947 0.11265545 0.08463825 -0.04556284 -0.0078072282
00000000: 8123 f83c 87ea 063e 968b d8ba bcbc bd3d
00000010: f4cb 553d 9b51 9abd 7873 dc3d 074e c13d
00000020: 5483 0fbe 556a 833c 79e4 8b39 6675 db3b
00000030: a239 f63d e21b 133d 2420 d3bd 3fbe 073c
00000040: cebf 9d3d 88ff 513d 2a70 603d debc b2bd
00000050: d457 cdbd 609b 6b3d 7f6c 423d 6869 7d3d
00000060: fbb7 123e 77fe d0bd 4c48 103d 722e 5abd
00000070: ee92 21bd e303 5ebd d671 babc 6b63 e1bd
00000080: e10d 353e 1fa8 a5bd 0ab4 1b3d 2b46 23bd
00000090: 1383 f6bc f99b 073e 33d0 d5bd 8736 c23c
000000a0: 5ab4 b73d c082 3d3b fc67 91bd bf3a 95bb
000000b0: c01a 033e 5ca1 a4bc bd2b 5cbd a26e 30be
000000c0: 5de5 123e 14c1 9a3d 8096 ecbc fa28 37be
000000d0: 8c0c 0cbd 5ea2 663d 696e 97bc 2496 b23d
000000e0: 22ad b2bd e047 133e 9df5 a13c 60ae bcbd
000000f0: e7b7 e63d d256 ad3d 1aa0 3abd c7d3 ffbb

fc2.weight f4 [1, 64]
0.07066281 0.15327238 0.1969038 0.1035009 -0.29474783 -0.18935214 0.121358156 0.118801594
0.21131735 0.13910446 0.14446054 -0.16920912 0.19946188 0.20122966 -0.11810086 -0.2380564
0.063938394 0.1509882 -0.19612211 -0.19593759 -0.08517749 0.16576673 0.19620538 0.24086119
0.12575898 -0.105133705 0.16282897 -0.1341389 0.15666127 -0.11202094 -0.10523988 -0.091160096
0.16742043 -0.17157273 0.17614818 0.08581677 0.19736162 0.17865115 -0.100811236 0.17731693
0.12116429 -0.2408441 -0.122840606 -0.13853815 0.16990209 -0.23922862 -0.08782428 -0.16667643
0.18872592 0.10965811 -0.10678842 -0.16511884 -0.112044506 -0.16984358 0.17292075 0.13202956
-0.15217148 0.20892596 0.18354385 -0.17916526 0.12869982 0.095049135 0.19641441 -0.19475497
00000000: aab7 903d 6ff3 1c3e 26a1 493e 48f8 d33d
00000010: 30e9 96be 87e5 41be a08a f83d 404e f33d
00000020: 9363 583e 6671 0e3e 77ed 133e 2845 2dbe
00000030: bc3f 4c3e 260f 4e3e ddde f1bd 0fc5 73be
00000040: 22f2 823d a79c 1a3e 3cd4 48be dda3 48be
00000050: 8971 aebd c1be 293e 10ea 483e 51a4 763e
00000060: f6c6 003e 5750 d7bd a3bc 263e b55b 09be
00000070: d06b 203e 3c6b e5bd 0288 d7bd 25b2 babd
00000080: 4370 2b3e c3b0 2fbe 3060 343e b4c0 af3d
00000090: 2a19 4a3e 54f0 363e 1f76 cebd 9292 353e
000000a0: fc24 f83d d69f 76be db93 fbbd f2dc 0dbe
000000b0: d0fa 2d3e 59f8 74be 37dd b3bd 3aad 2abe
000000c0: 5e41 413e 6e94 e03d e3b3 dabd ea14 29be
000000d0: 9777 e5bd 7aeb 2dbe 2312 313e c232 073e
000000e0: d7d2 1bbe b0f0 553e ebf2 3b3e 1977 37be
000000f0: e3c9 033e 1fa9 c23d dc20 493e d96d 47be

exp_avg f4 [11, 128]
1.5416434e-05 5.0041217e-06 7.444056e-06 2.320316e-05 -1.323656e-05 4.4919587e-05 -1.7664356e-06 1.2918779e-05
1.3420329e-05 -2.157113e-06 -1.7410024e-05 -7.9533365e-06 1.6393773e-05 -3.690874e-06 -1.0425836e-06 2.5077723e-05
-6.470521e-06 8.060359e-06 4.935152e-06 -1.8909286e-05 -1.2471766e-05 -1.9114079e-05 -2.2338732e-05 1.644804e-05
1.9394847e-05 -2.3849701e-05 -2.3049193e-05 2.1163862e-05 1.3025832e-05 1.0988506e-05 -1.3831963e-05 -1.1296979e-05
2.1996519e-05 1.0122465e-05 6.3043735e-06 -1.8252113e-06 1.3014338e-05 2.0238727e-05 1.4118148e-05 8.545323e-06
-1.1493683e-05 1.32810455e-05 1.0748099e-06 -1.1141972e-05 1.1937522e-05 2.1166721e-05 3.312427e-05 1.3056684e-05
1.2671626e-05 1.432635e-05 2.2245811e-05 -5.0010467e-06 2.0218333e-05 2.8107988e-06 1.6411712e-05 1.944248e-06
1.3589124e-05 2.7554248e-05 1.3619316e-05 -1.3229257e-05 -1.8201208e-05 -2.7802802e-05 -2.2020642e-05 8.712777e-06
-2.1515192e-05 -1.4153507e-06 -4.110075e-06 -6.432396e-06 1.9149313e-05 1.9152427e-05 -1.38937285e-05 2.7336e-06
-1.9454124e-05 -6.2824365e-06 1.5133974e-05 1.64866e-05 -2.2898086e-05 -9.614936e-06 -2.05057e-05 2.5097506e-05
1.9367094e-06 -2.1724827e-05 -3.0872884e-06 2.1840151e-05 5.945123e-06 -1.2928202e-05 -3.6659685e-06 -2.020672e-05
3.0727174e-06 2.7335677e-06 1.8038623e-05 -2.2261607e-05 8.480898e-06 -9.762318e-06 -3.8583044e-06 2.2252862e-06
9.7106295e-06 1.005083e-05 -2.1241856e-05 8.317678e-06 -2.3814755e-05 -1.6275331e-05 -1.667453e-05 -1.093454e-05
-3.9304005e-06 -1.6649909e-05 2.6153517e-05 7.939185e-06 3.0054666e-06 -1.1053053e-05 -1.917993e-05 -1.693111e-05
-2.354247e-05 -1.023597e-05 -2.5454261e-05 1.2890225e-05 1.1630578e-05 1.4749155e-06 1.769848e-05 -2.3265435e-05
5.2243495e-06 5.114787e-06 -1.6524267e-05 -2.3303155e-06 1.331422e-05 -1.3592968e-05 5.6193244e-07 -1.1861317e-05
-0.00012647724 -8.307275e-05 4.9300074e-06 -0.00018140004 0.00010012112 -0.00029625237 4.1864214e-06 -0.00012921676
-6.4393906e-05 -1.4927146e-05 0.00010940217 7.515918e-05 -0.00011790033 -6.2811387e-06 -4.3082305e-06 -0.00019192325
1.915488e-06 -5.363469e-05 8.554521e-06 0.00016977938 8.018277e-05 0.00014960254 0.00015530623 -0.00010447047
-0.00015019612 0.00017196535 0.00016256074 -0.00015941539 -0.00013928217 -7.288861e-05 0.00010491781 6.657987e-05
-0.00014797892 -6.6588495e-05 -7.3732735e-05 5.6664107e-05 -6.930554e-05 -0.00012301412 -8.484539e-05 -7.521e-05
7.2143506e-05 -3.6289348e-05 -5.515666e-06 9.667597e-05 -5.747819e-05 -0.00017429126 -0.00023275727 -4.9050803e-05
-5.3297375e-05 -0.00013127124 -0.00017083767 3.9851577e-05 -0.00014947691 -2.1427686e-05 -0.00012982875 -1.5074854e-05
-0.00010217786 -0.00020126063 -0.00014045722 0.00011650264 0.0001331451 0.00019002761 0.00014574509 -3.6392503e-05
0.00015834227 9.165395e-05 7.294557e-07 7.779827e-05 -0.00017028037 -0.00010950621 0.00012497345 -4.9621367e-06
0.00012070904 -2.8089853e-06 -6.318754e-05 -0.00013721602 0.00018038978 8.0179845e-05 0.00018571023 -0.00017823563
5.4801723e-05 0.000120846424 6.458095e-05 -0.00015821142 -5.6468296e-05 8.336526e-05 -6.8038607e-06 0.00011987703
-1.0220607e-05 5.7557143e-05 -0.00016572473 0.00017624178 -6.030326e-05 8.161292e-05 -1.9064668e-05 1.9814113e-05
-8.101113e-05 -0.00010194946 0.00014296235 -3.2676984e-05 0.0002029291 0.00011960755 8.7473396e-05 9.461843e-05
1.6438522e-05 0.00014469368 -0.00016437017 -5.3615855e-05 -2.7640988e-05 4.463255e-05 0.00011395908 7.609166e-05
0.00012479519 9.095449e-05 0.00018492981 -0.00011792802 2.7148103e-06 -8.813341e-06 -0.00011998773 0.000120014665
-4.331083e-05 -9.927852e-05 0.00015976961 -4.1629748e-05 -0.00012951758 0.00010925927 7.718406e-06 4.256036e-05
00000000: 8a52 8137 14e9 a736 f4c7 f936 68a4 c237
00000010: 9812 5eb7 0a68 3c38 4416 edb5 bcbd 5837
00000020: e027 6137 ebc2 10b6 be0b 92b7 526f 05b7
00000030: 5c85 8937 bcb0 77b6 e6ee 8bb5 005e d237
00000040: 5a1d d9b6 fa3a 0737 a298 a536 629f 9eb7
00000050: d43d 51b7 2c57 a0b7 1064 bbb7 e6f9 8937
00000060: 1eb2 a237 d810 c8b7 c459 c1b7 0c89 b137
00000070: 8689 5a37 465b 3837 d40f 68b7 2888 3db7
00000080: 2a85 b837 a8d3 2937 288a d336 c8f9 f4b5
00000090: 2858 5a37 56c6 a937 fcdc 6c37 e25d 0f37
000000a0: fed4 40b7 a8d1 5e37 3042 9035 68ee 3ab7
000000b0: 4447 4837 308f b137 eaee 0a38 080e 5b37
000000c0: 3898 5437 345b 7037 849c ba37 aace a7b6
000000d0: 8a9a a937 28a1 3c36 e2ab 8937 ed79 0236
000000e0: d8fc 6337 4c24 e737 847e 6437 3af3 5db7
000000f0: ccae 98b7 103a e9b7 f8b8 b8b7 182d 1237
00000100: 867b b4b7 14f7 bdb5 47e9 89b6 dcd5 d7b6
00000110: d6a2 a037 86a9 a037 1c19 69b7 e472 3736
00000120: 6a31 a3b7 b8cd d2b6 ece7 7d37 b44c 8a37
00000130: 4415 c0b7 d64f 21b7 a803 acb7 7c88 d237
00000140: 6af8 0136 b63d b6b7 362f 4fb6 5e35 b737
00000150: 387c c736 34e6 58b7 dc04 76b6 9a81 a9b7
00000160: e234 4e36 5672 3736 a651 9737 70be bab7
00000170: 2e49 0e37 d6c8 23b7 9576 81b6 2056 1536
00000180: d6ea 2237 fc9f 2837 8a30 b2b7 288c 0b37
00000190: ccc5 c7b7 0287 88b7 48e0 8bb7 7e73 37b7
000001a0: e2e1 83b6 68ab 8bb7 4064 db37 8a32 0537
000001b0: 86b1 4936 8070 39b7 96e4 a0b7 4807 8eb7
000001c0: 127d c5b7 28bb 2bb7 9c86 d5b7 1843 5837
000001d0: f420 4337 b6f5 c535 3277 9437 242a c3b7
000001e0: d24c af36 b09f ab36 989d 8ab7 8462 1cb6
000001f0: 2460 5f37 5a0d 64b7 b4d7 1635 f8ff 46b7
00000200: fa9e 04b9 5837 aeb8 716c a536 3436 3eb9
00000210: 1ef8 d138 5252 9bb9 1679 8c36 5c7e 07b9
00000220: 370b 87b8 9b6f 7ab7 d86e e538 c79e 9d38
00000230: 4241 f7b8 92c2 d2b6 6b8f 90b6 013f 49b9
00000240: d58b 0036 cff5 60b8 6385 0f37 ce06 3239
00000250: cc27 a838 a0de 1c39 b3d9 2239 2817 dbb8
00000260: f77d 1db9 9951 3439 1175 2a39 be28 27b9
00000270: 460c 12b9 c6db 98b8 5207 dc38 cca0 8b38
00000280: ca2a 1bb9 6da5 8bb8 f6a0 9ab8 9faa 6d38
00000290: 2158 91b8 5afd 00b9 06ef b1b8 10ba 9db8
000002a0: c04b 9738 6435 18b8 3613 b9b6 84be ca38
000002b0: bd14 71b8 f4c1 36b9 4e10 74b9 e6bb 4db8
000002c0: 9f8b 5fb8 dba5 09b9 e322 33b9 4e26 2738
000002d0: e7bc 1cb9 9bbf b3b7 a422 08b9 01ea 7cb7
000002e0: 5248 d6b8 7d09 53b9 b347 13b9 e152 f438
000002f0: de9c 0b39 2642 4739 26d3 1839 27a4 18b8
00000300: ae08 2639 5736 c038 d0cf 4335 a127 a338
00000310: 4a8d 32b9 b3a6 e5b8 4e0b 0339 6e80 a6b6
00000320: 2c25 fd38 0082 3cb6 8d83 84b8 a5e1 0fb9
00000330: 0327 3d39 3a26 a838 36bb 4239 c3e4 3ab9
00000340: e7da 6538 ee6e fd38 a26f 8738 8ee5 25b9
00000350: 5fd8 6cb8 62d4 ae38 b84c e4b6 7e66 fb38
00000360: 2c79 2bb7 8369 7138 65c6 2db9 8bcd 3839
00000370: 22ee 7cb8 9a27 ab38 10ed 9fb7 7c36 a637
00000380: 85e4 a9b8 b3cd d5b8 2ae8 1539 a50e 09b8
00000390: 5ec9 5439 d0d5 fa38 ec71 b738 e26d c638
000003a0: 75e5 8937 eab8 1739 c85a 2cb9 96e1 60b8
000003b0: 92de e7b7 d633 3b38 51fd ee38 6693 9f38
000003c0: 74db 0239 d2be be38 b8e9 4139 2050 f7b8
000003d0: 1630 3636 03dd 13b7 eca1 fbb8 62b0 fb38
000003e0: a6a8 35b8 c033 d0b8 d487 2739 9a9b 2eb8
000003f0: 1ccf 07b9 2022 e538 4d7e 0137 d782 3238

exp_avg_sq f4 [11, 128]
2.128743e-07 2.7803244e-08 3.5355832e-08 4.5490663e-07 1.3681911e-07 1.635841e-06 3.2272203e-09 1.5148079e-07
1.3065176e-07 1.1110812e-09 2.528577e-07 5.306842e-08 2.2778536e-07 7.633691e-09 2.5758509e-09 5.5337574e-07
2.9894068e-08 4.390285e-08 1.7962915e-08 3.3299253e-07 1.2841168e-07 2.9475194e-07 4.393444e-07 2.2297378e-07
3.0754833e-07 4.6985048e-07 4.3707368e-07 3.7640964e-07 1.6331113e-07 8.7960345e-08 1.6991964e-07 1.079427e-07
3.8376413e-07 9.6194846e-08 3.8286053e-08 2.2881321e-09 1.2958553e-07 3.3494845e-07 1.7798588e-07 6.54913e-08
1.1876286e-07 1.2889377e-07 1.7205772e-09 9.9768506e-08 9.3516135e-08 4.1163796e-07 9.3787963e-07 1.3750794e-07
1.2573999e-07 1.6589206e-07 4.275623e-07 2.9357341e-08 3.3237194e-07 6.5717853e-09 2.5232626e-07 2.3637614e-09
1.4877519e-07 6.320986e-07 1.740619e-07 1.5679927e-07 2.7365968e-07 6.6383154e-07 3.832839e-07 5.105617e-08
3.73734e-07 2.8847031e-09 1.0187356e-08 4.646285e-08 3.7027232e-07 2.777987e-07 1.805558e-07 3.6861763e-09
2.8262852e-07 2.8098226e-08 1.5756737e-07 2.4071883e-07 4.593717e-07 7.1177e-08 3.610243e-07 5.3077787e-07
1.3342327e-09 3.8072898e-07 4.035128e-09 3.9583776e-07 3.3508528e-08 1.3586691e-07 1.42499745e-08 3.3138556e-07
4.707454e-09 3.1168947e-09 2.898717e-07 3.9815768e-07 8.924876e-08 8.914113e-08 4.8103925e-09 2.8836078e-09
7.185127e-08 1.045706e-07 3.5947636e-07 3.594734e-08 4.802481e-07 2.2500257e-07 2.237229e-07 9.804265e-08
1.1366552e-08 2.6759875e-07 5.628664e-07 6.155515e-08 6.412873e-09 1.1351453e-07 3.007708e-07 2.2999119e-07
4.6091697e-07 7.592923e-08 5.3064497e-07 1.6269665e-07 8.77303e-08 2.2998774e-09 2.3626262e-07 4.313578e-07
2.3643546e-08 2.6168898e-08 2.337663e-07 2.2430724e-09 1.5570022e-07 1.4543166e-07 7.8712703e-10 8.3929585e-08
9.828291e-07 4.187798e-07 8.6626767e-10 2.0014184e-06 5.6600294e-07 5.50828e-06 2.7619966e-09 9.779335e-07
2.3708418e-07 1.8924014e-08 7.751796e-07 3.207388e-07 8.424051e-07 2.5513114e-09 1.1072429e-09 2.3106059e-06
3.0637624e-09 1.7059838e-07 2.2279691e-09 1.8021788e-06 4.0436095e-07 1.3095951e-06 1.5901146e-06 6.830757e-07
1.3585603e-06 1.7819398e-06 1.6702825e-06 1.5920184e-06 1.2018291e-06 3.0809773e-07 7.072386e-07 2.7631e-07
1.3223159e-06 2.8090486e-07 3.4574882e-07 1.5374e-07 3.1716684e-07 9.803653e-07 4.754109e-07 3.26357e-07
3.4248052e-07 9.939497e-08 1.264787e-09 5.2074154e-07 1.6545496e-07 1.8970577e-06 3.3691413e-06 1.7506655e-07
1.6648815e-07 9.960133e-07 1.8328186e-06 1.05285686e-07 1.3211303e-06 2.7960759e-08 1.1795756e-06 1.3356272e-08
5.9983375e-07 2.512493e-06 1.2534267e-06 8.234297e-07 1.0665782e-06 2.2713684e-06 1.2694571e-06 9.059754e-08
1.4851618e-06 4.388563e-07 2.7606886e-10 3.741616e-07 1.8867454e-06 6.992775e-07 9.546177e-07 6.562851e-10
8.8874134e-07 5.2727367e-10 2.3085747e-07 1.1613536e-06 2.0261252e-06 3.604299e-07 2.0752907e-06 1.9775873e-06
1.5859807e-07 8.957183e-07 2.0192317e-07 1.5250611e-06 1.9177646e-07 4.0877995e-07 1.7393589e-09 8.9590736e-07
3.4224077e-09 1.8092396e-07 1.6525377e-06 1.8353254e-06 3.0414722e-07 3.9521228e-07 2.615918e-08 2.0376266e-08
3.473062e-07 6.6459637e-07 1.1981437e-06 4.232256e-08 2.5170823e-06 8.6646577e-07 4.7528712e-07 5.6103227e-07
2.0500318e-08 1.3298859e-06 1.6822738e-06 1.7328186e-07 3.815663e-08 1.7733163e-07 7.866156e-07 3.8205016e-07
1.0255775e-06 4.563662e-07 2.0912187e-06 9.392027e-07 6.517116e-10 6.286758e-09 8.3974857e-07 9.1005774e-07
1.2073664e-07 5.448681e-07 1.5392031e-06 1.016329e-07 9.837349e-07 7.3673965e-07 7.8056885e-09 9.240986e-08
00000000: 7192 6434 fbd3 ee32 26da 1733 e439 f434
00000010: 8de8 1234 128f db35 dcc5 5d31 b9a6 2234
00000020: 4849 0c34 b2b4 9830 7fc0 8734 58ed 6333
00000030: 2a95 7434 5425 0332 d902 3131 b18b 1435
00000040: e064 0033 b28f 3c33 de4c 9a32 25c6 b234
00000050: 89e1 0934 663e 9e34 09df eb34 916a 6f34
00000060: 1f1d a534 c23f fc34 f3a6 ea34 5915 ca34
00000070: 9f5a 2f34 b6e4 bc33 2873 3634 20ce e733
00000080: 2408 ce34 ad93 ce33 f66f 2433 3f3d 1d31
00000090: 3324 0b34 f7d2 b334 631c 3f34 39a4 8c33
000000a0: 930a ff33 0d66 0a34 6e79 ec30 5140 d633
000000b0: 0ad3 c833 17ff dc34 99c2 7b35 e5a5 1334
000000c0: 2503 0734 1020 3234 b78b e534 7a2d fc32
000000d0: da70 b234 09ce e131 7577 8734 bb6f 2231
000000e0: 03bf 1f34 7cad 2935 c5e5 3a34 a85c 2834
000000f0: 80eb 9234 2832 3235 23c6 cd34 da48 5b33
00000100: 9ca5 c834 3c3c 4631 7704 2f32 728e 4733
00000110: d7c9 c634 5d24 9534 cdde 4134 e64f 7d31
00000120: 2bbc 9734 a75c f132 ca2f 2934 253c 8134
00000130: 919f f634 f8d9 9833 cdd2 c134 c77a 0e35
00000140: 2460 b730 fe66 cc34 5ca5 8a31 8783 d434
00000150: 04eb 0f33 d0e2 1134 0dd0 7432 49e9 b134
00000160: 34bf a131 fe30 5631 aa9f 9b34 60c2 d534
00000170: 06a9 bf33 db6d bf33 a948 a531 f728 4631
00000180: a74c 9a33 4c90 e033 0efe c034 8564 1a33
00000190: 66ea 0035 3c98 7134 7c38 7034 848b d233
000001a0: a046 4332 7eaa 8f34 e217 1735 4d30 8433
000001b0: 3a58 dc31 46c5 f333 a079 a134 7ff3 7634
000001c0: f273 f734 890e a333 a571 0e35 b7b1 2e34
000001d0: 3e66 bc33 df0b 1e31 60af 7d34 5d95 e734
000001e0: b518 cb32 04ca e032 3101 7b34 8c24 1a31
000001f0: 8d2e 2734 f327 1c34 245d 5830 c73c b433
00000200: c0e9 8335 a8d4 e034 2b1e 6e30 1b50 0636
00000210: 6def 1735 c4d3 b836 8fcd 3d31 8a41 8335
00000220: 3491 7e34 598e a232 f015 5035 0132 ac34
00000230: a321 6235 2553 2f31 a52d 9830 e80f 1b36
00000240: 478a 5231 ba2d 3734 d91a 1931 64e2 f135
00000250: f216 d934 58c5 af35 ec6b d535 9b5c 3735
00000260: c757 b635 fc2a ef35 782e e035 56ad d535
00000270: 894e a135 a168 a534 11d9 3d35 c257 9434
00000280: 6e7a b135 45cf 9634 5b9f b934 bb13 2534
00000290: 1447 aa34 1895 8335 fa3b ff34 2a36 af34
000002a0: 2ade b734 f672 d533 bdd4 ad30 16c9 0b35
000002b0: eaa7 3134 689e fe35 6819 6236 edf9 3b34
000002c0: eac3 3234 c2ae 8535 2bff f535 6b19 e233
000002d0: b151 b135 5c2e f032 e951 9e35 8175 6532
000002e0: 4304 2135 4d9c 2836 6a3b a835 a809 5d35
000002f0: 5927 8f35 d06d 1836 3762 aa35 868e c233
00000300: c555 c735 f39b eb34 3dc5 972f 61e0 c834
00000310: 143c fd35 fcb5 3b35 6a20 8035 f565 3430
00000320: d791 6e35 96ef 1030 9ee1 7734 cedf 9b35
00000330: 91f8 0736 1c81 c134 3945 0b36 b1b6 0436
00000340: 1b4b 2a34 4b71 7035 38d0 5834 b3b0 cc35
00000350: 1deb 4d34 4a76 db34 400e ef30 497e 7035
00000360: a22f 6b31 0044 4234 c3cc dd35 4d55 f635
00000370: ad49 a334 902d d434 a5b4 e032 e207 af32
00000380: 6775 ba34 b766 3235 e7cf a035 26c6 3533
00000390: 25eb 2836 1397 6835 f72a ff34 d899 1635
000003a0: ad18 b032 887e b235 7dca e135 5b0f 3a34
000003b0: a9e1 2333 8c68 3e34 d027 5335 931c cd34
000003c0: 93a6 8935 7e02 f534 dd56 0c36 851d 7c35
000003d0: 2024 3330 e802 d831 156b 6135 b14a 7435
000003e0: d6a3 0134 0d43 1235 9e96 ce35 4741 da33
000003f0: e008 8435 5dc4 4535 c819 0632 dc72 c633

exp_avg f4 [64, 128]
1.9404692e-05 -4.6241992e-05 1.9822028e-07 -9.2163056e-05 -6.5866607e-06 -2.33525e-05 -1.0431447e-05 -3.0083489e-05
-4.3082564e-05 1.6970196e-05 -4.721485e-05 4.6741307e-06 -2.5142048e-05 -2.2372677e-05 1.5793898e-05 -2.8761488e-05
1.6423057e-05 1.718102e-05 -8.329266e-07 5.2308755e-05 -2.0569629e-05 6.8360905e-06 1.1496142e-05 -4.3162938e-05
-2.4063582e-05 4.557691e-05 1.5288082e-05 -2.3729262e-05 -9.605934e-06 -3.3190303e-05 1.5984748e-05 -1.2438502e-05
-2.1306256e-05 -9.0113335e-06 -1.2619718e-05 8.8968445e-06 -3.877432e-05 2.1019887e-06 -2.8927641e-05 -5.2188407e-05
-1.1483362e-05 2.205159e-05 -2.3596302e-05 9.346085e-06 -3.5772298e-06 -4.271364e-05 -5.1168397e-05 -1.8927367e-05
-2.6545284e-05 3.3577803e-06 -2.3841922e-05 -8.713026e-06 -3.3370437e-05 -5.4467273e-07 2.025181e-05 1.4128125e-05
-3.5056786e-05 -2.9738638e-05 3.2359843e-05 3.6734484e-05 -2.0466152e-05 7.678808e-05 5.1476996e-05 -1.8537692e-05
-1.5023609e-05 -9.680064e-07 -2.2604443e-05 1.1017208e-05 -1.2397501e-05 -3.9076076e-07 2.2759647e-05 -6.815254e-06
-1.5766385e-05 2.1641821e-05 2.0744835e-08 -7.165779e-05 1.2879972e-05 -2.2933706e-05 2.1747572e-05 -3.796349e-05
-6.1574883e-07 4.8680704e-07 1.1986782e-07 -4.1788102e-05 -4.2428483e-06 1.7723378e-05 -2.598518e-05 8.5364645e-06
-3.3136157e-06 3.836174e-06 -2.2339389e-05 3.7708363e-05 1.5743593e-05 3.095042e-05 -1.811735e-06 9.33853e-07
-1.2525399e-05 -4.332803e-05 4.1230276e-05 -2.768895e-05 -1.1231492e-05 5.3224703e-05 4.6272886e-05 1.9558718e-05
-2.401157e-05 5.714661e-05 -5.3466218e-05 -2.7683098e-05 -4.6159075e-05 4.281282e-05 5.2760974e-05 -9.164363e-06
-6.586355e-06 1.9218121e-05 3.672508e-05 -4.585683e-06 -8.3001305e-07 1.286534e-05 3.29068e-06 5.008672e-05
1.6966322e-05 -2.0295356e-05 4.1132545e-05 1.1334832e-06 -9.541196e-06 -2.7264708e-05 3.0206915e-05 -2.8267092e-05
4.0311214e-05 -9.4418494e-05 -6.41325e-06 -0.00021783306 -2.2772383e-05 -5.600074e-05 -3.0785453e-05 -6.831364e-05
-0.00010855284 4.967613e-05 -0.0001141961 1.2143537e-05 -5.3300602e-05 -4.291825e-05 4.5580586e-05 -6.7357025e-05
3.7910635e-05 4.3758424e-05 -1.0159399e-05 0.00012066127 -5.1393243e-05 1.0618161e-05 2.3418837e-05 -9.699386e-05
-4.3874363e-05 0.000106965716 2.8593355e-05 -5.7189325e-05 -1.662609e-05 -7.701762e-05 3.1927004e-05 -2.9656578e-05
-4.5566463e-05 -2.5559588e-05 -3.212078e-05 1.7395774e-05 -8.8449e-05 4.285802e-06 -7.874673e-05 -0.00012468721
-3.5226592e-05 4.5329256e-05 -6.691177e-05 1.7851384e-05 -1.3128778e-05 -0.00010650629 -0.00012586372 -4.2643664e-05
-7.0537004e-05 1.9877596e-05 -5.484417e-05 -1.02646845e-05 -7.4287746e-05 1.0156255e-06 4.5364068e-05 3.6441383e-05
-7.844122e-05 -6.97248e-05 9.270209e-05 8.460082e-05 -4.994271e-05 0.00020127694 0.00012260687 -3.806445e-05
-3.9817358e-05 -1.3024574e-05 -5.798225e-05 2.5816347e-05 -1.5659465e-05 2.778619e-06 4.9217102e-05 -2.7925846e-05
-2.6684542e-05 7.139297e-05 -1.0938098e-05 -0.0001775774 3.0390234e-05 -5.9586728e-05 3.2950997e-05 -9.735688e-05
-1.2058117e-06 8.839801e-06 -1.6219346e-05 -9.974398e-05 -1.8834779e-05 3.9510058e-05 -6.39888e-05 3.016937e-05
-1.4585103e-05 2.7015117e-06 -5.1750845e-05 8.482518e-05 3.4620854e-05 7.6574244e-05 -1.3623421e-06 -3.7333893e-06
-2.0012147e-05 -9.3292554e-05 0.00010432154 -6.804552e-05 -3.7582427e-05 0.00013112035 0.00011680045 3.605884e-05
-6.23494e-05 0.00012542562 -0.00012710948 -7.6603596e-05 -9.9858815e-05 0.00010016393 0.00013744461 -1.3866316e-05
-1.0828626e-05 4.716757e-05 8.060484e-05 -1.3785753e-05 -8.577697e-06 4.1223724e-05 1.31342495e-05 0.00013219057
5.248488e-05 -3.582853e-05 9.018001e-05 7.5245507e-06 -1.789229e-05 -8.1929e-05 7.610728e-05 -6.387514e-05
00000000: 42c7 a237 f6f3 41b8 60d6 5434 aa47 c1b8
00000010: fc02 ddb6 1de5 c3b7 b902 2fb7 cd5b fcb7
00000020: 8db3 34b8 385b 8e37 8f08 46b8 7ad6 9c36
00000030: 23e8 d2b7 f5ac bbb7 237d 8437 d344 f1b7
00000040: 3fc4 8937 f61f 9037 4896 5fb5 1966 5b38
00000050: f18c acb7 9261 e536 8edf 4037 da09 35b8
00000060: 26dc c9b7 d629 3f38 e83e 8037 340e c7b7
00000070: 2c29 21b7 d135 0bb8 fc16 8637 f6ae 50b7
00000080: d6ba b2b7 622f 17b7 47b9 53b7 a843 1537
00000090: 9ca1 22b8 e40f 0d36 a3a9 f2b7 e0e4 5ab8
000000a0: aaa8 40b7 6efb b837 acf0 c5b7 21cd 1c37
000000b0: 5710 70b6 6c27 33b8 a69d 56b8 36c6 9eb7
000000c0: 90ad deb7 3a56 6136 2300 c8b7 292e 12b7
000000d0: 3cf7 0bb8 a035 12b5 6ee2 a937 d607 6d37
000000e0: f009 13b8 3d77 f9b7 1eba 0738 5a13 1a38
000000f0: baae abb7 4909 a138 01e9 5738 6481 9bb7
00000100: e90d 7cb7 72ec 81b5 ac9e bdb7 8cd6 3837
00000110: ddfe 4fb7 c0c9 d1b4 f8eb be37 96ae e4b6
00000120: 0e42 84b7 758b b537 6032 b232 fc46 96b8
00000130: 0f17 5837 c261 c0b7 8e6e b637 fd3a 1fb8
00000140: f049 25b5 20ad 0235 04b5 0034 a245 2fb8
00000150: ca5d 8eb6 aaac 9437 c0fa d9b7 d637 0f37
00000160: 7c5f 5eb6 7cb8 8036 7965 bbb7 0c29 1e38
00000170: 1c11 8437 c3d0 0138 be2a f3b5 e4ad 7a35
00000180: 2e24 52b7 1ebb 35b8 acee 2c38 9145 e8b7
00000190: e46e 3cb7 973d 5f38 2215 4238 0712 a437
000001a0: 746c c9b7 b5b0 6f38 ea40 60b8 0039 e8b7
000001b0: ee9a 41b8 ea91 3338 aa4b 5d38 a4c0 19b7
000001c0: 5c00 ddb6 9a36 a137 4109 1a38 b8de 99b6
000001d0: 10ce 5eb5 37d8 5737 74d5 5c36 3514 5238
000001e0: e652 8e37 f23f aab7 bc85 2c38 3022 9835
000001f0: 2013 20b7 84b6 e4b7 db64 fd37 1e1f edb7
00000200: d613 2938 8b02 c6b8 6631 d7b6 1e6a 64b9
00000210: 5207 bfb7 56e2 6ab8 a11f 01b8 9b43 8fb8
00000220: dda6 e3b8 575b 5038 907c efb8 18bc 4b37
00000230: 168f 5fb8 1f03 34b8 c82d 3f38 0742 8db8
00000240: 3c02 1f38 4089 3738 4972 2ab7 870b fd38
00000250: 138f 57b8 a724 3237 9273 c437 2f69 cbb8
00000260: bd05 38b8 c852 e038 c3db ef37 92de 6fb8
00000270: 4278 8bb7 8584 a1b8 5ce9 0538 04c7 f8b7
00000280: 9e1e 3fb8 cc68 d6b7 6db9 06b8 24ed 9137
00000290: b27d b9b8 c2ce 8f36 d424 a5b8 78be 02b9
000002a0: 44c0 13b8 eb1f 3e38 fc52 8cb8 8ebf 9537
000002b0: ac43 5cb7 215c dfb8 49fa 03b9 49dc 32b8
000002c0: 44ed 93b8 d0be a637 7b08 66b8 7c36 2cb7
000002d0: eeca 9bb8 a050 8835 4c45 3e38 a3d8 1838
000002e0: cf80 a4b8 3839 92b8 0e69 c238 b86b b138
000002f0: 9479 51b8 de0d 5339 0890 0039 64a7 1fb8
00000300: 9001 27b8 1f84 5ab7 f831 73b8 2f90 d837
00000310: 725c 83b7 5078 3a36 766e 4e38 4c42 eab7
00000320: 9ed8 dfb7 cfb8 9538 c682 37b7 1234 3ab9
00000330: 88ee fe37 c3ec 79b8 dd34 0a38 142c ccb8
00000340: 60d7 a1b5 a84e 1437 c80e 88b7 a42d d1b8
00000350: 61ff 9db7 9ab7 2538 ba31 86b8 3b14 fd37
00000360: 8ab2 74b7 9e4b 3536 0c0f 59b8 2ce4 b138
00000370: dc35 1138 7c96 a038 b8d9 b6b5 248b 7ab6
00000380: c2df a7b7 0fa6 c3b8 33c7 da38 a9b3 8eb8
00000390: d3a1 1db8 5a7d 0939 c4f2 f438 e23d 1738
000003a0: 94c1 82b8 af84 0339 b148 05b9 3ea6 a0b8
000003b0: 4b6b d1b8 1a0f d238 021f 1039 60a3 68b7
000003c0: 98ac 35b7 cbd5 4538 650a a938 5c49 67b7
000003d0: eee8 0fb7 a3e7 2c38 2c5b 5c37 a39c 0a39
000003e0: 3623 5c38 9746 16b8 061f bd38 667b fc36
000003f0: 6617 96b7 4cd1 abb8 c99b 9f38 b4f4 85b8

exp_avg_sq f4 [64, 128]
1.5403424e-08 2.188094e-08 2.8060084e-08 7.2419436e-07 1.5156596e-07 9.837394e-08 3.77156e-09 2.8506706e-08
3.0955087e-07 3.836066e-08 1.0667251e-07 3.9076774e-08 3.5621207e-07 1.047884e-08 3.5149945e-08 2.2961694e-07
5.545413e-08 5.9995737e-09 2.6227761e-08 5.0658605e-07 3.230734e-08 6.109546e-08 5.664609e-09 1.765182e-07
2.2540169e-07 3.793791e-07 4.716742e-09 4.336003e-08 2.796016e-09 3.407227e-08 1.5159758e-08 3.219948e-09
7.5254405e-08 2.1861891e-07 3.877372e-09 7.1842052e-09 3.1003008e-08 5.867699e-09 4.297735e-07 3.1533543e-07
3.5908556e-08 1.5475651e-08 3.475067e-08 1.6850277e-07 1.5590174e-09 2.7666536e-07 1.6591397e-07 2.3595588e-08
2.6787774e-07 8.6699316e-08 2.5591351e-08 1.4817415e-07 5.2098805e-08 1.8197877e-08 3.62118e-08 9.530289e-09
1.7363452e-07 5.7890382e-08 3.322882e-08 2.4349207e-08 4.9355958e-08 5.1237447e-07 5.7428196e-07 5.0238615e-08
3.0663266e-08 2.8023635e-09 8.21959e-09 1.171141e-08 1.7909239e-08 9.056369e-08 1.0831875e-08 2.4943414e-08
9.965303e-09 1.621533e-08 6.865295e-08 1.8520562e-07 1.093012e-07 1.5596456e-08 3.1351743e-08 7.233149e-07
2.8090958e-09 2.1705505e-07 1.8115721e-09 4.5763994e-07 2.943604e-07 1.7557593e-07 1.808642e-08 2.5677184e-07
1.0149699e-07 8.705303e-10 1.5891544e-07 1.3089301e-07 3.988239e-08 1.14824786e-07 1.0098948e-09 5.6991306e-10
4.0897676e-09 2.4313772e-08 1.731029e-07 2.2831648e-08 6.116333e-08 4.8913773e-07 9.791638e-08 3.3836226e-08
6.2104615e-09 1.719603e-07 2.034997e-07 1.21278e-07 5.6134784e-08 2.3166095e-08 6.4090136e-07 4.8226405e-09
1.45836845e-08 1.9152536e-08 6.7992495e-08 5.3166424e-08 1.2293335e-09 1.3517224e-08 3.2723342e-08 5.848694e-07
1.082472e-08 1.33313796e-08 3.3117193e-08 2.9544025e-09 1.7033557e-07 2.0593504e-08 3.6881637e-08 1.28271855e-08
1.06775005e-07 8.729879e-08 1.12043175e-07 4.095473e-06 7.623481e-07 5.493783e-07 2.5518464e-08 1.4985955e-07
1.976181e-06 2.2437467e-07 5.5782067e-07 2.1368975e-07 1.9239628e-06 6.155111e-08 2.4573023e-07 1.2316241e-06
2.9614156e-07 3.0092277e-08 9.7209e-08 2.758493e-06 1.8162893e-07 3.2271674e-07 3.350531e-08 9.48132e-07
1.1184923e-06 2.1083695e-06 2.569446e-08 2.735946e-07 1.9437186e-08 1.990323e-07 8.897668e-08 2.4199208e-08
4.0724387e-07 1.2558276e-06 2.3166832e-08 3.0409886e-08 1.789389e-07 2.6156865e-08 2.6496466e-06 1.7947347e-06
1.6295948e-07 7.0326536e-08 2.6326884e-07 8.9099603e-07 1.3563276e-08 1.6479805e-06 1.054787e-06 1.2315773e-07
1.8577459e-06 4.0257999e-07 1.4450224e-07 9.118045e-07 2.7688603e-07 9.3314775e-08 2.1284767e-07 4.9043916e-08
9.752013e-07 3.282078e-07 2.544347e-07 1.0093276e-07 2.737301e-07 3.3013514e-06 3.3562642e-06 2.747879e-07
1.6304053e-07 2.6638265e-08 4.329042e-08 6.521291e-08 4.5506336e-08 5.152102e-07 5.951616e-08 1.7552897e-07
3.1668147e-08 1.9409696e-07 5.1532936e-07 1.1082963e-06 5.6082536e-07 7.372277e-08 8.700625e-08 4.2668867e-06
3.202992e-08 1.4086318e-06 1.4742553e-08 2.6715302e-06 1.7421695e-06 1.0359612e-06 1.1220597e-07 1.6323457e-06
6.1881894e-07 3.7738976e-09 8.707941e-07 7.3381665e-07 2.203105e-07 6.570571e-07 5.510944e-09 6.3121943e-09
9.208394e-09 9.9481326e-08 1.2029021e-06 1.6802792e-07 2.5435858e-07 2.8774461e-06 6.400693e-07 2.111581e-07
3.7040266e-08 8.000291e-07 1.2399306e-06 8.3272135e-07 2.524507e-07 1.3143313e-07 4.0309774e-06 3.615967e-08
8.664015e-08 1.1504656e-07 3.7027348e-07 2.4994964e-07 1.7345165e-08 8.1900396e-08 1.7084302e-07 3.6348129e-06
6.8402976e-08 4.906798e-08 1.618686e-07 1.878186e-08 8.2345474e-07 1.909089e-07 2.4456594e-07 5.8191983e-08
00000000: 7d50 8432 b2f4 bb32 c708 f132 4266 4235
00000010: 22be 2234 a541 d333 fe96 8131 e9de f432
00000020: 5930 a634 fec1 2433 d513 e533 5ed5 2733
00000030: 6a3d bf34 6d06 3432 c6f7 1633 a08c 7634
00000040: 762c 6e33 cf24 ce31 754b e132 54fc 0735
00000050: 4cc2 0a33 9633 8333 6da2 c231 f488 3d34
00000060: f205 7234 77ad cb34 e710 a231 db3a 3a33
00000070: 0924 4031 db56 1233 a938 8232 ed45 5d31
00000080: 8c9b a133 82bd 6a34 ba39 8531 f0d8 f631
00000090: 2b28 0533 d49c c931 9fbb e634 5f4b a934
000000a0: e039 1a33 51ef 8432 c440 1533 b0ed 3434
000000b0: 0c45 d630 9988 9434 1626 3234 3faf ca32
000000c0: d6d0 8f34 742f ba33 fad3 db32 cd19 1f34
000000d0: 3ec3 5f33 8e51 9c32 4c87 1b33 a7ba 2332
000000e0: 4b70 3a34 26a3 7833 79b7 0e33 7928 d132
000000f0: 73fb 5333 1b8a 0935 5b28 1a35 f1c5 5733
00000100: 9eb2 0333 b393 4031 2436 0d32 5333 4932
00000110: d5d6 9932 ea7b c233 1717 3a32 2643 d632
00000120: de33 2b32 e349 8b32 5c6e 9333 efdc 4634
00000130: f8b8 ea33 f8f8 8532 9ba7 0633 d229 4235
00000140: 230a 4131 a30f 6934 07fb f830 8eb1 f534
00000150: 9608 9e34 f285 3c34 755c 9b32 74da 8934
00000160: 8ff6 d933 204a 6f30 58a2 2a34 998b 0c34
00000170: 274b 2b33 9895 f633 84cc 8a30 11a8 1c30
00000180: fa85 8c31 8dda d032 2ade 3934 531f c432
00000190: e558 8333 4a4d 0335 1946 d233 5353 1133
000001a0: cc63 d531 16a4 3834 9281 5a34 a538 0234
000001b0: d918 7133 c8fe c632 680a 2c35 65b4 a531
000001c0: b98b 7a32 df84 a432 4503 9233 1a59 6433
000001d0: 54f5 a830 6139 6832 b28b 0c33 ebff 1c35
000001e0: 9ff7 3932 0708 6532 bd3c 0e33 6606 4b31
000001f0: 7ce5 3634 98e5 b032 ca67 1e33 8f5e 5c32
00000200: 2e4c e533 0479 bb33 639c f033 d86b 8936
00000210: 2aa4 4c35 fd78 1335 b233 db32 14e9 2034
00000220: 889e 0436 a4eb 7034 25bd 1535 9772 6534
00000230: 6e1d 0136 152e 8433 e8ec 8334 484e a535
00000240: 63fd 9e34 cf3e 0133 37c1 d033 8d1e 3936
00000250: c805 4334 da41 ad34 7ae7 0f33 2383 7e35
00000260: 1a1f 9635 837d 0d36 b7b6 dc32 8ee2 9234
00000270: d3f6 a632 95b5 5534 7213 bf33 9fde cf32
00000280: 2ca3 da34 e88d a835 6700 c732 069c 0233
00000290: 5a22 4034 8eaf e032 95d0 3136 9de2 f035
000002a0: f6f9 2e34 6c06 9733 6557 8d34 c82c 6f35
000002b0: eb03 6932 2e30 dd35 3592 8d35 573d 0434
000002c0: aa57 f935 2c22 d834 7928 1b34 bac2 7435
000002d0: eda6 9434 5764 c833 1f8b 6434 5ba4 5233
000002e0: a9e3 8235 8934 b034 3d99 8834 5fc0 d833
000002f0: 2ef5 9234 c98c 5d36 2e3c 6136 9086 9334
00000300: 3d10 2f34 2ad2 e432 52ee 3933 2d0b 8c33
00000310: bf72 4333 fa4c 0a35 b69e 7f33 0979 3c34
00000320: 7f03 0833 f768 5034 2a55 0a35 c5c0 9435
00000330: a08b 1635 8551 9e33 31d8 ba33 472c 8f36
00000340: 4591 0933 3810 bd35 6f46 7d32 8a48 3336
00000350: 7dd4 e935 5b0b 8b35 e2f5 f033 f916 db35
00000360: ea1c 2635 8eab 8131 84c0 6935 7ffb 4435
00000370: 7d8e 6c34 9f60 3035 c75a bd31 a6e2 d831
00000380: f232 1e32 70a2 d533 6773 a135 2a6b 3434
00000390: c78e 8834 261a 4136 3ad1 2b35 b2ba 6234
000003a0: 3416 1f33 95c1 5635 b16b a635 2d88 5f35
000003b0: 8f88 8734 1020 0d34 d541 8736 fa4d 1b33
000003c0: ed0e ba33 840f f733 00ca c634 d130 8634
000003d0: 6cfe 9432 38e1 af33 f970 3734 9ced 7336
000003e0: efe4 9233 d1be 5233 1ace 2d34 bf55 a132
000003f0: 610b 5d35 a4fc 4c34 e34c 8334 c3ee 7933

exp_avg f4 [64]
5.318024e-05 0.00011792226 0.0053389077 0.0002224832 -5.3457017e-05 -0.0010073928 0.0001036891 0.00021514764
3.5930927e-06 0.0009072909 0.00021475481 -9.1081725e-05 0.00020839779 0.0006980107 -0.00091866043 -1.6109418e-05
0.00010778369 0.00022701522 -2.8344033e-05 -0.00050634216 -0.00038122316 0.00037271163 0.00011263798 0.000116232
0.0002766337 -0.00024181085 0.0002488282 -0.00076008186 1.5598871e-05 -0.0007328408 -0.00019794336 -0.00019274227
0.0009080278 -0.00052069104 0.0002552208 0.0004625518 2.9201281e-05 0.0018432004 -0.00019095137 0.0005674648
0.0003858989 -5.4546712e-05 -0.00020255298 -0.00017658866 0.0007304516 -6.553275e-05 -0.0003412223 -0.00014696068
0.0002762402 0.00020594239 -0.0007447039 -0.0003975025 -0.0005909788 -0.00043871766 0.00018066732 0.00043642797
-0.0027504815 0.0010265138 7.450301e-05 -0.00022299276 0.000101568636 9.325963e-05 5.5878395e-06 -0.00021393021
00000000: d90d 5f38 084d f738 01f2 ae3b 614a 6939
00000010: 0937 60b8 7e0a 84ba a973 d938 4199 6139
00000020: dd20 7136 43d7 6d3a ce2f 6139 2103 bfb8
00000030: 5b85 5a39 b5fa 363a 42d2 70ba b622 87b7
00000040: ee09 e238 ef0a 6e39 59c4 edb7 0cbc 04ba
00000050: e8de c7b9 8268 c339 0e38 ec38 94c1 f338
00000060: 2609 9139 9b8e 7db9 2875 8239 3b40 47ba
00000070: 52da 8237 1d1c 40ba 048f 4fb9 dc1a 4ab9
00000080: b708 6e3a fc7e 08ba 28cf 8539 a782 f239
00000090: 46f5 f437 8b97 f13a 1e3a 48b9 ebc1 143a
000000a0: 7952 ca39 16c9 64b8 6764 54b9 a82a 39b9
000000b0: c77b 3f3a a16e 89b8 15e6 b2b9 7519 1ab9
000000c0: 55d4 9039 3df2 5739 3c38 43ba e267 d0b9
000000d0: eaeb 1aba b003 e6b9 8471 3d39 5fd0 e439
000000e0: 6c41 34bb 168c 863a 803e 9c38 2ad3 69b9
000000f0: 3f01 d538 6294 c338 2d7f bb36 7452 60b9

exp_avg_sq f4 [64]
5.403148e-07 2.9261253e-06 0.0049492256 9.562759e-06 6.0641537e-07 0.00018874819 2.232493e-06 9.766209e-06
2.5879445e-09 0.00014789413 7.791869e-06 1.6168045e-06 9.159788e-06 9.738158e-05 0.0001536069 1.1585855e-07
2.3516948e-06 1.0661855e-05 9.205882e-08 5.0524086e-05 2.7820257e-05 2.5699559e-05 2.0515376e-06 2.068809e-06
1.5229324e-05 1.0739212e-05 1.0558016e-05 0.00010493441 3.385074e-08 0.00010043592 7.869305e-06 7.068705e-06
0.00015937816 5.0153798e-05 1.3370253e-05 4.115902e-05 1.1694814e-07 0.0005539854 6.7661713e-06 5.67634e-05
2.7526916e-05 5.3408434e-07 7.3647507e-06 5.4536044e-06 0.00010550336 5.8557373e-07 2.1910204e-05 4.114694e-06
1.6034433e-05 8.664455e-06 0.00010415207 3.184647e-05 6.543131e-05 3.336661e-05 6.4354235e-06 3.646361e-05
0.0012979946 0.00019332315 1.1336955e-06 1.0339516e-05 2.208131e-06 1.473371e-06 4.4970614e-09 9.427476e-06
00000000: 260a 1135 735e 4436 1d2d a23b bd6f 2037
00000010: 8cc8 2235 b5ea 4539 f0d1 1536 8cd9 2337
00000020: 9ad7 3131 0714 1b39 d3b9 0237 fb00 d935
00000030: fdac 1937 5639 cc38 8a11 2139 e9cd f833
00000040: cfd1 1d36 52e0 3237 dfb1 c533 d3e9 5338
00000050: 8c5f e937 6295 d737 26ad 0936 ded5 0a36
00000060: 7381 7f37 902c 3437 5522 3137 3b10 dc38
00000070: 4863 1133 20a1 d238 6806 0437 b72f ed36
00000080: c01e 2739 3b5c 5238 cd50 6037 29a2 2c38
00000090: eb24 fb33 5539 113a f808 e336 3d15 6e38
000000a0: 9ae9 e637 ff5d 0f35 ba1e f736 1bfe b636
000000b0: af41 dd38 5230 1d35 cecb b737 f410 8a36
000000c0: af81 8637 8d5d 1137 386c da38 e392 0538
000000d0: 2b38 8938 20f3 0b38 deef d736 81f0 1838
000000e0: 7921 aa3a cab6 4a39 7b29 9835 e277 2d37
000000f0: 672f 1436 a4c0 c535 9284 9a31 b32a 1e37

exp_avg f4 [1, 64]
0.4138034 0.060618967 -0.005828887 0.34626085 -0.1925936 -0.4566227 0.06057635 0.051246405
-0.09448728 0.45601627 0.2726841 -0.16199571 0.0604963 0.12623712 -0.1241349 -0.018898875
0.40448743 0.060281396 -0.16171458 -0.12665698 -0.004096836 -0.13566586 0.16176006 0.115490645
0.17196208 -0.45817262 -0.22491577 -0.4564492 0.25216958 -0.19494145 -0.014969438 -0.4131447
0.17033842 -0.41178727 0.01517126 0.35666808 -0.19225863 0.314059 -0.45837653 0.3014825
0.4126268 0.17743714 -0.20572704 -0.36919624 0.17090553 -0.25210395 -0.07113716 -0.45888895
0.17232922 0.051226318 -0.29902762 -0.17185655 -0.44779745 0.17923117 0.34676462 0.117444426
-0.06423345 0.4568344 0.34705913 -0.005495012 0.051728845 0.31802762 -0.050538927 -0.0144432485
00000000: 0ade d33e 984b 783d 4000 bfbb 1a49 b13e
00000010: 4237 45be 73ca e9be e81e 783d c0e7 513d
00000020: 8c82 c1bd f77a e93e 409d 8b3e 34e2 25be
00000030: f8ca 773d 4e44 013e 703a febd d0d1 9abc
00000040: fa18 cf3e a0e9 763d 8298 25be 5eb2 01be
00000050: c03e 86bb feeb 0abe 6ea4 253e 5c86 ec3d
00000060: d416 303e 9a95 eabe 5250 66be b6b3 e9be
00000070: 5f1c 813e bb9e 47be 6042 75bc b487 d3be
00000080: 326d 2e3e c8d5 d2be e090 783c 339d b63e
00000090: 72df 44be 57cc a03e 54b0 eabe ea5b 9a3e
000000a0: d243 d33e 15b2 353e 1caa 52be 4a07 bdbe
000000b0: dc01 2f3e c513 81be 5cb0 91bd 7ef3 eabe
000000c0: 1277 303e b0d2 513d 261a 99be 2afb 2fbe
000000d0: b545 e5be 6088 373e 228b b13e b486 f03d
000000e0: d48c 83bd 33e6 e93e bcb1 b13e 800f b4bb
000000f0: a0e1 533d 84d4 a23e e801 4fbd 60a3 6cbc

exp_avg_sq f4 [1, 64]
7.3319874 38.841007 22.575468 7.1437707 7.874692 8.50538 38.83436 30.794184
30.435966 8.485449 7.176827 7.8992653 38.819958 38.51497 38.209892 10.325945
7.0079074 38.78495 17.880096 38.581448 23.813707 17.996933 7.9672923 30.609106
47.815224 8.560371 9.940923 8.50022 10.0932865 7.916242 30.677507 7.321164
47.52981 6.99738 30.704107 7.816851 10.103904 7.1959505 8.567558 6.89217
7.3130217 13.237552 7.0049024 7.059002 47.626682 10.095039 23.701973 8.585697
47.878307 30.792238 7.0367956 47.795204 7.086051 13.184235 7.15264 30.577536
22.999807 8.513324 7.1578393 23.97004 30.861063 7.2592673 13.629069 30.776812
00000000: a49f ea40 315d 1b42 8f9a b441 c599 e440
00000010: 7afd fb40 0916 0841 6256 1b42 7d5a f641
00000020: dc7c f341 66c4 0741 91a8 e540 c8c6 fc40
00000030: a347 1b42 540f 1a42 eed6 1842 1237 2541
00000040: c740 e040 ca23 1b42 700a 8f41 6753 1a42
00000050: 7982 be41 b8f9 8f41 0ff4 fe40 73df f441
00000060: ca42 3f42 48f7 0841 050e 1f41 e700 0841
00000070: 1a7e 2141 db51 fd40 896b f541 fa46 ea40
00000080: 871e 3e42 89ea df40 03a2 f541 a523 fa40
00000090: 97a9 2141 3a45 e640 b814 0941 a88c dc40
000000a0: 4604 ea40 03cd 5341 2928 e040 58e3 e140
000000b0: b981 3e42 4885 2141 a49d bd41 045f 0941
000000c0: 6383 3f42 8156 f641 6e2d e140 4a2e 3f42
000000d0: eec0 e240 a0f2 5241 6de2 e440 cb9e f441
000000e0: 9bff b741 9336 0841 050d e540 a4c2 bf41
000000f0: 75e3 f641 eb4b e840 ab10 5a41 e936 f641
